…
nch, Poephila_castanotis, zebra_mussel, Dreissena_polymorpha, zebrawood, zebrawood_tree, zebu, zero, ziggurat, zikkurat, zikurat, zigzag_goldenrod, broad_leaved_goldenrod, zill, zinfandel, zinnia, old_maid, old_maid_flower, zip_gun, zither, cither, zithern, zodiac, zombie, zombi, zoo_keeper, zooid, zoomastigote, zooflagellate, zooplankton, zoospore, zoot_suit, zoysia, zucchini, courgette, zwieback, rusk, Brussels_biscuit, twice-baked_bread, zygospore
BeitForImageClassification(
  (beit): BeitModel(
    (embeddings): BeitEmbeddings(
      (patch_embeddings): PatchEmbeddings(
        (projection): Conv2d(3, 768, kernel_size=(16, 16), stride=(16, 16))
      )
      (dropout): Dropout(p=0.0, inplace=False)
    )
    (encoder): BeitEncoder(
      (layer): ModuleList(
        (0): BeitLayer(
          (attention): BeitAttention(
            (attention): BeitSelfAttention(
              (query): Linear(in_features=768, out_features=768, bias=True)
              (key): Linear(in_features=768, out_features=768, bias=False)
              (value): Linear(in_features=768, out_features=768, bias=True)
              (dropout): Dropout(p=0.0, inplace=False)
              (relative_position_bias): BeitRelativePositionBias()
            )
            (output): BeitSelfOutput(
              (dense): Linear(in_features=768, out_features=768, bias=True)
              (dropout): Dropout(p=0.0, inplace=False)
            )
          )
          (intermediate): BeitIntermediate(
            (dense): Linear(in_features=768, out_features=3072, bias=True)
          )
          (output): BeitOutput(
            (dense): Linear(in_features=3072, out_features=768, bias=True)
            (dropout): Dropout(p=0.0, inplace=False)
          )
          (layernorm_before): LayerNorm((768,), eps=1e-12, elementwise_affine=True)
          (drop_path): Identity()
          (layernorm_after): LayerNorm((768,), eps=1e-12, elementwise_affine=True)
        )
        (1): BeitLayer(
          (attention): BeitAttention(
            (attention): BeitSelfAttention(
              (query): Linear(in_features=768, out_features=768, bias=True)
              (key): Linear(in_features=768, out_features=768, bias=False)
              (value): Linear(in_features=768, out_features=768, bias=True)
              (dropout): Dropout(p=0.0, inplace=False)
              (relative_position_bias): BeitRelativePositionBias()
            )
            (output): BeitSelfOutput(
              (dense): Linear(in_features=768, out_features=768, bias=True)
              (dropout): Dropout(p=0.0, inplace=False)
            )
          )
          (intermediate): BeitIntermediate(
            (dense): Linear(in_features=768, out_features=3072, bias=True)
          )
          (output): BeitOutput(
            (dense): Linear(in_features=3072, out_features=768, bias=True)
            (dropout): Dropout(p=0.0, inplace=False)
          )
          (layernorm_before): LayerNorm((768,), eps=1e-12, elementwise_affine=True)
          (drop_path): DropPath(p=0.00909090880304575)
          (layernorm_after): LayerNorm((768,), eps=1e-12, elementwise_affine=True)
        )
        (2): BeitLayer(
          (attention): BeitAttention(
            (attention): BeitSelfAttention(
              (query): Linear(in_features=768, out_features=768, bias=True)
              (key): Linear(in_features=768, out_features=768, bias=False)
              (value): Linear(in_features=768, out_features=768, bias=True)
              (dropout): Dropout(p=0.0, inplace=False)
              (relative_position_bias): BeitRelativePositionBias()
            )
            (output): BeitSelfOutput(
              (dense): Linear(in_features=768, out_features=768, bias=True)
              (dropout): Dropout(p=0.0, inplace=False)
            )
          )
          (intermediate): BeitIntermediate(
            (dense): Linear(in_features=768, out_features=3072, bias=True)
          )
          (output): BeitOutput(
            (dense): Linear(in_features=3072, out_features=768, bias=True)
            (dropout): Dropout(p=0.0, inplace=False)
          )
          (layernorm_before): LayerNorm((768,), eps=1e-12, elementwise_affine=True)
          (drop_path): DropPath(p=0.0181818176060915)
          (layernorm_after): LayerNorm((768,), eps=1e-12, elementwise_affine=True)
        )
        (3): BeitLayer(
          (attention): BeitAttention(
            (attention): BeitSelfAttention(
              (query): Linear(in_features=768, out_features=768, bias=True)
              (key): Linear(in_features=768, out_features=768, bias=False)
              (value): Linear(in_features=768, out_features=768, bias=True)
              (dropout): Dropout(p=0.0, inplace=False)
              (relative_position_bias): BeitRelativePositionBias()
            )
            (output): BeitSelfOutput(
              (dense): Linear(in_features=768, out_features=768, bias=True)
              (dropout): Dropout(p=0.0, inplace=False)
            )
          )
          (intermediate): BeitIntermediate(
            (dense): Linear(in_features=768, out_features=3072, bias=True)
          )
          (output): BeitOutput(
            (dense): Linear(in_features=3072, out_features=768, bias=True)
            (dropout): Dropout(p=0.0, inplace=False)
          )
          (layernorm_before): LayerNorm((768,), eps=1e-12, elementwise_affine=True)
          (drop_path): DropPath(p=0.027272727340459824)
          (layernorm_after): LayerNorm((768,), eps=1e-12, elementwise_affine=True)
        )
        (4): BeitLayer(
          (attention): BeitAttention(
            (attention): BeitSelfAttention(
              (query): Linear(in_features=768, out_features=768, bias=True)
              (key): Linear(in_features=768, out_features=768, bias=False)
              (value): Linear(in_features=768, out_features=768, bias=True)
              (dropout): Dropout(p=0.0, inplace=False)
              (relative_position_bias): BeitRelativePositionBias()
            )
            (output): BeitSelfOutput(
              (dense): Linear(in_features=768, out_features=768, bias=True)
              (dropout): Dropout(p=0.0, inplace=False)
            )
          )
          (intermediate): BeitIntermediate(
            (dense): Linear(in_features=768, out_features=3072, bias=True)
          )
          (output): BeitOutput(
            (dense): Linear(in_features=3072, out_features=768, bias=True)
            (dropout): Dropout(p=0.0, inplace=False)
          )
          (layernorm_before): LayerNorm((768,), eps=1e-12, elementwise_affine=True)
          (drop_path): DropPath(p=0.036363635212183)
          (layernorm_after): LayerNorm((768,), eps=1e-12, elementwise_affine=True)
        )
        (5): BeitLayer(
          (attention): BeitAttention(
            (attention): BeitSelfAttention(
              (query): Linear(in_features=768, out_features=768, bias=True)
              (key): Linear(in_features=768, out_features=768, bias=False)
              (value): Linear(in_features=768, out_features=768, bias=True)
              (dropout): Dropout(p=0.0, inplace=False)
              (relative_position_bias): BeitRelativePositionBias()
            )
            (output): BeitSelfOutput(
              (dense): Linear(in_features=768, out_features=768, bias=True)
              (dropout): Dropout(p=0.0, inplace=False)
            )
          )
          (intermediate): BeitIntermediate(
            (dense): Linear(in_features=768, out_features=3072, bias=True)
          )
          (output): BeitOutput(
            (dense): Linear(in_features=3072, out_features=768, bias=True)
            (dropout): Dropout(p=0.0, inplace=False)
          )
          (layernorm_before): LayerNorm((768,), eps=1e-12, elementwise_affine=True)
          (drop_path): DropPath(p=0.045454543083906174)
          (layernorm_after): LayerNorm((768,), eps=1e-12, elementwise_affine=True)
        )
        (6): BeitLayer(
          (attention): BeitAttention(
            (attention): BeitSelfAttention(
              (query): Linear(in_features=768, out_features=768, bias=True)
              (key): Linear(in_features=768, out_features=768, bias=False)
              (value): Linear(in_features=768, out_features=768, bias=True)
              (dropout): Dropout(p=0.0, inplace=False)
              (relative_position_bias): BeitRelativePositionBias()
            )
            (output): BeitSelfOutput(
              (dense): Linear(in_features=768, out_features=768, bias=True)
              (dropout): Dropout(p=0.0, inplace=False)
            )
          )
          (intermediate): BeitIntermediate(
            (dense): Linear(in_features=768, out_features=3072, bias=True)
          )
          (output): BeitOutput(
            (dense): Linear(in_features=3072, out_features=768, bias=True)
            (dropout): Dropout(p=0.0, inplace=False)
          )
          (layernorm_before): LayerNorm((768,), eps=1e-12, elementwise_affine=True)
          (drop_path): DropPath(p=0.054545458406209946)
          (layernorm_after): LayerNorm((768,), eps=1e-12, elementwise_affine=True)
        )
        (7): BeitLayer(
          (attention): BeitAttention(
            (attention): BeitSelfAttention(
              (query): Linear(in_features=768, out_features=768, bias=True)
              (key): Linear(in_features=768, out_features=768, bias=False)
              (value): Linear(in_features=768, out_features=768, bias=True)
              (dropout): Dropout(p=0.0, inplace=False)
              (relative_position_bias): BeitRelativePositionBias()
            )
            (output): BeitSelfOutput(
              (dense): Linear(in_features=768, out_features=768, bias=True)
              (dropout): Dropout(p=0.0, inplace=False)
            )
          )
          (intermediate): BeitIntermediate(
            (dense): Linear(in_features=768, out_features=3072, bias=True)
          )
          (output): BeitOutput(
            (dense): Linear(in_features=3072, out_features=768, bias=True)
            (dropout): Dropout(p=0.0, inplace=False)
          )
          (layernorm_before): LayerNorm((768,), eps=1e-12, elementwise_affine=True)
          (drop_path): DropPath(p=0.06363636255264282)
          (layernorm_after): LayerNorm((768,), eps=1e-12, elementwise_affine=True)
        )
        (8): BeitLayer(
          (attention): BeitAttention(
            (attention): BeitSelfAttention(
              (query): Linear(in_features=768, out_features=768, bias=True)
              (key): Linear(in_features=768, out_features=768, bias=False)
              (value): Linear(in_features=768, out_features=768, bias=True)
              (dropout): Dropout(p=0.0, inplace=False)
              (relative_position_bias): BeitRelativePositionBias()
            )
            (output): BeitSelfOutput(
              (dense): Linear(in_features=768, out_features=768, bias=True)
              (dropout): Dropout(p=0.0, inplace=False)
            )
          )
          (intermediate): BeitIntermediate(
            (dense): Linear(in_features=768, out_features=3072, bias=True)
          )
          (output): BeitOutput(
            (dense): Linear(in_features=3072, out_features=768, bias=True)
            (dropout): Dropout(p=0.0, inplace=False)
          )
          (layernorm_before): LayerNorm((768,), eps=1e-12, elementwise_affine=True)
          (drop_path): DropPath(p=0.0727272778749466)
          (layernorm_after): LayerNorm((768,), eps=1e-12, elementwise_affine=True)
        )
        (9): BeitLayer(
          (attention): BeitAttention(
            (attention): BeitSelfAttention(
              (query): Linear(in_features=768, out_features=768, bias=True)
              (key): Linear(in_features=768, out_features=768, bias=False)
              (value): Linear(in_features=768, out_features=768, bias=True)
              (dropout): Dropout(p=0.0, inplace=False)
              (relative_position_bias): BeitRelativePositionBias()
            )
            (output): BeitSelfOutput(
              (dense): Linear(in_features=768, out_features=768, bias=True)
              (dropout): Dropout(p=0.0, inplace=False)
            )
          )
          (intermediate): BeitIntermediate(
            (dense): Linear(in_features=768, out_features=3072, bias=True)
          )
          (output): BeitOutput(
            (dense): Linear(in_features=3072, out_features=768, bias=True)
            (dropout): Dropout(p=0.0, inplace=False)
          )
          (layernorm_before): LayerNorm((768,), eps=1e-12, elementwise_affine=True)
          (drop_path): DropPath(p=0.08181818574666977)
          (layernorm_after): LayerNorm((768,), eps=1e-12, elementwise_affine=True)
        )
        (10): BeitLayer(
          (attention): BeitAttention(
            (attention): BeitSelfAttention(
              (query): Linear(in_features=768, out_features=768, bias=True)
              (key): Linear(in_features=768, out_features=768, bias=False)
              (value): Linear(in_features=768, out_features=768, bias=True)
              (dropout): Dropout(p=0.0, inplace=False)
              (relative_position_bias): BeitRelativePositionBias()
            )
            (output): BeitSelfOutput(
              (dense): Linear(in_features=768, out_features=768, bias=True)
              (dropout): Dropout(p=0.0, inplace=False)
            )
          )
          (intermediate): BeitIntermediate(
            (dense): Linear(in_features=768, out_features=3072, bias=True)
          )
          (output): BeitOutput(
            (dense): Linear(in_features=3072, out_features=768, bias=True)
            (dropout): Dropout(p=0.0, inplace=False)
          )
          (layernorm_before): LayerNorm((768,), eps=1e-12, elementwise_affine=True)
          (drop_path): DropPath(p=0.09090909361839294)
          (layernorm_after): LayerNorm((768,), eps=1e-12, elementwise_affine=True)
        )
        (11): BeitLayer(
          (attention): BeitAttention(
            (attention): BeitSelfAttention(
              (query): Linear(in_features=768, out_features=768, bias=True)
              (key): Linear(in_features=768, out_features=768, bias=False)
              (value): Linear(in_features=768, out_features=768, bias=True)
              (dropout): Dropout(p=0.0, inplace=False)
              (relative_position_bias): BeitRelativePositionBias()
            )
            (output): BeitSelfOutput(
              (dense): Linear(in_features=768, out_features=768, bias=True)
              (dropout): Dropout(p=0.0, inplace=False)
            )
          )
          (intermediate): BeitIntermediate(
            (dense): Linear(in_features=768, out_features=3072, bias=True)
          )
          (output): BeitOutput(
            (dense): Linear(in_features=3072, out_features=768, bias=True)
            (dropout): Dropout(p=0.0, inplace=False)
          )
          (layernorm_before): LayerNorm((768,), eps=1e-12, elementwise_affine=True)
          (drop_path): DropPath(p=0.10000000149011612)
          (layernorm_after): LayerNorm((768,), eps=1e-12, elementwise_affine=True)
        )
      )
    )
    (layernorm): Identity()
    (pooler): BeitPooler(
      (layernorm): LayerNorm((768,), eps=1e-12, elementwise_affine=True)
    )
  )
  (classifier): Linear(in_features=768, out_features=21841, bias=True)
)
