name: bert_model_0	labels (NA): NA	BertModel(
  (embeddings): BertEmbeddings(
    (word_embeddings): Embedding(29564, 312, sparse=False)
    (position_embeddings): Embedding(512, 312, sparse=False)
    (token_type_embeddings): Embedding(2, 312, sparse=False)
    (layer_norm): LayerNorm(normalized_shape=[312], epsilon=1e-12)
    (dropout): Dropout(p=0.1, axis=None, mode=upscale_in_train)
  )
  (encoder): TransformerEncoder(
    (layers): LayerList(
      (0): TransformerEncoderLayer(
        (self_attn): MultiHeadAttention(
          (q_proj): Linear(in_features=312, out_features=312, dtype=float32)
          (k_proj): Linear(in_features=312, out_features=312, dtype=float32)
          (v_proj): Linear(in_features=312, out_features=312, dtype=float32)
          (out_proj): Linear(in_features=312, out_features=312, dtype=float32)
        )
        (linear1): Linear(in_features=312, out_features=600, dtype=float32)
        (dropout): Dropout(p=0, axis=None, mode=upscale_in_train)
        (linear2): Linear(in_features=600, out_features=312, dtype=float32)
        (norm1): LayerNorm(normalized_shape=[312], epsilon=1e-12)
        (norm2): LayerNorm(normalized_shape=[312], epsilon=1e-12)
        (dropout1): Dropout(p=0.1, axis=None, mode=upscale_in_train)
        (dropout2): Dropout(p=0.1, axis=None, mode=upscale_in_train)
      )
      (1): TransformerEncoderLayer(
        (self_attn): MultiHeadAttention(
          (q_proj): Linear(in_features=312, out_features=312, dtype=float32)
          (k_proj): Linear(in_features=312, out_features=312, dtype=float32)
          (v_proj): Linear(in_features=312, out_features=312, dtype=float32)
          (out_proj): Linear(in_features=312, out_features=312, dtype=float32)
        )
        (linear1): Linear(in_features=312, out_features=600, dtype=float32)
        (dropout): Dropout(p=0, axis=None, mode=upscale_in_train)
        (linear2): Linear(in_features=600, out_features=312, dtype=float32)
        (norm1): LayerNorm(normalized_shape=[312], epsilon=1e-12)
        (norm2): LayerNorm(normalized_shape=[312], epsilon=1e-12)
        (dropout1): Dropout(p=0.1, axis=None, mode=upscale_in_train)
        (dropout2): Dropout(p=0.1, axis=None, mode=upscale_in_train)
      )
      (2): TransformerEncoderLayer(
        (self_attn): MultiHeadAttention(
          (q_proj): Linear(in_features=312, out_features=312, dtype=float32)
          (k_proj): Linear(in_features=312, out_features=312, dtype=float32)
          (v_proj): Linear(in_features=312, out_features=312, dtype=float32)
          (out_proj): Linear(in_features=312, out_features=312, dtype=float32)
        )
        (linear1): Linear(in_features=312, out_features=600, dtype=float32)
        (dropout): Dropout(p=0, axis=None, mode=upscale_in_train)
        (linear2): Linear(in_features=600, out_features=312, dtype=float32)
        (norm1): LayerNorm(normalized_shape=[312], epsilon=1e-12)
        (norm2): LayerNorm(normalized_shape=[312], epsilon=1e-12)
        (dropout1): Dropout(p=0.1, axis=None, mode=upscale_in_train)
        (dropout2): Dropout(p=0.1, axis=None, mode=upscale_in_train)
      )
    )
  )
  (pooler): BertPooler(
    (dense): Linear(in_features=312, out_features=312, dtype=float32)
    (activation): Tanh()
  )
)
