name: albert_model_0	labels (NA): NA	AlbertModel(
  (embeddings): AlbertEmbeddings(
    (word_embeddings): Embedding(30000, 128, padding_idx=0, sparse=False)
    (position_embeddings): Embedding(512, 128, sparse=False)
    (token_type_embeddings): Embedding(2, 128, sparse=False)
    (layer_norm): LayerNorm(normalized_shape=[128], epsilon=1e-12)
    (dropout): Dropout(p=0, axis=None, mode=upscale_in_train)
  )
  (encoder): AlbertTransformer(
    (embedding_hidden_mapping_in): Linear(in_features=128, out_features=1024, dtype=float32)
    (albert_layer_groups): LayerList(
      (0): AlbertLayerGroup(
        (albert_layers): LayerList(
          (0): AlbertLayer(
            (full_layer_layer_norm): LayerNorm(normalized_shape=[1024], epsilon=1e-12)
            (attention): AlbertAttention(
              (query): Linear(in_features=1024, out_features=1024, dtype=float32)
              (key): Linear(in_features=1024, out_features=1024, dtype=float32)
              (value): Linear(in_features=1024, out_features=1024, dtype=float32)
              (attention_dropout): Dropout(p=0, axis=None, mode=upscale_in_train)
              (output_dropout): Dropout(p=0, axis=None, mode=upscale_in_train)
              (dense): Linear(in_features=1024, out_features=1024, dtype=float32)
              (layer_norm): LayerNorm(normalized_shape=[1024], epsilon=1e-12)
            )
            (ffn): Linear(in_features=1024, out_features=4096, dtype=float32)
            (ffn_output): Linear(in_features=4096, out_features=1024, dtype=float32)
            (dropout): Dropout(p=0, axis=None, mode=upscale_in_train)
          )
        )
      )
    )
  )
  (pooler): Linear(in_features=1024, out_features=1024, dtype=float32)
  (pooler_activation): Tanh()
)
