name: bart_model_0	labels (NA): NA	BartModel(
  (shared): Embedding(50265, 768, padding_idx=1, sparse=False)
  (encoder): BartEncoder(
    (embed_tokens): Embedding(50265, 768, padding_idx=1, sparse=False)
    (encoder_embed_positions): BartLearnedPositionalEmbedding(1026, 768, padding_idx=1, sparse=False)
    (encoder_dropout): Dropout(p=0.1, axis=None, mode=upscale_in_train)
    (encoder_layernorm_embedding): LayerNorm(normalized_shape=[768], epsilon=1e-05)
    (encoder): TransformerEncoder(
      (layers): LayerList(
        (0): TransformerEncoderLayer(
          (self_attn): MultiHeadAttention(
            (q_proj): Linear(in_features=768, out_features=768, dtype=float32)
            (k_proj): Linear(in_features=768, out_features=768, dtype=float32)
            (v_proj): Linear(in_features=768, out_features=768, dtype=float32)
            (out_proj): Linear(in_features=768, out_features=768, dtype=float32)
          )
          (linear1): Linear(in_features=768, out_features=3072, dtype=float32)
          (dropout): Dropout(p=0.1, axis=None, mode=upscale_in_train)
          (linear2): Linear(in_features=3072, out_features=768, dtype=float32)
          (norm1): LayerNorm(normalized_shape=[768], epsilon=1e-05)
          (norm2): LayerNorm(normalized_shape=[768], epsilon=1e-05)
          (dropout1): Dropout(p=0.1, axis=None, mode=upscale_in_train)
          (dropout2): Dropout(p=0.1, axis=None, mode=upscale_in_train)
        )
        (1): TransformerEncoderLayer(
          (self_attn): MultiHeadAttention(
            (q_proj): Linear(in_features=768, out_features=768, dtype=float32)
            (k_proj): Linear(in_features=768, out_features=768, dtype=float32)
            (v_proj): Linear(in_features=768, out_features=768, dtype=float32)
            (out_proj): Linear(in_features=768, out_features=768, dtype=float32)
          )
          (linear1): Linear(in_features=768, out_features=3072, dtype=float32)
          (dropout): Dropout(p=0.1, axis=None, mode=upscale_in_train)
          (linear2): Linear(in_features=3072, out_features=768, dtype=float32)
          (norm1): LayerNorm(normalized_shape=[768], epsilon=1e-05)
          (norm2): LayerNorm(normalized_shape=[768], epsilon=1e-05)
          (dropout1): Dropout(p=0.1, axis=None, mode=upscale_in_train)
          (dropout2): Dropout(p=0.1, axis=None, mode=upscale_in_train)
        )
        (2): TransformerEncoderLayer(
          (self_attn): MultiHeadAttention(
            (q_proj): Linear(in_features=768, out_features=768, dtype=float32)
            (k_proj): Linear(in_features=768, out_features=768, dtype=float32)
            (v_proj): Linear(in_features=768, out_features=768, dtype=float32)
            (out_proj): Linear(in_features=768, out_features=768, dtype=float32)
          )
          (linear1): Linear(in_features=768, out_features=3072, dtype=float32)
          (dropout): Dropout(p=0.1, axis=None, mode=upscale_in_train)
          (linear2): Linear(in_features=3072, out_features=768, dtype=float32)
          (norm1): LayerNorm(normalized_shape=[768], epsilon=1e-05)
          (norm2): LayerNorm(normalized_shape=[768], epsilon=1e-05)
          (dropout1): Dropout(p=0.1, axis=None, mode=upscale_in_train)
          (dropout2): Dropout(p=0.1, axis=None, mode=upscale_in_train)
        )
        (3): TransformerEncoderLayer(
          (self_attn): MultiHeadAttention(
            (q_proj): Linear(in_features=768, out_features=768, dtype=float32)
            (k_proj): Linear(in_features=768, out_features=768, dtype=float32)
            (v_proj): Linear(in_features=768, out_features=768, dtype=float32)
            (out_proj): Linear(in_features=768, out_features=768, dtype=float32)
          )
          (linear1): Linear(in_features=768, out_features=3072, dtype=float32)
          (dropout): Dropout(p=0.1, axis=None, mode=upscale_in_train)
          (linear2): Linear(in_features=3072, out_features=768, dtype=float32)
          (norm1): LayerNorm(normalized_shape=[768], epsilon=1e-05)
          (norm2): LayerNorm(normalized_shape=[768], epsilon=1e-05)
          (dropout1): Dropout(p=0.1, axis=None, mode=upscale_in_train)
          (dropout2): Dropout(p=0.1, axis=None, mode=upscale_in_train)
        )
        (4): TransformerEncoderLayer(
          (self_attn): MultiHeadAttention(
            (q_proj): Linear(in_features=768, out_features=768, dtype=float32)
            (k_proj): Linear(in_features=768, out_features=768, dtype=float32)
            (v_proj): Linear(in_features=768, out_features=768, dtype=float32)
            (out_proj): Linear(in_features=768, out_features=768, dtype=float32)
          )
          (linear1): Linear(in_features=768, out_features=3072, dtype=float32)
          (dropout): Dropout(p=0.1, axis=None, mode=upscale_in_train)
          (linear2): Linear(in_features=3072, out_features=768, dtype=float32)
          (norm1): LayerNorm(normalized_shape=[768], epsilon=1e-05)
          (norm2): LayerNorm(normalized_shape=[768], epsilon=1e-05)
          (dropout1): Dropout(p=0.1, axis=None, mode=upscale_in_train)
          (dropout2): Dropout(p=0.1, axis=None, mode=upscale_in_train)
        )
        (5): TransformerEncoderLayer(
          (self_attn): MultiHeadAttention(
            (q_proj): Linear(in_features=768, out_features=768, dtype=float32)
            (k_proj): Linear(in_features=768, out_features=768, dtype=float32)
            (v_proj): Linear(in_features=768, out_features=768, dtype=float32)
            (out_proj): Linear(in_features=768, out_features=768, dtype=float32)
          )
          (linear1): Linear(in_features=768, out_features=3072, dtype=float32)
          (dropout): Dropout(p=0.1, axis=None, mode=upscale_in_train)
          (linear2): Linear(in_features=3072, out_features=768, dtype=float32)
          (norm1): LayerNorm(normalized_shape=[768], epsilon=1e-05)
          (norm2): LayerNorm(normalized_shape=[768], epsilon=1e-05)
          (dropout1): Dropout(p=0.1, axis=None, mode=upscale_in_train)
          (dropout2): Dropout(p=0.1, axis=None, mode=upscale_in_train)
        )
      )
    )
  )
  (decoder): BartDecoder(
    (embed_tokens): Embedding(50265, 768, padding_idx=1, sparse=False)
    (decoder_embed_positions): BartLearnedPositionalEmbedding(1026, 768, padding_idx=1, sparse=False)
    (decoder_dropout): Dropout(p=0.1, axis=None, mode=upscale_in_train)
    (decoder_layernorm_embedding): LayerNorm(normalized_shape=[768], epsilon=1e-05)
    (decoder): TransformerDecoder(
      (layers): LayerList(
        (0): TransformerDecoderLayer(
          (self_attn): MultiHeadAttention(
            (q_proj): Linear(in_features=768, out_features=768, dtype=float32)
            (k_proj): Linear(in_features=768, out_features=768, dtype=float32)
            (v_proj): Linear(in_features=768, out_features=768, dtype=float32)
            (out_proj): Linear(in_features=768, out_features=768, dtype=float32)
          )
          (cross_attn): MultiHeadAttention(
            (q_proj): Linear(in_features=768, out_features=768, dtype=float32)
            (k_proj): Linear(in_features=768, out_features=768, dtype=float32)
            (v_proj): Linear(in_features=768, out_features=768, dtype=float32)
            (out_proj): Linear(in_features=768, out_features=768, dtype=float32)
          )
          (linear1): Linear(in_features=768, out_features=3072, dtype=float32)
          (dropout): Dropout(p=0.1, axis=None, mode=upscale_in_train)
          (linear2): Linear(in_features=3072, out_features=768, dtype=float32)
          (norm1): LayerNorm(normalized_shape=[768], epsilon=1e-05)
          (norm2): LayerNorm(normalized_shape=[768], epsilon=1e-05)
          (norm3): LayerNorm(normalized_shape=[768], epsilon=1e-05)
          (dropout1): Dropout(p=0.1, axis=None, mode=upscale_in_train)
          (dropout2): Dropout(p=0.1, axis=None, mode=upscale_in_train)
          (dropout3): Dropout(p=0.1, axis=None, mode=upscale_in_train)
        )
        (1): TransformerDecoderLayer(
          (self_attn): MultiHeadAttention(
            (q_proj): Linear(in_features=768, out_features=768, dtype=float32)
            (k_proj): Linear(in_features=768, out_features=768, dtype=float32)
            (v_proj): Linear(in_features=768, out_features=768, dtype=float32)
            (out_proj): Linear(in_features=768, out_features=768, dtype=float32)
          )
          (cross_attn): MultiHeadAttention(
            (q_proj): Linear(in_features=768, out_features=768, dtype=float32)
            (k_proj): Linear(in_features=768, out_features=768, dtype=float32)
            (v_proj): Linear(in_features=768, out_features=768, dtype=float32)
            (out_proj): Linear(in_features=768, out_features=768, dtype=float32)
          )
          (linear1): Linear(in_features=768, out_features=3072, dtype=float32)
          (dropout): Dropout(p=0.1, axis=None, mode=upscale_in_train)
          (linear2): Linear(in_features=3072, out_features=768, dtype=float32)
          (norm1): LayerNorm(normalized_shape=[768], epsilon=1e-05)
          (norm2): LayerNorm(normalized_shape=[768], epsilon=1e-05)
          (norm3): LayerNorm(normalized_shape=[768], epsilon=1e-05)
          (dropout1): Dropout(p=0.1, axis=None, mode=upscale_in_train)
          (dropout2): Dropout(p=0.1, axis=None, mode=upscale_in_train)
          (dropout3): Dropout(p=0.1, axis=None, mode=upscale_in_train)
        )
        (2): TransformerDecoderLayer(
          (self_attn): MultiHeadAttention(
            (q_proj): Linear(in_features=768, out_features=768, dtype=float32)
            (k_proj): Linear(in_features=768, out_features=768, dtype=float32)
            (v_proj): Linear(in_features=768, out_features=768, dtype=float32)
            (out_proj): Linear(in_features=768, out_features=768, dtype=float32)
          )
          (cross_attn): MultiHeadAttention(
            (q_proj): Linear(in_features=768, out_features=768, dtype=float32)
            (k_proj): Linear(in_features=768, out_features=768, dtype=float32)
            (v_proj): Linear(in_features=768, out_features=768, dtype=float32)
            (out_proj): Linear(in_features=768, out_features=768, dtype=float32)
          )
          (linear1): Linear(in_features=768, out_features=3072, dtype=float32)
          (dropout): Dropout(p=0.1, axis=None, mode=upscale_in_train)
          (linear2): Linear(in_features=3072, out_features=768, dtype=float32)
          (norm1): LayerNorm(normalized_shape=[768], epsilon=1e-05)
          (norm2): LayerNorm(normalized_shape=[768], epsilon=1e-05)
          (norm3): LayerNorm(normalized_shape=[768], epsilon=1e-05)
          (dropout1): Dropout(p=0.1, axis=None, mode=upscale_in_train)
          (dropout2): Dropout(p=0.1, axis=None, mode=upscale_in_train)
          (dropout3): Dropout(p=0.1, axis=None, mode=upscale_in_train)
        )
        (3): TransformerDecoderLayer(
          (self_attn): MultiHeadAttention(
            (q_proj): Linear(in_features=768, out_features=768, dtype=float32)
            (k_proj): Linear(in_features=768, out_features=768, dtype=float32)
            (v_proj): Linear(in_features=768, out_features=768, dtype=float32)
            (out_proj): Linear(in_features=768, out_features=768, dtype=float32)
          )
          (cross_attn): MultiHeadAttention(
            (q_proj): Linear(in_features=768, out_features=768, dtype=float32)
            (k_proj): Linear(in_features=768, out_features=768, dtype=float32)
            (v_proj): Linear(in_features=768, out_features=768, dtype=float32)
            (out_proj): Linear(in_features=768, out_features=768, dtype=float32)
          )
          (linear1): Linear(in_features=768, out_features=3072, dtype=float32)
          (dropout): Dropout(p=0.1, axis=None, mode=upscale_in_train)
          (linear2): Linear(in_features=3072, out_features=768, dtype=float32)
          (norm1): LayerNorm(normalized_shape=[768], epsilon=1e-05)
          (norm2): LayerNorm(normalized_shape=[768], epsilon=1e-05)
          (norm3): LayerNorm(normalized_shape=[768], epsilon=1e-05)
          (dropout1): Dropout(p=0.1, axis=None, mode=upscale_in_train)
          (dropout2): Dropout(p=0.1, axis=None, mode=upscale_in_train)
          (dropout3): Dropout(p=0.1, axis=None, mode=upscale_in_train)
        )
        (4): TransformerDecoderLayer(
          (self_attn): MultiHeadAttention(
            (q_proj): Linear(in_features=768, out_features=768, dtype=float32)
            (k_proj): Linear(in_features=768, out_features=768, dtype=float32)
            (v_proj): Linear(in_features=768, out_features=768, dtype=float32)
            (out_proj): Linear(in_features=768, out_features=768, dtype=float32)
          )
          (cross_attn): MultiHeadAttention(
            (q_proj): Linear(in_features=768, out_features=768, dtype=float32)
            (k_proj): Linear(in_features=768, out_features=768, dtype=float32)
            (v_proj): Linear(in_features=768, out_features=768, dtype=float32)
            (out_proj): Linear(in_features=768, out_features=768, dtype=float32)
          )
          (linear1): Linear(in_features=768, out_features=3072, dtype=float32)
          (dropout): Dropout(p=0.1, axis=None, mode=upscale_in_train)
          (linear2): Linear(in_features=3072, out_features=768, dtype=float32)
          (norm1): LayerNorm(normalized_shape=[768], epsilon=1e-05)
          (norm2): LayerNorm(normalized_shape=[768], epsilon=1e-05)
          (norm3): LayerNorm(normalized_shape=[768], epsilon=1e-05)
          (dropout1): Dropout(p=0.1, axis=None, mode=upscale_in_train)
          (dropout2): Dropout(p=0.1, axis=None, mode=upscale_in_train)
          (dropout3): Dropout(p=0.1, axis=None, mode=upscale_in_train)
        )
        (5): TransformerDecoderLayer(
          (self_attn): MultiHeadAttention(
            (q_proj): Linear(in_features=768, out_features=768, dtype=float32)
            (k_proj): Linear(in_features=768, out_features=768, dtype=float32)
            (v_proj): Linear(in_features=768, out_features=768, dtype=float32)
            (out_proj): Linear(in_features=768, out_features=768, dtype=float32)
          )
          (cross_attn): MultiHeadAttention(
            (q_proj): Linear(in_features=768, out_features=768, dtype=float32)
            (k_proj): Linear(in_features=768, out_features=768, dtype=float32)
            (v_proj): Linear(in_features=768, out_features=768, dtype=float32)
            (out_proj): Linear(in_features=768, out_features=768, dtype=float32)
          )
          (linear1): Linear(in_features=768, out_features=3072, dtype=float32)
          (dropout): Dropout(p=0.1, axis=None, mode=upscale_in_train)
          (linear2): Linear(in_features=3072, out_features=768, dtype=float32)
          (norm1): LayerNorm(normalized_shape=[768], epsilon=1e-05)
          (norm2): LayerNorm(normalized_shape=[768], epsilon=1e-05)
          (norm3): LayerNorm(normalized_shape=[768], epsilon=1e-05)
          (dropout1): Dropout(p=0.1, axis=None, mode=upscale_in_train)
          (dropout2): Dropout(p=0.1, axis=None, mode=upscale_in_train)
          (dropout3): Dropout(p=0.1, axis=None, mode=upscale_in_train)
        )
      )
    )
  )
)
