name: blenderbot_model_0	labels (NA): NA	BlenderbotModel(
  (shared): Embedding(8008, 1280, padding_idx=0, sparse=False)
  (encoder): BlenderbotEncoder(
    (embed_tokens): Embedding(8008, 1280, padding_idx=0, sparse=False)
    (encoder_embed_positions): BlenderbotLearnedPositionalEmbedding(128, 1280, sparse=False)
    (encoder_dropout): Dropout(p=0.1, axis=None, mode=upscale_in_train)
    (encoder_layernorm): LayerNorm(normalized_shape=[1280], epsilon=1e-05)
    (encoder): TransformerEncoder(
      (layers): LayerList(
        (0): TransformerEncoderLayer(
          (self_attn): MultiHeadAttention(
            (q_proj): Linear(in_features=1280, out_features=1280, dtype=float32)
            (k_proj): Linear(in_features=1280, out_features=1280, dtype=float32)
            (v_proj): Linear(in_features=1280, out_features=1280, dtype=float32)
            (out_proj): Linear(in_features=1280, out_features=1280, dtype=float32)
          )
          (linear1): Linear(in_features=1280, out_features=5120, dtype=float32)
          (dropout): Dropout(p=0.0, axis=None, mode=upscale_in_train)
          (linear2): Linear(in_features=5120, out_features=1280, dtype=float32)
          (norm1): LayerNorm(normalized_shape=[1280], epsilon=1e-05)
          (norm2): LayerNorm(normalized_shape=[1280], epsilon=1e-05)
          (dropout1): Dropout(p=0.1, axis=None, mode=upscale_in_train)
          (dropout2): Dropout(p=0.1, axis=None, mode=upscale_in_train)
        )
        (1): TransformerEncoderLayer(
          (self_attn): MultiHeadAttention(
            (q_proj): Linear(in_features=1280, out_features=1280, dtype=float32)
            (k_proj): Linear(in_features=1280, out_features=1280, dtype=float32)
            (v_proj): Linear(in_features=1280, out_features=1280, dtype=float32)
            (out_proj): Linear(in_features=1280, out_features=1280, dtype=float32)
          )
          (linear1): Linear(in_features=1280, out_features=5120, dtype=float32)
          (dropout): Dropout(p=0.0, axis=None, mode=upscale_in_train)
          (linear2): Linear(in_features=5120, out_features=1280, dtype=float32)
          (norm1): LayerNorm(normalized_shape=[1280], epsilon=1e-05)
          (norm2): LayerNorm(normalized_shape=[1280], epsilon=1e-05)
          (dropout1): Dropout(p=0.1, axis=None, mode=upscale_in_train)
          (dropout2): Dropout(p=0.1, axis=None, mode=upscale_in_train)
        )
      )
    )
  )
  (decoder): BlenderbotDecoder(
    (embed_tokens): Embedding(8008, 1280, padding_idx=0, sparse=False)
    (decoder_embed_positions): BlenderbotLearnedPositionalEmbedding(128, 1280, sparse=False)
    (decoder_dropout): Dropout(p=0.1, axis=None, mode=upscale_in_train)
    (decoder_layernorm): LayerNorm(normalized_shape=[1280], epsilon=1e-05)
    (decoder): TransformerDecoder(
      (layers): LayerList(
        (0): BlenderbotDecoderLayer(
          (self_attn): MultiHeadAttention(
            (q_proj): Linear(in_features=1280, out_features=1280, dtype=float32)
            (k_proj): Linear(in_features=1280, out_features=1280, dtype=float32)
            (v_proj): Linear(in_features=1280, out_features=1280, dtype=float32)
            (out_proj): Linear(in_features=1280, out_features=1280, dtype=float32)
          )
          (cross_attn): MultiHeadAttention(
            (q_proj): Linear(in_features=1280, out_features=1280, dtype=float32)
            (k_proj): Linear(in_features=1280, out_features=1280, dtype=float32)
            (v_proj): Linear(in_features=1280, out_features=1280, dtype=float32)
            (out_proj): Linear(in_features=1280, out_features=1280, dtype=float32)
          )
          (linear1): Linear(in_features=1280, out_features=5120, dtype=float32)
          (dropout): Dropout(p=0.0, axis=None, mode=upscale_in_train)
          (linear2): Linear(in_features=5120, out_features=1280, dtype=float32)
          (norm1): LayerNorm(normalized_shape=[1280], epsilon=1e-05)
          (norm2): LayerNorm(normalized_shape=[1280], epsilon=1e-05)
          (norm3): LayerNorm(normalized_shape=[1280], epsilon=1e-05)
          (dropout1): Dropout(p=0.1, axis=None, mode=upscale_in_train)
          (dropout2): Dropout(p=0.1, axis=None, mode=upscale_in_train)
          (dropout3): Dropout(p=0.1, axis=None, mode=upscale_in_train)
        )
        (1): BlenderbotDecoderLayer(
          (self_attn): MultiHeadAttention(
            (q_proj): Linear(in_features=1280, out_features=1280, dtype=float32)
            (k_proj): Linear(in_features=1280, out_features=1280, dtype=float32)
            (v_proj): Linear(in_features=1280, out_features=1280, dtype=float32)
            (out_proj): Linear(in_features=1280, out_features=1280, dtype=float32)
          )
          (cross_attn): MultiHeadAttention(
            (q_proj): Linear(in_features=1280, out_features=1280, dtype=float32)
            (k_proj): Linear(in_features=1280, out_features=1280, dtype=float32)
            (v_proj): Linear(in_features=1280, out_features=1280, dtype=float32)
            (out_proj): Linear(in_features=1280, out_features=1280, dtype=float32)
          )
          (linear1): Linear(in_features=1280, out_features=5120, dtype=float32)
          (dropout): Dropout(p=0.0, axis=None, mode=upscale_in_train)
          (linear2): Linear(in_features=5120, out_features=1280, dtype=float32)
          (norm1): LayerNorm(normalized_shape=[1280], epsilon=1e-05)
          (norm2): LayerNorm(normalized_shape=[1280], epsilon=1e-05)
          (norm3): LayerNorm(normalized_shape=[1280], epsilon=1e-05)
          (dropout1): Dropout(p=0.1, axis=None, mode=upscale_in_train)
          (dropout2): Dropout(p=0.1, axis=None, mode=upscale_in_train)
          (dropout3): Dropout(p=0.1, axis=None, mode=upscale_in_train)
        )
        (2): BlenderbotDecoderLayer(
          (self_attn): MultiHeadAttention(
            (q_proj): Linear(in_features=1280, out_features=1280, dtype=float32)
            (k_proj): Linear(in_features=1280, out_features=1280, dtype=float32)
            (v_proj): Linear(in_features=1280, out_features=1280, dtype=float32)
            (out_proj): Linear(in_features=1280, out_features=1280, dtype=float32)
          )
          (cross_attn): MultiHeadAttention(
            (q_proj): Linear(in_features=1280, out_features=1280, dtype=float32)
            (k_proj): Linear(in_features=1280, out_features=1280, dtype=float32)
            (v_proj): Linear(in_features=1280, out_features=1280, dtype=float32)
            (out_proj): Linear(in_features=1280, out_features=1280, dtype=float32)
          )
          (linear1): Linear(in_features=1280, out_features=5120, dtype=float32)
          (dropout): Dropout(p=0.0, axis=None, mode=upscale_in_train)
          (linear2): Linear(in_features=5120, out_features=1280, dtype=float32)
          (norm1): LayerNorm(normalized_shape=[1280], epsilon=1e-05)
          (norm2): LayerNorm(normalized_shape=[1280], epsilon=1e-05)
          (norm3): LayerNorm(normalized_shape=[1280], epsilon=1e-05)
          (dropout1): Dropout(p=0.1, axis=None, mode=upscale_in_train)
          (dropout2): Dropout(p=0.1, axis=None, mode=upscale_in_train)
          (dropout3): Dropout(p=0.1, axis=None, mode=upscale_in_train)
        )
        (3): BlenderbotDecoderLayer(
          (self_attn): MultiHeadAttention(
            (q_proj): Linear(in_features=1280, out_features=1280, dtype=float32)
            (k_proj): Linear(in_features=1280, out_features=1280, dtype=float32)
            (v_proj): Linear(in_features=1280, out_features=1280, dtype=float32)
            (out_proj): Linear(in_features=1280, out_features=1280, dtype=float32)
          )
          (cross_attn): MultiHeadAttention(
            (q_proj): Linear(in_features=1280, out_features=1280, dtype=float32)
            (k_proj): Linear(in_features=1280, out_features=1280, dtype=float32)
            (v_proj): Linear(in_features=1280, out_features=1280, dtype=float32)
            (out_proj): Linear(in_features=1280, out_features=1280, dtype=float32)
          )
          (linear1): Linear(in_features=1280, out_features=5120, dtype=float32)
          (dropout): Dropout(p=0.0, axis=None, mode=upscale_in_train)
          (linear2): Linear(in_features=5120, out_features=1280, dtype=float32)
          (norm1): LayerNorm(normalized_shape=[1280], epsilon=1e-05)
          (norm2): LayerNorm(normalized_shape=[1280], epsilon=1e-05)
          (norm3): LayerNorm(normalized_shape=[1280], epsilon=1e-05)
          (dropout1): Dropout(p=0.1, axis=None, mode=upscale_in_train)
          (dropout2): Dropout(p=0.1, axis=None, mode=upscale_in_train)
          (dropout3): Dropout(p=0.1, axis=None, mode=upscale_in_train)
        )
        (4): BlenderbotDecoderLayer(
          (self_attn): MultiHeadAttention(
            (q_proj): Linear(in_features=1280, out_features=1280, dtype=float32)
            (k_proj): Linear(in_features=1280, out_features=1280, dtype=float32)
            (v_proj): Linear(in_features=1280, out_features=1280, dtype=float32)
            (out_proj): Linear(in_features=1280, out_features=1280, dtype=float32)
          )
          (cross_attn): MultiHeadAttention(
            (q_proj): Linear(in_features=1280, out_features=1280, dtype=float32)
            (k_proj): Linear(in_features=1280, out_features=1280, dtype=float32)
            (v_proj): Linear(in_features=1280, out_features=1280, dtype=float32)
            (out_proj): Linear(in_features=1280, out_features=1280, dtype=float32)
          )
          (linear1): Linear(in_features=1280, out_features=5120, dtype=float32)
          (dropout): Dropout(p=0.0, axis=None, mode=upscale_in_train)
          (linear2): Linear(in_features=5120, out_features=1280, dtype=float32)
          (norm1): LayerNorm(normalized_shape=[1280], epsilon=1e-05)
          (norm2): LayerNorm(normalized_shape=[1280], epsilon=1e-05)
          (norm3): LayerNorm(normalized_shape=[1280], epsilon=1e-05)
          (dropout1): Dropout(p=0.1, axis=None, mode=upscale_in_train)
          (dropout2): Dropout(p=0.1, axis=None, mode=upscale_in_train)
          (dropout3): Dropout(p=0.1, axis=None, mode=upscale_in_train)
        )
        (5): BlenderbotDecoderLayer(
          (self_attn): MultiHeadAttention(
            (q_proj): Linear(in_features=1280, out_features=1280, dtype=float32)
            (k_proj): Linear(in_features=1280, out_features=1280, dtype=float32)
            (v_proj): Linear(in_features=1280, out_features=1280, dtype=float32)
            (out_proj): Linear(in_features=1280, out_features=1280, dtype=float32)
          )
          (cross_attn): MultiHeadAttention(
            (q_proj): Linear(in_features=1280, out_features=1280, dtype=float32)
            (k_proj): Linear(in_features=1280, out_features=1280, dtype=float32)
            (v_proj): Linear(in_features=1280, out_features=1280, dtype=float32)
            (out_proj): Linear(in_features=1280, out_features=1280, dtype=float32)
          )
          (linear1): Linear(in_features=1280, out_features=5120, dtype=float32)
          (dropout): Dropout(p=0.0, axis=None, mode=upscale_in_train)
          (linear2): Linear(in_features=5120, out_features=1280, dtype=float32)
          (norm1): LayerNorm(normalized_shape=[1280], epsilon=1e-05)
          (norm2): LayerNorm(normalized_shape=[1280], epsilon=1e-05)
          (norm3): LayerNorm(normalized_shape=[1280], epsilon=1e-05)
          (dropout1): Dropout(p=0.1, axis=None, mode=upscale_in_train)
          (dropout2): Dropout(p=0.1, axis=None, mode=upscale_in_train)
          (dropout3): Dropout(p=0.1, axis=None, mode=upscale_in_train)
        )
        (6): BlenderbotDecoderLayer(
          (self_attn): MultiHeadAttention(
            (q_proj): Linear(in_features=1280, out_features=1280, dtype=float32)
            (k_proj): Linear(in_features=1280, out_features=1280, dtype=float32)
            (v_proj): Linear(in_features=1280, out_features=1280, dtype=float32)
            (out_proj): Linear(in_features=1280, out_features=1280, dtype=float32)
          )
          (cross_attn): MultiHeadAttention(
            (q_proj): Linear(in_features=1280, out_features=1280, dtype=float32)
            (k_proj): Linear(in_features=1280, out_features=1280, dtype=float32)
            (v_proj): Linear(in_features=1280, out_features=1280, dtype=float32)
            (out_proj): Linear(in_features=1280, out_features=1280, dtype=float32)
          )
          (linear1): Linear(in_features=1280, out_features=5120, dtype=float32)
          (dropout): Dropout(p=0.0, axis=None, mode=upscale_in_train)
          (linear2): Linear(in_features=5120, out_features=1280, dtype=float32)
          (norm1): LayerNorm(normalized_shape=[1280], epsilon=1e-05)
          (norm2): LayerNorm(normalized_shape=[1280], epsilon=1e-05)
          (norm3): LayerNorm(normalized_shape=[1280], epsilon=1e-05)
          (dropout1): Dropout(p=0.1, axis=None, mode=upscale_in_train)
          (dropout2): Dropout(p=0.1, axis=None, mode=upscale_in_train)
          (dropout3): Dropout(p=0.1, axis=None, mode=upscale_in_train)
        )
        (7): BlenderbotDecoderLayer(
          (self_attn): MultiHeadAttention(
            (q_proj): Linear(in_features=1280, out_features=1280, dtype=float32)
            (k_proj): Linear(in_features=1280, out_features=1280, dtype=float32)
            (v_proj): Linear(in_features=1280, out_features=1280, dtype=float32)
            (out_proj): Linear(in_features=1280, out_features=1280, dtype=float32)
          )
          (cross_attn): MultiHeadAttention(
            (q_proj): Linear(in_features=1280, out_features=1280, dtype=float32)
            (k_proj): Linear(in_features=1280, out_features=1280, dtype=float32)
            (v_proj): Linear(in_features=1280, out_features=1280, dtype=float32)
            (out_proj): Linear(in_features=1280, out_features=1280, dtype=float32)
          )
          (linear1): Linear(in_features=1280, out_features=5120, dtype=float32)
          (dropout): Dropout(p=0.0, axis=None, mode=upscale_in_train)
          (linear2): Linear(in_features=5120, out_features=1280, dtype=float32)
          (norm1): LayerNorm(normalized_shape=[1280], epsilon=1e-05)
          (norm2): LayerNorm(normalized_shape=[1280], epsilon=1e-05)
          (norm3): LayerNorm(normalized_shape=[1280], epsilon=1e-05)
          (dropout1): Dropout(p=0.1, axis=None, mode=upscale_in_train)
          (dropout2): Dropout(p=0.1, axis=None, mode=upscale_in_train)
          (dropout3): Dropout(p=0.1, axis=None, mode=upscale_in_train)
        )
        (8): BlenderbotDecoderLayer(
          (self_attn): MultiHeadAttention(
            (q_proj): Linear(in_features=1280, out_features=1280, dtype=float32)
            (k_proj): Linear(in_features=1280, out_features=1280, dtype=float32)
            (v_proj): Linear(in_features=1280, out_features=1280, dtype=float32)
            (out_proj): Linear(in_features=1280, out_features=1280, dtype=float32)
          )
          (cross_attn): MultiHeadAttention(
            (q_proj): Linear(in_features=1280, out_features=1280, dtype=float32)
            (k_proj): Linear(in_features=1280, out_features=1280, dtype=float32)
            (v_proj): Linear(in_features=1280, out_features=1280, dtype=float32)
            (out_proj): Linear(in_features=1280, out_features=1280, dtype=float32)
          )
          (linear1): Linear(in_features=1280, out_features=5120, dtype=float32)
          (dropout): Dropout(p=0.0, axis=None, mode=upscale_in_train)
          (linear2): Linear(in_features=5120, out_features=1280, dtype=float32)
          (norm1): LayerNorm(normalized_shape=[1280], epsilon=1e-05)
          (norm2): LayerNorm(normalized_shape=[1280], epsilon=1e-05)
          (norm3): LayerNorm(normalized_shape=[1280], epsilon=1e-05)
          (dropout1): Dropout(p=0.1, axis=None, mode=upscale_in_train)
          (dropout2): Dropout(p=0.1, axis=None, mode=upscale_in_train)
          (dropout3): Dropout(p=0.1, axis=None, mode=upscale_in_train)
        )
        (9): BlenderbotDecoderLayer(
          (self_attn): MultiHeadAttention(
            (q_proj): Linear(in_features=1280, out_features=1280, dtype=float32)
            (k_proj): Linear(in_features=1280, out_features=1280, dtype=float32)
            (v_proj): Linear(in_features=1280, out_features=1280, dtype=float32)
            (out_proj): Linear(in_features=1280, out_features=1280, dtype=float32)
          )
          (cross_attn): MultiHeadAttention(
            (q_proj): Linear(in_features=1280, out_features=1280, dtype=float32)
            (k_proj): Linear(in_features=1280, out_features=1280, dtype=float32)
            (v_proj): Linear(in_features=1280, out_features=1280, dtype=float32)
            (out_proj): Linear(in_features=1280, out_features=1280, dtype=float32)
          )
          (linear1): Linear(in_features=1280, out_features=5120, dtype=float32)
          (dropout): Dropout(p=0.0, axis=None, mode=upscale_in_train)
          (linear2): Linear(in_features=5120, out_features=1280, dtype=float32)
          (norm1): LayerNorm(normalized_shape=[1280], epsilon=1e-05)
          (norm2): LayerNorm(normalized_shape=[1280], epsilon=1e-05)
          (norm3): LayerNorm(normalized_shape=[1280], epsilon=1e-05)
          (dropout1): Dropout(p=0.1, axis=None, mode=upscale_in_train)
          (dropout2): Dropout(p=0.1, axis=None, mode=upscale_in_train)
          (dropout3): Dropout(p=0.1, axis=None, mode=upscale_in_train)
        )
        (10): BlenderbotDecoderLayer(
          (self_attn): MultiHeadAttention(
            (q_proj): Linear(in_features=1280, out_features=1280, dtype=float32)
            (k_proj): Linear(in_features=1280, out_features=1280, dtype=float32)
            (v_proj): Linear(in_features=1280, out_features=1280, dtype=float32)
            (out_proj): Linear(in_features=1280, out_features=1280, dtype=float32)
          )
          (cross_attn): MultiHeadAttention(
            (q_proj): Linear(in_features=1280, out_features=1280, dtype=float32)
            (k_proj): Linear(in_features=1280, out_features=1280, dtype=float32)
            (v_proj): Linear(in_features=1280, out_features=1280, dtype=float32)
            (out_proj): Linear(in_features=1280, out_features=1280, dtype=float32)
          )
          (linear1): Linear(in_features=1280, out_features=5120, dtype=float32)
          (dropout): Dropout(p=0.0, axis=None, mode=upscale_in_train)
          (linear2): Linear(in_features=5120, out_features=1280, dtype=float32)
          (norm1): LayerNorm(normalized_shape=[1280], epsilon=1e-05)
          (norm2): LayerNorm(normalized_shape=[1280], epsilon=1e-05)
          (norm3): LayerNorm(normalized_shape=[1280], epsilon=1e-05)
          (dropout1): Dropout(p=0.1, axis=None, mode=upscale_in_train)
          (dropout2): Dropout(p=0.1, axis=None, mode=upscale_in_train)
          (dropout3): Dropout(p=0.1, axis=None, mode=upscale_in_train)
        )
        (11): BlenderbotDecoderLayer(
          (self_attn): MultiHeadAttention(
            (q_proj): Linear(in_features=1280, out_features=1280, dtype=float32)
            (k_proj): Linear(in_features=1280, out_features=1280, dtype=float32)
            (v_proj): Linear(in_features=1280, out_features=1280, dtype=float32)
            (out_proj): Linear(in_features=1280, out_features=1280, dtype=float32)
          )
          (cross_attn): MultiHeadAttention(
            (q_proj): Linear(in_features=1280, out_features=1280, dtype=float32)
            (k_proj): Linear(in_features=1280, out_features=1280, dtype=float32)
            (v_proj): Linear(in_features=1280, out_features=1280, dtype=float32)
            (out_proj): Linear(in_features=1280, out_features=1280, dtype=float32)
          )
          (linear1): Linear(in_features=1280, out_features=5120, dtype=float32)
          (dropout): Dropout(p=0.0, axis=None, mode=upscale_in_train)
          (linear2): Linear(in_features=5120, out_features=1280, dtype=float32)
          (norm1): LayerNorm(normalized_shape=[1280], epsilon=1e-05)
          (norm2): LayerNorm(normalized_shape=[1280], epsilon=1e-05)
          (norm3): LayerNorm(normalized_shape=[1280], epsilon=1e-05)
          (dropout1): Dropout(p=0.1, axis=None, mode=upscale_in_train)
          (dropout2): Dropout(p=0.1, axis=None, mode=upscale_in_train)
          (dropout3): Dropout(p=0.1, axis=None, mode=upscale_in_train)
        )
      )
    )
  )
)
