name: xl_net_model_0	labels (NA): NA	XLNetModel(
  (dropout): Dropout(p=0.1, axis=None, mode=upscale_in_train)
  (word_embedding): Embedding(32000, 768, sparse=False)
  (layer): LayerList(
    (0): XLNetLayer(
      (rel_attn): XLNetRelativeAttention(
        (layer_norm): LayerNorm(normalized_shape=[768], epsilon=1e-12)
        (dropout): Dropout(p=0.1, axis=None, mode=upscale_in_train)
      )
      (ff): XLNetFeedForward(
        (layer_norm): LayerNorm(normalized_shape=[768], epsilon=1e-12)
        (layer_1): Linear(in_features=768, out_features=3072, dtype=float32)
        (layer_2): Linear(in_features=3072, out_features=768, dtype=float32)
        (dropout): Dropout(p=0.1, axis=None, mode=upscale_in_train)
      )
    )
    (1): XLNetLayer(
      (rel_attn): XLNetRelativeAttention(
        (layer_norm): LayerNorm(normalized_shape=[768], epsilon=1e-12)
        (dropout): Dropout(p=0.1, axis=None, mode=upscale_in_train)
      )
      (ff): XLNetFeedForward(
        (layer_norm): LayerNorm(normalized_shape=[768], epsilon=1e-12)
        (layer_1): Linear(in_features=768, out_features=3072, dtype=float32)
        (layer_2): Linear(in_features=3072, out_features=768, dtype=float32)
        (dropout): Dropout(p=0.1, axis=None, mode=upscale_in_train)
      )
    )
    (2): XLNetLayer(
      (rel_attn): XLNetRelativeAttention(
        (layer_norm): LayerNorm(normalized_shape=[768], epsilon=1e-12)
        (dropout): Dropout(p=0.1, axis=None, mode=upscale_in_train)
      )
      (ff): XLNetFeedForward(
        (layer_norm): LayerNorm(normalized_shape=[768], epsilon=1e-12)
        (layer_1): Linear(in_features=768, out_features=3072, dtype=float32)
        (layer_2): Linear(in_features=3072, out_features=768, dtype=float32)
        (dropout): Dropout(p=0.1, axis=None, mode=upscale_in_train)
      )
    )
    (3): XLNetLayer(
      (rel_attn): XLNetRelativeAttention(
        (layer_norm): LayerNorm(normalized_shape=[768], epsilon=1e-12)
        (dropout): Dropout(p=0.1, axis=None, mode=upscale_in_train)
      )
      (ff): XLNetFeedForward(
        (layer_norm): LayerNorm(normalized_shape=[768], epsilon=1e-12)
        (layer_1): Linear(in_features=768, out_features=3072, dtype=float32)
        (layer_2): Linear(in_features=3072, out_features=768, dtype=float32)
        (dropout): Dropout(p=0.1, axis=None, mode=upscale_in_train)
      )
    )
    (4): XLNetLayer(
      (rel_attn): XLNetRelativeAttention(
        (layer_norm): LayerNorm(normalized_shape=[768], epsilon=1e-12)
        (dropout): Dropout(p=0.1, axis=None, mode=upscale_in_train)
      )
      (ff): XLNetFeedForward(
        (layer_norm): LayerNorm(normalized_shape=[768], epsilon=1e-12)
        (layer_1): Linear(in_features=768, out_features=3072, dtype=float32)
        (layer_2): Linear(in_features=3072, out_features=768, dtype=float32)
        (dropout): Dropout(p=0.1, axis=None, mode=upscale_in_train)
      )
    )
    (5): XLNetLayer(
      (rel_attn): XLNetRelativeAttention(
        (layer_norm): LayerNorm(normalized_shape=[768], epsilon=1e-12)
        (dropout): Dropout(p=0.1, axis=None, mode=upscale_in_train)
      )
      (ff): XLNetFeedForward(
        (layer_norm): LayerNorm(normalized_shape=[768], epsilon=1e-12)
        (layer_1): Linear(in_features=768, out_features=3072, dtype=float32)
        (layer_2): Linear(in_features=3072, out_features=768, dtype=float32)
        (dropout): Dropout(p=0.1, axis=None, mode=upscale_in_train)
      )
    )
    (6): XLNetLayer(
      (rel_attn): XLNetRelativeAttention(
        (layer_norm): LayerNorm(normalized_shape=[768], epsilon=1e-12)
        (dropout): Dropout(p=0.1, axis=None, mode=upscale_in_train)
      )
      (ff): XLNetFeedForward(
        (layer_norm): LayerNorm(normalized_shape=[768], epsilon=1e-12)
        (layer_1): Linear(in_features=768, out_features=3072, dtype=float32)
        (layer_2): Linear(in_features=3072, out_features=768, dtype=float32)
        (dropout): Dropout(p=0.1, axis=None, mode=upscale_in_train)
      )
    )
    (7): XLNetLayer(
      (rel_attn): XLNetRelativeAttention(
        (layer_norm): LayerNorm(normalized_shape=[768], epsilon=1e-12)
        (dropout): Dropout(p=0.1, axis=None, mode=upscale_in_train)
      )
      (ff): XLNetFeedForward(
        (layer_norm): LayerNorm(normalized_shape=[768], epsilon=1e-12)
        (layer_1): Linear(in_features=768, out_features=3072, dtype=float32)
        (layer_2): Linear(in_features=3072, out_features=768, dtype=float32)
        (dropout): Dropout(p=0.1, axis=None, mode=upscale_in_train)
      )
    )
    (8): XLNetLayer(
      (rel_attn): XLNetRelativeAttention(
        (layer_norm): LayerNorm(normalized_shape=[768], epsilon=1e-12)
        (dropout): Dropout(p=0.1, axis=None, mode=upscale_in_train)
      )
      (ff): XLNetFeedForward(
        (layer_norm): LayerNorm(normalized_shape=[768], epsilon=1e-12)
        (layer_1): Linear(in_features=768, out_features=3072, dtype=float32)
        (layer_2): Linear(in_features=3072, out_features=768, dtype=float32)
        (dropout): Dropout(p=0.1, axis=None, mode=upscale_in_train)
      )
    )
    (9): XLNetLayer(
      (rel_attn): XLNetRelativeAttention(
        (layer_norm): LayerNorm(normalized_shape=[768], epsilon=1e-12)
        (dropout): Dropout(p=0.1, axis=None, mode=upscale_in_train)
      )
      (ff): XLNetFeedForward(
        (layer_norm): LayerNorm(normalized_shape=[768], epsilon=1e-12)
        (layer_1): Linear(in_features=768, out_features=3072, dtype=float32)
        (layer_2): Linear(in_features=3072, out_features=768, dtype=float32)
        (dropout): Dropout(p=0.1, axis=None, mode=upscale_in_train)
      )
    )
    (10): XLNetLayer(
      (rel_attn): XLNetRelativeAttention(
        (layer_norm): LayerNorm(normalized_shape=[768], epsilon=1e-12)
        (dropout): Dropout(p=0.1, axis=None, mode=upscale_in_train)
      )
      (ff): XLNetFeedForward(
        (layer_norm): LayerNorm(normalized_shape=[768], epsilon=1e-12)
        (layer_1): Linear(in_features=768, out_features=3072, dtype=float32)
        (layer_2): Linear(in_features=3072, out_features=768, dtype=float32)
        (dropout): Dropout(p=0.1, axis=None, mode=upscale_in_train)
      )
    )
    (11): XLNetLayer(
      (rel_attn): XLNetRelativeAttention(
        (layer_norm): LayerNorm(normalized_shape=[768], epsilon=1e-12)
        (dropout): Dropout(p=0.1, axis=None, mode=upscale_in_train)
      )
      (ff): XLNetFeedForward(
        (layer_norm): LayerNorm(normalized_shape=[768], epsilon=1e-12)
        (layer_1): Linear(in_features=768, out_features=3072, dtype=float32)
        (layer_2): Linear(in_features=3072, out_features=768, dtype=float32)
        (dropout): Dropout(p=0.1, axis=None, mode=upscale_in_train)
      )
    )
    (12): XLNetLayer(
      (rel_attn): XLNetRelativeAttention(
        (layer_norm): LayerNorm(normalized_shape=[768], epsilon=1e-12)
        (dropout): Dropout(p=0.1, axis=None, mode=upscale_in_train)
      )
      (ff): XLNetFeedForward(
        (layer_norm): LayerNorm(normalized_shape=[768], epsilon=1e-12)
        (layer_1): Linear(in_features=768, out_features=3072, dtype=float32)
        (layer_2): Linear(in_features=3072, out_features=768, dtype=float32)
        (dropout): Dropout(p=0.1, axis=None, mode=upscale_in_train)
      )
    )
    (13): XLNetLayer(
      (rel_attn): XLNetRelativeAttention(
        (layer_norm): LayerNorm(normalized_shape=[768], epsilon=1e-12)
        (dropout): Dropout(p=0.1, axis=None, mode=upscale_in_train)
      )
      (ff): XLNetFeedForward(
        (layer_norm): LayerNorm(normalized_shape=[768], epsilon=1e-12)
        (layer_1): Linear(in_features=768, out_features=3072, dtype=float32)
        (layer_2): Linear(in_features=3072, out_features=768, dtype=float32)
        (dropout): Dropout(p=0.1, axis=None, mode=upscale_in_train)
      )
    )
    (14): XLNetLayer(
      (rel_attn): XLNetRelativeAttention(
        (layer_norm): LayerNorm(normalized_shape=[768], epsilon=1e-12)
        (dropout): Dropout(p=0.1, axis=None, mode=upscale_in_train)
      )
      (ff): XLNetFeedForward(
        (layer_norm): LayerNorm(normalized_shape=[768], epsilon=1e-12)
        (layer_1): Linear(in_features=768, out_features=3072, dtype=float32)
        (layer_2): Linear(in_features=3072, out_features=768, dtype=float32)
        (dropout): Dropout(p=0.1, axis=None, mode=upscale_in_train)
      )
    )
    (15): XLNetLayer(
      (rel_attn): XLNetRelativeAttention(
        (layer_norm): LayerNorm(normalized_shape=[768], epsilon=1e-12)
        (dropout): Dropout(p=0.1, axis=None, mode=upscale_in_train)
      )
      (ff): XLNetFeedForward(
        (layer_norm): LayerNorm(normalized_shape=[768], epsilon=1e-12)
        (layer_1): Linear(in_features=768, out_features=3072, dtype=float32)
        (layer_2): Linear(in_features=3072, out_features=768, dtype=float32)
        (dropout): Dropout(p=0.1, axis=None, mode=upscale_in_train)
      )
    )
    (16): XLNetLayer(
      (rel_attn): XLNetRelativeAttention(
        (layer_norm): LayerNorm(normalized_shape=[768], epsilon=1e-12)
        (dropout): Dropout(p=0.1, axis=None, mode=upscale_in_train)
      )
      (ff): XLNetFeedForward(
        (layer_norm): LayerNorm(normalized_shape=[768], epsilon=1e-12)
        (layer_1): Linear(in_features=768, out_features=3072, dtype=float32)
        (layer_2): Linear(in_features=3072, out_features=768, dtype=float32)
        (dropout): Dropout(p=0.1, axis=None, mode=upscale_in_train)
      )
    )
    (17): XLNetLayer(
      (rel_attn): XLNetRelativeAttention(
        (layer_norm): LayerNorm(normalized_shape=[768], epsilon=1e-12)
        (dropout): Dropout(p=0.1, axis=None, mode=upscale_in_train)
      )
      (ff): XLNetFeedForward(
        (layer_norm): LayerNorm(normalized_shape=[768], epsilon=1e-12)
        (layer_1): Linear(in_features=768, out_features=3072, dtype=float32)
        (layer_2): Linear(in_features=3072, out_features=768, dtype=float32)
        (dropout): Dropout(p=0.1, axis=None, mode=upscale_in_train)
      )
    )
    (18): XLNetLayer(
      (rel_attn): XLNetRelativeAttention(
        (layer_norm): LayerNorm(normalized_shape=[768], epsilon=1e-12)
        (dropout): Dropout(p=0.1, axis=None, mode=upscale_in_train)
      )
      (ff): XLNetFeedForward(
        (layer_norm): LayerNorm(normalized_shape=[768], epsilon=1e-12)
        (layer_1): Linear(in_features=768, out_features=3072, dtype=float32)
        (layer_2): Linear(in_features=3072, out_features=768, dtype=float32)
        (dropout): Dropout(p=0.1, axis=None, mode=upscale_in_train)
      )
    )
    (19): XLNetLayer(
      (rel_attn): XLNetRelativeAttention(
        (layer_norm): LayerNorm(normalized_shape=[768], epsilon=1e-12)
        (dropout): Dropout(p=0.1, axis=None, mode=upscale_in_train)
      )
      (ff): XLNetFeedForward(
        (layer_norm): LayerNorm(normalized_shape=[768], epsilon=1e-12)
        (layer_1): Linear(in_features=768, out_features=3072, dtype=float32)
        (layer_2): Linear(in_features=3072, out_features=768, dtype=float32)
        (dropout): Dropout(p=0.1, axis=None, mode=upscale_in_train)
      )
    )
    (20): XLNetLayer(
      (rel_attn): XLNetRelativeAttention(
        (layer_norm): LayerNorm(normalized_shape=[768], epsilon=1e-12)
        (dropout): Dropout(p=0.1, axis=None, mode=upscale_in_train)
      )
      (ff): XLNetFeedForward(
        (layer_norm): LayerNorm(normalized_shape=[768], epsilon=1e-12)
        (layer_1): Linear(in_features=768, out_features=3072, dtype=float32)
        (layer_2): Linear(in_features=3072, out_features=768, dtype=float32)
        (dropout): Dropout(p=0.1, axis=None, mode=upscale_in_train)
      )
    )
    (21): XLNetLayer(
      (rel_attn): XLNetRelativeAttention(
        (layer_norm): LayerNorm(normalized_shape=[768], epsilon=1e-12)
        (dropout): Dropout(p=0.1, axis=None, mode=upscale_in_train)
      )
      (ff): XLNetFeedForward(
        (layer_norm): LayerNorm(normalized_shape=[768], epsilon=1e-12)
        (layer_1): Linear(in_features=768, out_features=3072, dtype=float32)
        (layer_2): Linear(in_features=3072, out_features=768, dtype=float32)
        (dropout): Dropout(p=0.1, axis=None, mode=upscale_in_train)
      )
    )
    (22): XLNetLayer(
      (rel_attn): XLNetRelativeAttention(
        (layer_norm): LayerNorm(normalized_shape=[768], epsilon=1e-12)
        (dropout): Dropout(p=0.1, axis=None, mode=upscale_in_train)
      )
      (ff): XLNetFeedForward(
        (layer_norm): LayerNorm(normalized_shape=[768], epsilon=1e-12)
        (layer_1): Linear(in_features=768, out_features=3072, dtype=float32)
        (layer_2): Linear(in_features=3072, out_features=768, dtype=float32)
        (dropout): Dropout(p=0.1, axis=None, mode=upscale_in_train)
      )
    )
    (23): XLNetLayer(
      (rel_attn): XLNetRelativeAttention(
        (layer_norm): LayerNorm(normalized_shape=[768], epsilon=1e-12)
        (dropout): Dropout(p=0.1, axis=None, mode=upscale_in_train)
      )
      (ff): XLNetFeedForward(
        (layer_norm): LayerNorm(normalized_shape=[768], epsilon=1e-12)
        (layer_1): Linear(in_features=768, out_features=3072, dtype=float32)
        (layer_2): Linear(in_features=3072, out_features=768, dtype=float32)
        (dropout): Dropout(p=0.1, axis=None, mode=upscale_in_train)
      )
    )
  )
)
