name: ernie_for_generation_0	labels (NA): NA	ErnieForGeneration(
  (ln): LayerNorm(normalized_shape=[768], epsilon=1e-05)
  (word_emb): Embedding(30522, 768, sparse=False)
  (pos_emb): Embedding(1024, 768, sparse=False)
  (sent_emb): Embedding(4, 768, sparse=False)
  (dropout): Dropout(p=0.1, axis=None, mode=upscale_in_train)
  (encoder_stack): ErnieEncoderStack(
    (block): LayerList(
      (0): ErnieEncoderLayer(
        (attn): AttentionLayer(
          (q): Linear(in_features=768, out_features=768, dtype=float32)
          (k): Linear(in_features=768, out_features=768, dtype=float32)
          (v): Linear(in_features=768, out_features=768, dtype=float32)
          (o): Linear(in_features=768, out_features=768, dtype=float32)
          (dropout): Dropout(p=0.1, axis=None, mode=upscale_in_train)
        )
        (ln1): LayerNorm(normalized_shape=[768], epsilon=1e-05)
        (ffn): PositionwiseFeedForwardLayer(
          (i): Linear(in_features=768, out_features=3072, dtype=float32)
          (o): Linear(in_features=3072, out_features=768, dtype=float32)
          (dropout): Dropout(p=0.0, axis=None, mode=upscale_in_train)
        )
        (ln2): LayerNorm(normalized_shape=[768], epsilon=1e-05)
        (dropout): Dropout(p=0.1, axis=None, mode=upscale_in_train)
      )
      (1): ErnieEncoderLayer(
        (attn): AttentionLayer(
          (q): Linear(in_features=768, out_features=768, dtype=float32)
          (k): Linear(in_features=768, out_features=768, dtype=float32)
          (v): Linear(in_features=768, out_features=768, dtype=float32)
          (o): Linear(in_features=768, out_features=768, dtype=float32)
          (dropout): Dropout(p=0.1, axis=None, mode=upscale_in_train)
        )
        (ln1): LayerNorm(normalized_shape=[768], epsilon=1e-05)
        (ffn): PositionwiseFeedForwardLayer(
          (i): Linear(in_features=768, out_features=3072, dtype=float32)
          (o): Linear(in_features=3072, out_features=768, dtype=float32)
          (dropout): Dropout(p=0.0, axis=None, mode=upscale_in_train)
        )
        (ln2): LayerNorm(normalized_shape=[768], epsilon=1e-05)
        (dropout): Dropout(p=0.1, axis=None, mode=upscale_in_train)
      )
      (2): ErnieEncoderLayer(
        (attn): AttentionLayer(
          (q): Linear(in_features=768, out_features=768, dtype=float32)
          (k): Linear(in_features=768, out_features=768, dtype=float32)
          (v): Linear(in_features=768, out_features=768, dtype=float32)
          (o): Linear(in_features=768, out_features=768, dtype=float32)
          (dropout): Dropout(p=0.1, axis=None, mode=upscale_in_train)
        )
        (ln1): LayerNorm(normalized_shape=[768], epsilon=1e-05)
        (ffn): PositionwiseFeedForwardLayer(
          (i): Linear(in_features=768, out_features=3072, dtype=float32)
          (o): Linear(in_features=3072, out_features=768, dtype=float32)
          (dropout): Dropout(p=0.0, axis=None, mode=upscale_in_train)
        )
        (ln2): LayerNorm(normalized_shape=[768], epsilon=1e-05)
        (dropout): Dropout(p=0.1, axis=None, mode=upscale_in_train)
      )
      (3): ErnieEncoderLayer(
        (attn): AttentionLayer(
          (q): Linear(in_features=768, out_features=768, dtype=float32)
          (k): Linear(in_features=768, out_features=768, dtype=float32)
          (v): Linear(in_features=768, out_features=768, dtype=float32)
          (o): Linear(in_features=768, out_features=768, dtype=float32)
          (dropout): Dropout(p=0.1, axis=None, mode=upscale_in_train)
        )
        (ln1): LayerNorm(normalized_shape=[768], epsilon=1e-05)
        (ffn): PositionwiseFeedForwardLayer(
          (i): Linear(in_features=768, out_features=3072, dtype=float32)
          (o): Linear(in_features=3072, out_features=768, dtype=float32)
          (dropout): Dropout(p=0.0, axis=None, mode=upscale_in_train)
        )
        (ln2): LayerNorm(normalized_shape=[768], epsilon=1e-05)
        (dropout): Dropout(p=0.1, axis=None, mode=upscale_in_train)
      )
      (4): ErnieEncoderLayer(
        (attn): AttentionLayer(
          (q): Linear(in_features=768, out_features=768, dtype=float32)
          (k): Linear(in_features=768, out_features=768, dtype=float32)
          (v): Linear(in_features=768, out_features=768, dtype=float32)
          (o): Linear(in_features=768, out_features=768, dtype=float32)
          (dropout): Dropout(p=0.1, axis=None, mode=upscale_in_train)
        )
        (ln1): LayerNorm(normalized_shape=[768], epsilon=1e-05)
        (ffn): PositionwiseFeedForwardLayer(
          (i): Linear(in_features=768, out_features=3072, dtype=float32)
          (o): Linear(in_features=3072, out_features=768, dtype=float32)
          (dropout): Dropout(p=0.0, axis=None, mode=upscale_in_train)
        )
        (ln2): LayerNorm(normalized_shape=[768], epsilon=1e-05)
        (dropout): Dropout(p=0.1, axis=None, mode=upscale_in_train)
      )
      (5): ErnieEncoderLayer(
        (attn): AttentionLayer(
          (q): Linear(in_features=768, out_features=768, dtype=float32)
          (k): Linear(in_features=768, out_features=768, dtype=float32)
          (v): Linear(in_features=768, out_features=768, dtype=float32)
          (o): Linear(in_features=768, out_features=768, dtype=float32)
          (dropout): Dropout(p=0.1, axis=None, mode=upscale_in_train)
        )
        (ln1): LayerNorm(normalized_shape=[768], epsilon=1e-05)
        (ffn): PositionwiseFeedForwardLayer(
          (i): Linear(in_features=768, out_features=3072, dtype=float32)
          (o): Linear(in_features=3072, out_features=768, dtype=float32)
          (dropout): Dropout(p=0.0, axis=None, mode=upscale_in_train)
        )
        (ln2): LayerNorm(normalized_shape=[768], epsilon=1e-05)
        (dropout): Dropout(p=0.1, axis=None, mode=upscale_in_train)
      )
      (6): ErnieEncoderLayer(
        (attn): AttentionLayer(
          (q): Linear(in_features=768, out_features=768, dtype=float32)
          (k): Linear(in_features=768, out_features=768, dtype=float32)
          (v): Linear(in_features=768, out_features=768, dtype=float32)
          (o): Linear(in_features=768, out_features=768, dtype=float32)
          (dropout): Dropout(p=0.1, axis=None, mode=upscale_in_train)
        )
        (ln1): LayerNorm(normalized_shape=[768], epsilon=1e-05)
        (ffn): PositionwiseFeedForwardLayer(
          (i): Linear(in_features=768, out_features=3072, dtype=float32)
          (o): Linear(in_features=3072, out_features=768, dtype=float32)
          (dropout): Dropout(p=0.0, axis=None, mode=upscale_in_train)
        )
        (ln2): LayerNorm(normalized_shape=[768], epsilon=1e-05)
        (dropout): Dropout(p=0.1, axis=None, mode=upscale_in_train)
      )
      (7): ErnieEncoderLayer(
        (attn): AttentionLayer(
          (q): Linear(in_features=768, out_features=768, dtype=float32)
          (k): Linear(in_features=768, out_features=768, dtype=float32)
          (v): Linear(in_features=768, out_features=768, dtype=float32)
          (o): Linear(in_features=768, out_features=768, dtype=float32)
          (dropout): Dropout(p=0.1, axis=None, mode=upscale_in_train)
        )
        (ln1): LayerNorm(normalized_shape=[768], epsilon=1e-05)
        (ffn): PositionwiseFeedForwardLayer(
          (i): Linear(in_features=768, out_features=3072, dtype=float32)
          (o): Linear(in_features=3072, out_features=768, dtype=float32)
          (dropout): Dropout(p=0.0, axis=None, mode=upscale_in_train)
        )
        (ln2): LayerNorm(normalized_shape=[768], epsilon=1e-05)
        (dropout): Dropout(p=0.1, axis=None, mode=upscale_in_train)
      )
      (8): ErnieEncoderLayer(
        (attn): AttentionLayer(
          (q): Linear(in_features=768, out_features=768, dtype=float32)
          (k): Linear(in_features=768, out_features=768, dtype=float32)
          (v): Linear(in_features=768, out_features=768, dtype=float32)
          (o): Linear(in_features=768, out_features=768, dtype=float32)
          (dropout): Dropout(p=0.1, axis=None, mode=upscale_in_train)
        )
        (ln1): LayerNorm(normalized_shape=[768], epsilon=1e-05)
        (ffn): PositionwiseFeedForwardLayer(
          (i): Linear(in_features=768, out_features=3072, dtype=float32)
          (o): Linear(in_features=3072, out_features=768, dtype=float32)
          (dropout): Dropout(p=0.0, axis=None, mode=upscale_in_train)
        )
        (ln2): LayerNorm(normalized_shape=[768], epsilon=1e-05)
        (dropout): Dropout(p=0.1, axis=None, mode=upscale_in_train)
      )
      (9): ErnieEncoderLayer(
        (attn): AttentionLayer(
          (q): Linear(in_features=768, out_features=768, dtype=float32)
          (k): Linear(in_features=768, out_features=768, dtype=float32)
          (v): Linear(in_features=768, out_features=768, dtype=float32)
          (o): Linear(in_features=768, out_features=768, dtype=float32)
          (dropout): Dropout(p=0.1, axis=None, mode=upscale_in_train)
        )
        (ln1): LayerNorm(normalized_shape=[768], epsilon=1e-05)
        (ffn): PositionwiseFeedForwardLayer(
          (i): Linear(in_features=768, out_features=3072, dtype=float32)
          (o): Linear(in_features=3072, out_features=768, dtype=float32)
          (dropout): Dropout(p=0.0, axis=None, mode=upscale_in_train)
        )
        (ln2): LayerNorm(normalized_shape=[768], epsilon=1e-05)
        (dropout): Dropout(p=0.1, axis=None, mode=upscale_in_train)
      )
      (10): ErnieEncoderLayer(
        (attn): AttentionLayer(
          (q): Linear(in_features=768, out_features=768, dtype=float32)
          (k): Linear(in_features=768, out_features=768, dtype=float32)
          (v): Linear(in_features=768, out_features=768, dtype=float32)
          (o): Linear(in_features=768, out_features=768, dtype=float32)
          (dropout): Dropout(p=0.1, axis=None, mode=upscale_in_train)
        )
        (ln1): LayerNorm(normalized_shape=[768], epsilon=1e-05)
        (ffn): PositionwiseFeedForwardLayer(
          (i): Linear(in_features=768, out_features=3072, dtype=float32)
          (o): Linear(in_features=3072, out_features=768, dtype=float32)
          (dropout): Dropout(p=0.0, axis=None, mode=upscale_in_train)
        )
        (ln2): LayerNorm(normalized_shape=[768], epsilon=1e-05)
        (dropout): Dropout(p=0.1, axis=None, mode=upscale_in_train)
      )
      (11): ErnieEncoderLayer(
        (attn): AttentionLayer(
          (q): Linear(in_features=768, out_features=768, dtype=float32)
          (k): Linear(in_features=768, out_features=768, dtype=float32)
          (v): Linear(in_features=768, out_features=768, dtype=float32)
          (o): Linear(in_features=768, out_features=768, dtype=float32)
          (dropout): Dropout(p=0.1, axis=None, mode=upscale_in_train)
        )
        (ln1): LayerNorm(normalized_shape=[768], epsilon=1e-05)
        (ffn): PositionwiseFeedForwardLayer(
          (i): Linear(in_features=768, out_features=3072, dtype=float32)
          (o): Linear(in_features=3072, out_features=768, dtype=float32)
          (dropout): Dropout(p=0.0, axis=None, mode=upscale_in_train)
        )
        (ln2): LayerNorm(normalized_shape=[768], epsilon=1e-05)
        (dropout): Dropout(p=0.1, axis=None, mode=upscale_in_train)
      )
    )
  )
  (mlm): Linear(in_features=768, out_features=768, dtype=float32)
  (mlm_ln): LayerNorm(normalized_shape=[768], epsilon=1e-05)
)
