name: ernie_doc_model_0	labels (NA): NA	ErnieDocModel(
  (encoder): ErnieDocEncoder(
    (layers): LayerList(
      (0): ErnieDocEncoderLayer(
        (attn): MultiHeadAttention(
          (q_proj): Linear(in_features=768, out_features=768, dtype=float32)
          (k_proj): Linear(in_features=768, out_features=768, dtype=float32)
          (v_proj): Linear(in_features=768, out_features=768, dtype=float32)
          (r_proj): Linear(in_features=768, out_features=768, dtype=float32)
          (t_proj): Linear(in_features=768, out_features=768, dtype=float32)
          (out_proj): Linear(in_features=768, out_features=768, dtype=float32)
        )
        (ffn): PointwiseFFN(
          (linear1): Linear(in_features=768, out_features=3072, dtype=float32)
          (dropout): Dropout(p=0.0, axis=None, mode=upscale_in_train)
          (linear2): Linear(in_features=3072, out_features=768, dtype=float32)
        )
        (norm1): LayerNorm(normalized_shape=[768], epsilon=1e-12)
        (norm2): LayerNorm(normalized_shape=[768], epsilon=1e-12)
        (dropout1): Dropout(p=0.0, axis=None, mode=upscale_in_train)
        (dropout2): Dropout(p=0.0, axis=None, mode=upscale_in_train)
      )
      (1): ErnieDocEncoderLayer(
        (attn): MultiHeadAttention(
          (q_proj): Linear(in_features=768, out_features=768, dtype=float32)
          (k_proj): Linear(in_features=768, out_features=768, dtype=float32)
          (v_proj): Linear(in_features=768, out_features=768, dtype=float32)
          (r_proj): Linear(in_features=768, out_features=768, dtype=float32)
          (t_proj): Linear(in_features=768, out_features=768, dtype=float32)
          (out_proj): Linear(in_features=768, out_features=768, dtype=float32)
        )
        (ffn): PointwiseFFN(
          (linear1): Linear(in_features=768, out_features=3072, dtype=float32)
          (dropout): Dropout(p=0.0, axis=None, mode=upscale_in_train)
          (linear2): Linear(in_features=3072, out_features=768, dtype=float32)
        )
        (norm1): LayerNorm(normalized_shape=[768], epsilon=1e-12)
        (norm2): LayerNorm(normalized_shape=[768], epsilon=1e-12)
        (dropout1): Dropout(p=0.0, axis=None, mode=upscale_in_train)
        (dropout2): Dropout(p=0.0, axis=None, mode=upscale_in_train)
      )
      (2): ErnieDocEncoderLayer(
        (attn): MultiHeadAttention(
          (q_proj): Linear(in_features=768, out_features=768, dtype=float32)
          (k_proj): Linear(in_features=768, out_features=768, dtype=float32)
          (v_proj): Linear(in_features=768, out_features=768, dtype=float32)
          (r_proj): Linear(in_features=768, out_features=768, dtype=float32)
          (t_proj): Linear(in_features=768, out_features=768, dtype=float32)
          (out_proj): Linear(in_features=768, out_features=768, dtype=float32)
        )
        (ffn): PointwiseFFN(
          (linear1): Linear(in_features=768, out_features=3072, dtype=float32)
          (dropout): Dropout(p=0.0, axis=None, mode=upscale_in_train)
          (linear2): Linear(in_features=3072, out_features=768, dtype=float32)
        )
        (norm1): LayerNorm(normalized_shape=[768], epsilon=1e-12)
        (norm2): LayerNorm(normalized_shape=[768], epsilon=1e-12)
        (dropout1): Dropout(p=0.0, axis=None, mode=upscale_in_train)
        (dropout2): Dropout(p=0.0, axis=None, mode=upscale_in_train)
      )
      (3): ErnieDocEncoderLayer(
        (attn): MultiHeadAttention(
          (q_proj): Linear(in_features=768, out_features=768, dtype=float32)
          (k_proj): Linear(in_features=768, out_features=768, dtype=float32)
          (v_proj): Linear(in_features=768, out_features=768, dtype=float32)
          (r_proj): Linear(in_features=768, out_features=768, dtype=float32)
          (t_proj): Linear(in_features=768, out_features=768, dtype=float32)
          (out_proj): Linear(in_features=768, out_features=768, dtype=float32)
        )
        (ffn): PointwiseFFN(
          (linear1): Linear(in_features=768, out_features=3072, dtype=float32)
          (dropout): Dropout(p=0.0, axis=None, mode=upscale_in_train)
          (linear2): Linear(in_features=3072, out_features=768, dtype=float32)
        )
        (norm1): LayerNorm(normalized_shape=[768], epsilon=1e-12)
        (norm2): LayerNorm(normalized_shape=[768], epsilon=1e-12)
        (dropout1): Dropout(p=0.0, axis=None, mode=upscale_in_train)
        (dropout2): Dropout(p=0.0, axis=None, mode=upscale_in_train)
      )
      (4): ErnieDocEncoderLayer(
        (attn): MultiHeadAttention(
          (q_proj): Linear(in_features=768, out_features=768, dtype=float32)
          (k_proj): Linear(in_features=768, out_features=768, dtype=float32)
          (v_proj): Linear(in_features=768, out_features=768, dtype=float32)
          (r_proj): Linear(in_features=768, out_features=768, dtype=float32)
          (t_proj): Linear(in_features=768, out_features=768, dtype=float32)
          (out_proj): Linear(in_features=768, out_features=768, dtype=float32)
        )
        (ffn): PointwiseFFN(
          (linear1): Linear(in_features=768, out_features=3072, dtype=float32)
          (dropout): Dropout(p=0.0, axis=None, mode=upscale_in_train)
          (linear2): Linear(in_features=3072, out_features=768, dtype=float32)
        )
        (norm1): LayerNorm(normalized_shape=[768], epsilon=1e-12)
        (norm2): LayerNorm(normalized_shape=[768], epsilon=1e-12)
        (dropout1): Dropout(p=0.0, axis=None, mode=upscale_in_train)
        (dropout2): Dropout(p=0.0, axis=None, mode=upscale_in_train)
      )
      (5): ErnieDocEncoderLayer(
        (attn): MultiHeadAttention(
          (q_proj): Linear(in_features=768, out_features=768, dtype=float32)
          (k_proj): Linear(in_features=768, out_features=768, dtype=float32)
          (v_proj): Linear(in_features=768, out_features=768, dtype=float32)
          (r_proj): Linear(in_features=768, out_features=768, dtype=float32)
          (t_proj): Linear(in_features=768, out_features=768, dtype=float32)
          (out_proj): Linear(in_features=768, out_features=768, dtype=float32)
        )
        (ffn): PointwiseFFN(
          (linear1): Linear(in_features=768, out_features=3072, dtype=float32)
          (dropout): Dropout(p=0.0, axis=None, mode=upscale_in_train)
          (linear2): Linear(in_features=3072, out_features=768, dtype=float32)
        )
        (norm1): LayerNorm(normalized_shape=[768], epsilon=1e-12)
        (norm2): LayerNorm(normalized_shape=[768], epsilon=1e-12)
        (dropout1): Dropout(p=0.0, axis=None, mode=upscale_in_train)
        (dropout2): Dropout(p=0.0, axis=None, mode=upscale_in_train)
      )
      (6): ErnieDocEncoderLayer(
        (attn): MultiHeadAttention(
          (q_proj): Linear(in_features=768, out_features=768, dtype=float32)
          (k_proj): Linear(in_features=768, out_features=768, dtype=float32)
          (v_proj): Linear(in_features=768, out_features=768, dtype=float32)
          (r_proj): Linear(in_features=768, out_features=768, dtype=float32)
          (t_proj): Linear(in_features=768, out_features=768, dtype=float32)
          (out_proj): Linear(in_features=768, out_features=768, dtype=float32)
        )
        (ffn): PointwiseFFN(
          (linear1): Linear(in_features=768, out_features=3072, dtype=float32)
          (dropout): Dropout(p=0.0, axis=None, mode=upscale_in_train)
          (linear2): Linear(in_features=3072, out_features=768, dtype=float32)
        )
        (norm1): LayerNorm(normalized_shape=[768], epsilon=1e-12)
        (norm2): LayerNorm(normalized_shape=[768], epsilon=1e-12)
        (dropout1): Dropout(p=0.0, axis=None, mode=upscale_in_train)
        (dropout2): Dropout(p=0.0, axis=None, mode=upscale_in_train)
      )
      (7): ErnieDocEncoderLayer(
        (attn): MultiHeadAttention(
          (q_proj): Linear(in_features=768, out_features=768, dtype=float32)
          (k_proj): Linear(in_features=768, out_features=768, dtype=float32)
          (v_proj): Linear(in_features=768, out_features=768, dtype=float32)
          (r_proj): Linear(in_features=768, out_features=768, dtype=float32)
          (t_proj): Linear(in_features=768, out_features=768, dtype=float32)
          (out_proj): Linear(in_features=768, out_features=768, dtype=float32)
        )
        (ffn): PointwiseFFN(
          (linear1): Linear(in_features=768, out_features=3072, dtype=float32)
          (dropout): Dropout(p=0.0, axis=None, mode=upscale_in_train)
          (linear2): Linear(in_features=3072, out_features=768, dtype=float32)
        )
        (norm1): LayerNorm(normalized_shape=[768], epsilon=1e-12)
        (norm2): LayerNorm(normalized_shape=[768], epsilon=1e-12)
        (dropout1): Dropout(p=0.0, axis=None, mode=upscale_in_train)
        (dropout2): Dropout(p=0.0, axis=None, mode=upscale_in_train)
      )
      (8): ErnieDocEncoderLayer(
        (attn): MultiHeadAttention(
          (q_proj): Linear(in_features=768, out_features=768, dtype=float32)
          (k_proj): Linear(in_features=768, out_features=768, dtype=float32)
          (v_proj): Linear(in_features=768, out_features=768, dtype=float32)
          (r_proj): Linear(in_features=768, out_features=768, dtype=float32)
          (t_proj): Linear(in_features=768, out_features=768, dtype=float32)
          (out_proj): Linear(in_features=768, out_features=768, dtype=float32)
        )
        (ffn): PointwiseFFN(
          (linear1): Linear(in_features=768, out_features=3072, dtype=float32)
          (dropout): Dropout(p=0.0, axis=None, mode=upscale_in_train)
          (linear2): Linear(in_features=3072, out_features=768, dtype=float32)
        )
        (norm1): LayerNorm(normalized_shape=[768], epsilon=1e-12)
        (norm2): LayerNorm(normalized_shape=[768], epsilon=1e-12)
        (dropout1): Dropout(p=0.0, axis=None, mode=upscale_in_train)
        (dropout2): Dropout(p=0.0, axis=None, mode=upscale_in_train)
      )
      (9): ErnieDocEncoderLayer(
        (attn): MultiHeadAttention(
          (q_proj): Linear(in_features=768, out_features=768, dtype=float32)
          (k_proj): Linear(in_features=768, out_features=768, dtype=float32)
          (v_proj): Linear(in_features=768, out_features=768, dtype=float32)
          (r_proj): Linear(in_features=768, out_features=768, dtype=float32)
          (t_proj): Linear(in_features=768, out_features=768, dtype=float32)
          (out_proj): Linear(in_features=768, out_features=768, dtype=float32)
        )
        (ffn): PointwiseFFN(
          (linear1): Linear(in_features=768, out_features=3072, dtype=float32)
          (dropout): Dropout(p=0.0, axis=None, mode=upscale_in_train)
          (linear2): Linear(in_features=3072, out_features=768, dtype=float32)
        )
        (norm1): LayerNorm(normalized_shape=[768], epsilon=1e-12)
        (norm2): LayerNorm(normalized_shape=[768], epsilon=1e-12)
        (dropout1): Dropout(p=0.0, axis=None, mode=upscale_in_train)
        (dropout2): Dropout(p=0.0, axis=None, mode=upscale_in_train)
      )
      (10): ErnieDocEncoderLayer(
        (attn): MultiHeadAttention(
          (q_proj): Linear(in_features=768, out_features=768, dtype=float32)
          (k_proj): Linear(in_features=768, out_features=768, dtype=float32)
          (v_proj): Linear(in_features=768, out_features=768, dtype=float32)
          (r_proj): Linear(in_features=768, out_features=768, dtype=float32)
          (t_proj): Linear(in_features=768, out_features=768, dtype=float32)
          (out_proj): Linear(in_features=768, out_features=768, dtype=float32)
        )
        (ffn): PointwiseFFN(
          (linear1): Linear(in_features=768, out_features=3072, dtype=float32)
          (dropout): Dropout(p=0.0, axis=None, mode=upscale_in_train)
          (linear2): Linear(in_features=3072, out_features=768, dtype=float32)
        )
        (norm1): LayerNorm(normalized_shape=[768], epsilon=1e-12)
        (norm2): LayerNorm(normalized_shape=[768], epsilon=1e-12)
        (dropout1): Dropout(p=0.0, axis=None, mode=upscale_in_train)
        (dropout2): Dropout(p=0.0, axis=None, mode=upscale_in_train)
      )
      (11): ErnieDocEncoderLayer(
        (attn): MultiHeadAttention(
          (q_proj): Linear(in_features=768, out_features=768, dtype=float32)
          (k_proj): Linear(in_features=768, out_features=768, dtype=float32)
          (v_proj): Linear(in_features=768, out_features=768, dtype=float32)
          (r_proj): Linear(in_features=768, out_features=768, dtype=float32)
          (t_proj): Linear(in_features=768, out_features=768, dtype=float32)
          (out_proj): Linear(in_features=768, out_features=768, dtype=float32)
        )
        (ffn): PointwiseFFN(
          (linear1): Linear(in_features=768, out_features=3072, dtype=float32)
          (dropout): Dropout(p=0.0, axis=None, mode=upscale_in_train)
          (linear2): Linear(in_features=3072, out_features=768, dtype=float32)
        )
        (norm1): LayerNorm(normalized_shape=[768], epsilon=1e-12)
        (norm2): LayerNorm(normalized_shape=[768], epsilon=1e-12)
        (dropout1): Dropout(p=0.0, axis=None, mode=upscale_in_train)
        (dropout2): Dropout(p=0.0, axis=None, mode=upscale_in_train)
      )
    )
  )
  (embeddings): ErnieDocEmbeddings(
    (word_emb): Embedding(50265, 768, sparse=False)
    (pos_emb): Embedding(1152, 768, sparse=False)
    (token_type_emb): Embedding(3, 768, sparse=False)
    (dropouts): LayerList(
      (0): Dropout(p=0.0, axis=None, mode=upscale_in_train)
      (1): Dropout(p=0.0, axis=None, mode=upscale_in_train)
      (2): Dropout(p=0.0, axis=None, mode=upscale_in_train)
    )
    (norms): LayerList(
      (0): LayerNorm(normalized_shape=[768], epsilon=1e-05)
      (1): LayerNorm(normalized_shape=[768], epsilon=1e-05)
      (2): LayerNorm(normalized_shape=[768], epsilon=1e-05)
    )
  )
  (pooler): ErnieDocPooler(
    (dense): Linear(in_features=768, out_features=768, dtype=float32)
    (activation): Tanh()
  )
)
