name: ernie_for_generation_0	labels (NA): NA	ErnieForGeneration(
  (ln): LayerNorm(normalized_shape=[1024], epsilon=1e-05)
  (word_emb): Embedding(30522, 1024, sparse=False)
  (pos_emb): Embedding(1024, 1024, sparse=False)
  (sent_emb): Embedding(4, 1024, sparse=False)
  (dropout): Dropout(p=0.1, axis=None, mode=upscale_in_train)
  (encoder_stack): ErnieEncoderStack(
    (block): LayerList(
      (0): ErnieEncoderLayer(
        (attn): AttentionLayer(
          (q): Linear(in_features=1024, out_features=1024, dtype=float32)
          (k): Linear(in_features=1024, out_features=1024, dtype=float32)
          (v): Linear(in_features=1024, out_features=1024, dtype=float32)
          (o): Linear(in_features=1024, out_features=1024, dtype=float32)
          (dropout): Dropout(p=0.1, axis=None, mode=upscale_in_train)
        )
        (ln1): LayerNorm(normalized_shape=[1024], epsilon=1e-05)
        (ffn): PositionwiseFeedForwardLayer(
          (i): Linear(in_features=1024, out_features=4096, dtype=float32)
          (o): Linear(in_features=4096, out_features=1024, dtype=float32)
          (dropout): Dropout(p=0.0, axis=None, mode=upscale_in_train)
        )
        (ln2): LayerNorm(normalized_shape=[1024], epsilon=1e-05)
        (dropout): Dropout(p=0.1, axis=None, mode=upscale_in_train)
      )
      (1): ErnieEncoderLayer(
        (attn): AttentionLayer(
          (q): Linear(in_features=1024, out_features=1024, dtype=float32)
          (k): Linear(in_features=1024, out_features=1024, dtype=float32)
          (v): Linear(in_features=1024, out_features=1024, dtype=float32)
          (o): Linear(in_features=1024, out_features=1024, dtype=float32)
          (dropout): Dropout(p=0.1, axis=None, mode=upscale_in_train)
        )
        (ln1): LayerNorm(normalized_shape=[1024], epsilon=1e-05)
        (ffn): PositionwiseFeedForwardLayer(
          (i): Linear(in_features=1024, out_features=4096, dtype=float32)
          (o): Linear(in_features=4096, out_features=1024, dtype=float32)
          (dropout): Dropout(p=0.0, axis=None, mode=upscale_in_train)
        )
        (ln2): LayerNorm(normalized_shape=[1024], epsilon=1e-05)
        (dropout): Dropout(p=0.1, axis=None, mode=upscale_in_train)
      )
      (2): ErnieEncoderLayer(
        (attn): AttentionLayer(
          (q): Linear(in_features=1024, out_features=1024, dtype=float32)
          (k): Linear(in_features=1024, out_features=1024, dtype=float32)
          (v): Linear(in_features=1024, out_features=1024, dtype=float32)
          (o): Linear(in_features=1024, out_features=1024, dtype=float32)
          (dropout): Dropout(p=0.1, axis=None, mode=upscale_in_train)
        )
        (ln1): LayerNorm(normalized_shape=[1024], epsilon=1e-05)
        (ffn): PositionwiseFeedForwardLayer(
          (i): Linear(in_features=1024, out_features=4096, dtype=float32)
          (o): Linear(in_features=4096, out_features=1024, dtype=float32)
          (dropout): Dropout(p=0.0, axis=None, mode=upscale_in_train)
        )
        (ln2): LayerNorm(normalized_shape=[1024], epsilon=1e-05)
        (dropout): Dropout(p=0.1, axis=None, mode=upscale_in_train)
      )
      (3): ErnieEncoderLayer(
        (attn): AttentionLayer(
          (q): Linear(in_features=1024, out_features=1024, dtype=float32)
          (k): Linear(in_features=1024, out_features=1024, dtype=float32)
          (v): Linear(in_features=1024, out_features=1024, dtype=float32)
          (o): Linear(in_features=1024, out_features=1024, dtype=float32)
          (dropout): Dropout(p=0.1, axis=None, mode=upscale_in_train)
        )
        (ln1): LayerNorm(normalized_shape=[1024], epsilon=1e-05)
        (ffn): PositionwiseFeedForwardLayer(
          (i): Linear(in_features=1024, out_features=4096, dtype=float32)
          (o): Linear(in_features=4096, out_features=1024, dtype=float32)
          (dropout): Dropout(p=0.0, axis=None, mode=upscale_in_train)
        )
        (ln2): LayerNorm(normalized_shape=[1024], epsilon=1e-05)
        (dropout): Dropout(p=0.1, axis=None, mode=upscale_in_train)
      )
      (4): ErnieEncoderLayer(
        (attn): AttentionLayer(
          (q): Linear(in_features=1024, out_features=1024, dtype=float32)
          (k): Linear(in_features=1024, out_features=1024, dtype=float32)
          (v): Linear(in_features=1024, out_features=1024, dtype=float32)
          (o): Linear(in_features=1024, out_features=1024, dtype=float32)
          (dropout): Dropout(p=0.1, axis=None, mode=upscale_in_train)
        )
        (ln1): LayerNorm(normalized_shape=[1024], epsilon=1e-05)
        (ffn): PositionwiseFeedForwardLayer(
          (i): Linear(in_features=1024, out_features=4096, dtype=float32)
          (o): Linear(in_features=4096, out_features=1024, dtype=float32)
          (dropout): Dropout(p=0.0, axis=None, mode=upscale_in_train)
        )
        (ln2): LayerNorm(normalized_shape=[1024], epsilon=1e-05)
        (dropout): Dropout(p=0.1, axis=None, mode=upscale_in_train)
      )
      (5): ErnieEncoderLayer(
        (attn): AttentionLayer(
          (q): Linear(in_features=1024, out_features=1024, dtype=float32)
          (k): Linear(in_features=1024, out_features=1024, dtype=float32)
          (v): Linear(in_features=1024, out_features=1024, dtype=float32)
          (o): Linear(in_features=1024, out_features=1024, dtype=float32)
          (dropout): Dropout(p=0.1, axis=None, mode=upscale_in_train)
        )
        (ln1): LayerNorm(normalized_shape=[1024], epsilon=1e-05)
        (ffn): PositionwiseFeedForwardLayer(
          (i): Linear(in_features=1024, out_features=4096, dtype=float32)
          (o): Linear(in_features=4096, out_features=1024, dtype=float32)
          (dropout): Dropout(p=0.0, axis=None, mode=upscale_in_train)
        )
        (ln2): LayerNorm(normalized_shape=[1024], epsilon=1e-05)
        (dropout): Dropout(p=0.1, axis=None, mode=upscale_in_train)
      )
      (6): ErnieEncoderLayer(
        (attn): AttentionLayer(
          (q): Linear(in_features=1024, out_features=1024, dtype=float32)
          (k): Linear(in_features=1024, out_features=1024, dtype=float32)
          (v): Linear(in_features=1024, out_features=1024, dtype=float32)
          (o): Linear(in_features=1024, out_features=1024, dtype=float32)
          (dropout): Dropout(p=0.1, axis=None, mode=upscale_in_train)
        )
        (ln1): LayerNorm(normalized_shape=[1024], epsilon=1e-05)
        (ffn): PositionwiseFeedForwardLayer(
          (i): Linear(in_features=1024, out_features=4096, dtype=float32)
          (o): Linear(in_features=4096, out_features=1024, dtype=float32)
          (dropout): Dropout(p=0.0, axis=None, mode=upscale_in_train)
        )
        (ln2): LayerNorm(normalized_shape=[1024], epsilon=1e-05)
        (dropout): Dropout(p=0.1, axis=None, mode=upscale_in_train)
      )
      (7): ErnieEncoderLayer(
        (attn): AttentionLayer(
          (q): Linear(in_features=1024, out_features=1024, dtype=float32)
          (k): Linear(in_features=1024, out_features=1024, dtype=float32)
          (v): Linear(in_features=1024, out_features=1024, dtype=float32)
          (o): Linear(in_features=1024, out_features=1024, dtype=float32)
          (dropout): Dropout(p=0.1, axis=None, mode=upscale_in_train)
        )
        (ln1): LayerNorm(normalized_shape=[1024], epsilon=1e-05)
        (ffn): PositionwiseFeedForwardLayer(
          (i): Linear(in_features=1024, out_features=4096, dtype=float32)
          (o): Linear(in_features=4096, out_features=1024, dtype=float32)
          (dropout): Dropout(p=0.0, axis=None, mode=upscale_in_train)
        )
        (ln2): LayerNorm(normalized_shape=[1024], epsilon=1e-05)
        (dropout): Dropout(p=0.1, axis=None, mode=upscale_in_train)
      )
      (8): ErnieEncoderLayer(
        (attn): AttentionLayer(
          (q): Linear(in_features=1024, out_features=1024, dtype=float32)
          (k): Linear(in_features=1024, out_features=1024, dtype=float32)
          (v): Linear(in_features=1024, out_features=1024, dtype=float32)
          (o): Linear(in_features=1024, out_features=1024, dtype=float32)
          (dropout): Dropout(p=0.1, axis=None, mode=upscale_in_train)
        )
        (ln1): LayerNorm(normalized_shape=[1024], epsilon=1e-05)
        (ffn): PositionwiseFeedForwardLayer(
          (i): Linear(in_features=1024, out_features=4096, dtype=float32)
          (o): Linear(in_features=4096, out_features=1024, dtype=float32)
          (dropout): Dropout(p=0.0, axis=None, mode=upscale_in_train)
        )
        (ln2): LayerNorm(normalized_shape=[1024], epsilon=1e-05)
        (dropout): Dropout(p=0.1, axis=None, mode=upscale_in_train)
      )
      (9): ErnieEncoderLayer(
        (attn): AttentionLayer(
          (q): Linear(in_features=1024, out_features=1024, dtype=float32)
          (k): Linear(in_features=1024, out_features=1024, dtype=float32)
          (v): Linear(in_features=1024, out_features=1024, dtype=float32)
          (o): Linear(in_features=1024, out_features=1024, dtype=float32)
          (dropout): Dropout(p=0.1, axis=None, mode=upscale_in_train)
        )
        (ln1): LayerNorm(normalized_shape=[1024], epsilon=1e-05)
        (ffn): PositionwiseFeedForwardLayer(
          (i): Linear(in_features=1024, out_features=4096, dtype=float32)
          (o): Linear(in_features=4096, out_features=1024, dtype=float32)
          (dropout): Dropout(p=0.0, axis=None, mode=upscale_in_train)
        )
        (ln2): LayerNorm(normalized_shape=[1024], epsilon=1e-05)
        (dropout): Dropout(p=0.1, axis=None, mode=upscale_in_train)
      )
      (10): ErnieEncoderLayer(
        (attn): AttentionLayer(
          (q): Linear(in_features=1024, out_features=1024, dtype=float32)
          (k): Linear(in_features=1024, out_features=1024, dtype=float32)
          (v): Linear(in_features=1024, out_features=1024, dtype=float32)
          (o): Linear(in_features=1024, out_features=1024, dtype=float32)
          (dropout): Dropout(p=0.1, axis=None, mode=upscale_in_train)
        )
        (ln1): LayerNorm(normalized_shape=[1024], epsilon=1e-05)
        (ffn): PositionwiseFeedForwardLayer(
          (i): Linear(in_features=1024, out_features=4096, dtype=float32)
          (o): Linear(in_features=4096, out_features=1024, dtype=float32)
          (dropout): Dropout(p=0.0, axis=None, mode=upscale_in_train)
        )
        (ln2): LayerNorm(normalized_shape=[1024], epsilon=1e-05)
        (dropout): Dropout(p=0.1, axis=None, mode=upscale_in_train)
      )
      (11): ErnieEncoderLayer(
        (attn): AttentionLayer(
          (q): Linear(in_features=1024, out_features=1024, dtype=float32)
          (k): Linear(in_features=1024, out_features=1024, dtype=float32)
          (v): Linear(in_features=1024, out_features=1024, dtype=float32)
          (o): Linear(in_features=1024, out_features=1024, dtype=float32)
          (dropout): Dropout(p=0.1, axis=None, mode=upscale_in_train)
        )
        (ln1): LayerNorm(normalized_shape=[1024], epsilon=1e-05)
        (ffn): PositionwiseFeedForwardLayer(
          (i): Linear(in_features=1024, out_features=4096, dtype=float32)
          (o): Linear(in_features=4096, out_features=1024, dtype=float32)
          (dropout): Dropout(p=0.0, axis=None, mode=upscale_in_train)
        )
        (ln2): LayerNorm(normalized_shape=[1024], epsilon=1e-05)
        (dropout): Dropout(p=0.1, axis=None, mode=upscale_in_train)
      )
      (12): ErnieEncoderLayer(
        (attn): AttentionLayer(
          (q): Linear(in_features=1024, out_features=1024, dtype=float32)
          (k): Linear(in_features=1024, out_features=1024, dtype=float32)
          (v): Linear(in_features=1024, out_features=1024, dtype=float32)
          (o): Linear(in_features=1024, out_features=1024, dtype=float32)
          (dropout): Dropout(p=0.1, axis=None, mode=upscale_in_train)
        )
        (ln1): LayerNorm(normalized_shape=[1024], epsilon=1e-05)
        (ffn): PositionwiseFeedForwardLayer(
          (i): Linear(in_features=1024, out_features=4096, dtype=float32)
          (o): Linear(in_features=4096, out_features=1024, dtype=float32)
          (dropout): Dropout(p=0.0, axis=None, mode=upscale_in_train)
        )
        (ln2): LayerNorm(normalized_shape=[1024], epsilon=1e-05)
        (dropout): Dropout(p=0.1, axis=None, mode=upscale_in_train)
      )
      (13): ErnieEncoderLayer(
        (attn): AttentionLayer(
          (q): Linear(in_features=1024, out_features=1024, dtype=float32)
          (k): Linear(in_features=1024, out_features=1024, dtype=float32)
          (v): Linear(in_features=1024, out_features=1024, dtype=float32)
          (o): Linear(in_features=1024, out_features=1024, dtype=float32)
          (dropout): Dropout(p=0.1, axis=None, mode=upscale_in_train)
        )
        (ln1): LayerNorm(normalized_shape=[1024], epsilon=1e-05)
        (ffn): PositionwiseFeedForwardLayer(
          (i): Linear(in_features=1024, out_features=4096, dtype=float32)
          (o): Linear(in_features=4096, out_features=1024, dtype=float32)
          (dropout): Dropout(p=0.0, axis=None, mode=upscale_in_train)
        )
        (ln2): LayerNorm(normalized_shape=[1024], epsilon=1e-05)
        (dropout): Dropout(p=0.1, axis=None, mode=upscale_in_train)
      )
      (14): ErnieEncoderLayer(
        (attn): AttentionLayer(
          (q): Linear(in_features=1024, out_features=1024, dtype=float32)
          (k): Linear(in_features=1024, out_features=1024, dtype=float32)
          (v): Linear(in_features=1024, out_features=1024, dtype=float32)
          (o): Linear(in_features=1024, out_features=1024, dtype=float32)
          (dropout): Dropout(p=0.1, axis=None, mode=upscale_in_train)
        )
        (ln1): LayerNorm(normalized_shape=[1024], epsilon=1e-05)
        (ffn): PositionwiseFeedForwardLayer(
          (i): Linear(in_features=1024, out_features=4096, dtype=float32)
          (o): Linear(in_features=4096, out_features=1024, dtype=float32)
          (dropout): Dropout(p=0.0, axis=None, mode=upscale_in_train)
        )
        (ln2): LayerNorm(normalized_shape=[1024], epsilon=1e-05)
        (dropout): Dropout(p=0.1, axis=None, mode=upscale_in_train)
      )
      (15): ErnieEncoderLayer(
        (attn): AttentionLayer(
          (q): Linear(in_features=1024, out_features=1024, dtype=float32)
          (k): Linear(in_features=1024, out_features=1024, dtype=float32)
          (v): Linear(in_features=1024, out_features=1024, dtype=float32)
          (o): Linear(in_features=1024, out_features=1024, dtype=float32)
          (dropout): Dropout(p=0.1, axis=None, mode=upscale_in_train)
        )
        (ln1): LayerNorm(normalized_shape=[1024], epsilon=1e-05)
        (ffn): PositionwiseFeedForwardLayer(
          (i): Linear(in_features=1024, out_features=4096, dtype=float32)
          (o): Linear(in_features=4096, out_features=1024, dtype=float32)
          (dropout): Dropout(p=0.0, axis=None, mode=upscale_in_train)
        )
        (ln2): LayerNorm(normalized_shape=[1024], epsilon=1e-05)
        (dropout): Dropout(p=0.1, axis=None, mode=upscale_in_train)
      )
      (16): ErnieEncoderLayer(
        (attn): AttentionLayer(
          (q): Linear(in_features=1024, out_features=1024, dtype=float32)
          (k): Linear(in_features=1024, out_features=1024, dtype=float32)
          (v): Linear(in_features=1024, out_features=1024, dtype=float32)
          (o): Linear(in_features=1024, out_features=1024, dtype=float32)
          (dropout): Dropout(p=0.1, axis=None, mode=upscale_in_train)
        )
        (ln1): LayerNorm(normalized_shape=[1024], epsilon=1e-05)
        (ffn): PositionwiseFeedForwardLayer(
          (i): Linear(in_features=1024, out_features=4096, dtype=float32)
          (o): Linear(in_features=4096, out_features=1024, dtype=float32)
          (dropout): Dropout(p=0.0, axis=None, mode=upscale_in_train)
        )
        (ln2): LayerNorm(normalized_shape=[1024], epsilon=1e-05)
        (dropout): Dropout(p=0.1, axis=None, mode=upscale_in_train)
      )
      (17): ErnieEncoderLayer(
        (attn): AttentionLayer(
          (q): Linear(in_features=1024, out_features=1024, dtype=float32)
          (k): Linear(in_features=1024, out_features=1024, dtype=float32)
          (v): Linear(in_features=1024, out_features=1024, dtype=float32)
          (o): Linear(in_features=1024, out_features=1024, dtype=float32)
          (dropout): Dropout(p=0.1, axis=None, mode=upscale_in_train)
        )
        (ln1): LayerNorm(normalized_shape=[1024], epsilon=1e-05)
        (ffn): PositionwiseFeedForwardLayer(
          (i): Linear(in_features=1024, out_features=4096, dtype=float32)
          (o): Linear(in_features=4096, out_features=1024, dtype=float32)
          (dropout): Dropout(p=0.0, axis=None, mode=upscale_in_train)
        )
        (ln2): LayerNorm(normalized_shape=[1024], epsilon=1e-05)
        (dropout): Dropout(p=0.1, axis=None, mode=upscale_in_train)
      )
      (18): ErnieEncoderLayer(
        (attn): AttentionLayer(
          (q): Linear(in_features=1024, out_features=1024, dtype=float32)
          (k): Linear(in_features=1024, out_features=1024, dtype=float32)
          (v): Linear(in_features=1024, out_features=1024, dtype=float32)
          (o): Linear(in_features=1024, out_features=1024, dtype=float32)
          (dropout): Dropout(p=0.1, axis=None, mode=upscale_in_train)
        )
        (ln1): LayerNorm(normalized_shape=[1024], epsilon=1e-05)
        (ffn): PositionwiseFeedForwardLayer(
          (i): Linear(in_features=1024, out_features=4096, dtype=float32)
          (o): Linear(in_features=4096, out_features=1024, dtype=float32)
          (dropout): Dropout(p=0.0, axis=None, mode=upscale_in_train)
        )
        (ln2): LayerNorm(normalized_shape=[1024], epsilon=1e-05)
        (dropout): Dropout(p=0.1, axis=None, mode=upscale_in_train)
      )
      (19): ErnieEncoderLayer(
        (attn): AttentionLayer(
          (q): Linear(in_features=1024, out_features=1024, dtype=float32)
          (k): Linear(in_features=1024, out_features=1024, dtype=float32)
          (v): Linear(in_features=1024, out_features=1024, dtype=float32)
          (o): Linear(in_features=1024, out_features=1024, dtype=float32)
          (dropout): Dropout(p=0.1, axis=None, mode=upscale_in_train)
        )
        (ln1): LayerNorm(normalized_shape=[1024], epsilon=1e-05)
        (ffn): PositionwiseFeedForwardLayer(
          (i): Linear(in_features=1024, out_features=4096, dtype=float32)
          (o): Linear(in_features=4096, out_features=1024, dtype=float32)
          (dropout): Dropout(p=0.0, axis=None, mode=upscale_in_train)
        )
        (ln2): LayerNorm(normalized_shape=[1024], epsilon=1e-05)
        (dropout): Dropout(p=0.1, axis=None, mode=upscale_in_train)
      )
      (20): ErnieEncoderLayer(
        (attn): AttentionLayer(
          (q): Linear(in_features=1024, out_features=1024, dtype=float32)
          (k): Linear(in_features=1024, out_features=1024, dtype=float32)
          (v): Linear(in_features=1024, out_features=1024, dtype=float32)
          (o): Linear(in_features=1024, out_features=1024, dtype=float32)
          (dropout): Dropout(p=0.1, axis=None, mode=upscale_in_train)
        )
        (ln1): LayerNorm(normalized_shape=[1024], epsilon=1e-05)
        (ffn): PositionwiseFeedForwardLayer(
          (i): Linear(in_features=1024, out_features=4096, dtype=float32)
          (o): Linear(in_features=4096, out_features=1024, dtype=float32)
          (dropout): Dropout(p=0.0, axis=None, mode=upscale_in_train)
        )
        (ln2): LayerNorm(normalized_shape=[1024], epsilon=1e-05)
        (dropout): Dropout(p=0.1, axis=None, mode=upscale_in_train)
      )
      (21): ErnieEncoderLayer(
        (attn): AttentionLayer(
          (q): Linear(in_features=1024, out_features=1024, dtype=float32)
          (k): Linear(in_features=1024, out_features=1024, dtype=float32)
          (v): Linear(in_features=1024, out_features=1024, dtype=float32)
          (o): Linear(in_features=1024, out_features=1024, dtype=float32)
          (dropout): Dropout(p=0.1, axis=None, mode=upscale_in_train)
        )
        (ln1): LayerNorm(normalized_shape=[1024], epsilon=1e-05)
        (ffn): PositionwiseFeedForwardLayer(
          (i): Linear(in_features=1024, out_features=4096, dtype=float32)
          (o): Linear(in_features=4096, out_features=1024, dtype=float32)
          (dropout): Dropout(p=0.0, axis=None, mode=upscale_in_train)
        )
        (ln2): LayerNorm(normalized_shape=[1024], epsilon=1e-05)
        (dropout): Dropout(p=0.1, axis=None, mode=upscale_in_train)
      )
      (22): ErnieEncoderLayer(
        (attn): AttentionLayer(
          (q): Linear(in_features=1024, out_features=1024, dtype=float32)
          (k): Linear(in_features=1024, out_features=1024, dtype=float32)
          (v): Linear(in_features=1024, out_features=1024, dtype=float32)
          (o): Linear(in_features=1024, out_features=1024, dtype=float32)
          (dropout): Dropout(p=0.1, axis=None, mode=upscale_in_train)
        )
        (ln1): LayerNorm(normalized_shape=[1024], epsilon=1e-05)
        (ffn): PositionwiseFeedForwardLayer(
          (i): Linear(in_features=1024, out_features=4096, dtype=float32)
          (o): Linear(in_features=4096, out_features=1024, dtype=float32)
          (dropout): Dropout(p=0.0, axis=None, mode=upscale_in_train)
        )
        (ln2): LayerNorm(normalized_shape=[1024], epsilon=1e-05)
        (dropout): Dropout(p=0.1, axis=None, mode=upscale_in_train)
      )
      (23): ErnieEncoderLayer(
        (attn): AttentionLayer(
          (q): Linear(in_features=1024, out_features=1024, dtype=float32)
          (k): Linear(in_features=1024, out_features=1024, dtype=float32)
          (v): Linear(in_features=1024, out_features=1024, dtype=float32)
          (o): Linear(in_features=1024, out_features=1024, dtype=float32)
          (dropout): Dropout(p=0.1, axis=None, mode=upscale_in_train)
        )
        (ln1): LayerNorm(normalized_shape=[1024], epsilon=1e-05)
        (ffn): PositionwiseFeedForwardLayer(
          (i): Linear(in_features=1024, out_features=4096, dtype=float32)
          (o): Linear(in_features=4096, out_features=1024, dtype=float32)
          (dropout): Dropout(p=0.0, axis=None, mode=upscale_in_train)
        )
        (ln2): LayerNorm(normalized_shape=[1024], epsilon=1e-05)
        (dropout): Dropout(p=0.1, axis=None, mode=upscale_in_train)
      )
    )
  )
  (mlm): Linear(in_features=1024, out_features=1024, dtype=float32)
  (mlm_ln): LayerNorm(normalized_shape=[1024], epsilon=1e-05)
)
