name: mobile_bert_model_0	labels (NA): NA	MobileBertModel(
  (embeddings): MobileBertEmbeddings(
    (word_embeddings): Embedding(30522, 128, padding_idx=0, sparse=False)
    (position_embeddings): Embedding(512, 512, sparse=False)
    (token_type_embeddings): Embedding(2, 512, sparse=False)
    (embedding_transformation): Linear(in_features=384, out_features=512, dtype=float32)
    (layer_norm): NoNorm()
    (dropout): Dropout(p=0.0, axis=None, mode=upscale_in_train)
  )
  (encoder): MobileBertEncoder(
    (layers): LayerList(
      (0): MobileBertLayer(
        (attention): MobileBertAttention(
          (query): Linear(in_features=128, out_features=128, dtype=float32)
          (key): Linear(in_features=128, out_features=128, dtype=float32)
          (value): Linear(in_features=512, out_features=128, dtype=float32)
          (attention_dropout): Dropout(p=0.1, axis=None, mode=upscale_in_train)
          (dense): Linear(in_features=128, out_features=128, dtype=float32)
          (layer_norm): NoNorm()
        )
        (intermediate): MobileBertIntermediate(
          (dense): Linear(in_features=128, out_features=512, dtype=float32)
        )
        (output): MobileBertOutput(
          (dense): Linear(in_features=512, out_features=128, dtype=float32)
          (layer_norm): NoNorm()
          (bottleneck): OutputBottleneck(
            (dense): Linear(in_features=128, out_features=512, dtype=float32)
            (layer_norm): NoNorm()
            (dropout): Dropout(p=0.0, axis=None, mode=upscale_in_train)
          )
        )
        (bottleneck): Bottleneck(
          (input): BottleneckLayer(
            (dense): Linear(in_features=512, out_features=128, dtype=float32)
            (layer_norm): NoNorm()
          )
          (attention): BottleneckLayer(
            (dense): Linear(in_features=512, out_features=128, dtype=float32)
            (layer_norm): NoNorm()
          )
        )
        (ffn): LayerList(
          (0): FFNLayer(
            (intermediate): MobileBertIntermediate(
              (dense): Linear(in_features=128, out_features=512, dtype=float32)
            )
            (output): FFNOutput(
              (dense): Linear(in_features=512, out_features=128, dtype=float32)
              (layer_norm): NoNorm()
            )
          )
          (1): FFNLayer(
            (intermediate): MobileBertIntermediate(
              (dense): Linear(in_features=128, out_features=512, dtype=float32)
            )
            (output): FFNOutput(
              (dense): Linear(in_features=512, out_features=128, dtype=float32)
              (layer_norm): NoNorm()
            )
          )
          (2): FFNLayer(
            (intermediate): MobileBertIntermediate(
              (dense): Linear(in_features=128, out_features=512, dtype=float32)
            )
            (output): FFNOutput(
              (dense): Linear(in_features=512, out_features=128, dtype=float32)
              (layer_norm): NoNorm()
            )
          )
        )
      )
      (1): MobileBertLayer(
        (attention): MobileBertAttention(
          (query): Linear(in_features=128, out_features=128, dtype=float32)
          (key): Linear(in_features=128, out_features=128, dtype=float32)
          (value): Linear(in_features=512, out_features=128, dtype=float32)
          (attention_dropout): Dropout(p=0.1, axis=None, mode=upscale_in_train)
          (dense): Linear(in_features=128, out_features=128, dtype=float32)
          (layer_norm): NoNorm()
        )
        (intermediate): MobileBertIntermediate(
          (dense): Linear(in_features=128, out_features=512, dtype=float32)
        )
        (output): MobileBertOutput(
          (dense): Linear(in_features=512, out_features=128, dtype=float32)
          (layer_norm): NoNorm()
          (bottleneck): OutputBottleneck(
            (dense): Linear(in_features=128, out_features=512, dtype=float32)
            (layer_norm): NoNorm()
            (dropout): Dropout(p=0.0, axis=None, mode=upscale_in_train)
          )
        )
        (bottleneck): Bottleneck(
          (input): BottleneckLayer(
            (dense): Linear(in_features=512, out_features=128, dtype=float32)
            (layer_norm): NoNorm()
          )
          (attention): BottleneckLayer(
            (dense): Linear(in_features=512, out_features=128, dtype=float32)
            (layer_norm): NoNorm()
          )
        )
        (ffn): LayerList(
          (0): FFNLayer(
            (intermediate): MobileBertIntermediate(
              (dense): Linear(in_features=128, out_features=512, dtype=float32)
            )
            (output): FFNOutput(
              (dense): Linear(in_features=512, out_features=128, dtype=float32)
              (layer_norm): NoNorm()
            )
          )
          (1): FFNLayer(
            (intermediate): MobileBertIntermediate(
              (dense): Linear(in_features=128, out_features=512, dtype=float32)
            )
            (output): FFNOutput(
              (dense): Linear(in_features=512, out_features=128, dtype=float32)
              (layer_norm): NoNorm()
            )
          )
          (2): FFNLayer(
            (intermediate): MobileBertIntermediate(
              (dense): Linear(in_features=128, out_features=512, dtype=float32)
            )
            (output): FFNOutput(
              (dense): Linear(in_features=512, out_features=128, dtype=float32)
              (layer_norm): NoNorm()
            )
          )
        )
      )
      (2): MobileBertLayer(
        (attention): MobileBertAttention(
          (query): Linear(in_features=128, out_features=128, dtype=float32)
          (key): Linear(in_features=128, out_features=128, dtype=float32)
          (value): Linear(in_features=512, out_features=128, dtype=float32)
          (attention_dropout): Dropout(p=0.1, axis=None, mode=upscale_in_train)
          (dense): Linear(in_features=128, out_features=128, dtype=float32)
          (layer_norm): NoNorm()
        )
        (intermediate): MobileBertIntermediate(
          (dense): Linear(in_features=128, out_features=512, dtype=float32)
        )
        (output): MobileBertOutput(
          (dense): Linear(in_features=512, out_features=128, dtype=float32)
          (layer_norm): NoNorm()
          (bottleneck): OutputBottleneck(
            (dense): Linear(in_features=128, out_features=512, dtype=float32)
            (layer_norm): NoNorm()
            (dropout): Dropout(p=0.0, axis=None, mode=upscale_in_train)
          )
        )
        (bottleneck): Bottleneck(
          (input): BottleneckLayer(
            (dense): Linear(in_features=512, out_features=128, dtype=float32)
            (layer_norm): NoNorm()
          )
          (attention): BottleneckLayer(
            (dense): Linear(in_features=512, out_features=128, dtype=float32)
            (layer_norm): NoNorm()
          )
        )
        (ffn): LayerList(
          (0): FFNLayer(
            (intermediate): MobileBertIntermediate(
              (dense): Linear(in_features=128, out_features=512, dtype=float32)
            )
            (output): FFNOutput(
              (dense): Linear(in_features=512, out_features=128, dtype=float32)
              (layer_norm): NoNorm()
            )
          )
          (1): FFNLayer(
            (intermediate): MobileBertIntermediate(
              (dense): Linear(in_features=128, out_features=512, dtype=float32)
            )
            (output): FFNOutput(
              (dense): Linear(in_features=512, out_features=128, dtype=float32)
              (layer_norm): NoNorm()
            )
          )
          (2): FFNLayer(
            (intermediate): MobileBertIntermediate(
              (dense): Linear(in_features=128, out_features=512, dtype=float32)
            )
            (output): FFNOutput(
              (dense): Linear(in_features=512, out_features=128, dtype=float32)
              (layer_norm): NoNorm()
            )
          )
        )
      )
      (3): MobileBertLayer(
        (attention): MobileBertAttention(
          (query): Linear(in_features=128, out_features=128, dtype=float32)
          (key): Linear(in_features=128, out_features=128, dtype=float32)
          (value): Linear(in_features=512, out_features=128, dtype=float32)
          (attention_dropout): Dropout(p=0.1, axis=None, mode=upscale_in_train)
          (dense): Linear(in_features=128, out_features=128, dtype=float32)
          (layer_norm): NoNorm()
        )
        (intermediate): MobileBertIntermediate(
          (dense): Linear(in_features=128, out_features=512, dtype=float32)
        )
        (output): MobileBertOutput(
          (dense): Linear(in_features=512, out_features=128, dtype=float32)
          (layer_norm): NoNorm()
          (bottleneck): OutputBottleneck(
            (dense): Linear(in_features=128, out_features=512, dtype=float32)
            (layer_norm): NoNorm()
            (dropout): Dropout(p=0.0, axis=None, mode=upscale_in_train)
          )
        )
        (bottleneck): Bottleneck(
          (input): BottleneckLayer(
            (dense): Linear(in_features=512, out_features=128, dtype=float32)
            (layer_norm): NoNorm()
          )
          (attention): BottleneckLayer(
            (dense): Linear(in_features=512, out_features=128, dtype=float32)
            (layer_norm): NoNorm()
          )
        )
        (ffn): LayerList(
          (0): FFNLayer(
            (intermediate): MobileBertIntermediate(
              (dense): Linear(in_features=128, out_features=512, dtype=float32)
            )
            (output): FFNOutput(
              (dense): Linear(in_features=512, out_features=128, dtype=float32)
              (layer_norm): NoNorm()
            )
          )
          (1): FFNLayer(
            (intermediate): MobileBertIntermediate(
              (dense): Linear(in_features=128, out_features=512, dtype=float32)
            )
            (output): FFNOutput(
              (dense): Linear(in_features=512, out_features=128, dtype=float32)
              (layer_norm): NoNorm()
            )
          )
          (2): FFNLayer(
            (intermediate): MobileBertIntermediate(
              (dense): Linear(in_features=128, out_features=512, dtype=float32)
            )
            (output): FFNOutput(
              (dense): Linear(in_features=512, out_features=128, dtype=float32)
              (layer_norm): NoNorm()
            )
          )
        )
      )
      (4): MobileBertLayer(
        (attention): MobileBertAttention(
          (query): Linear(in_features=128, out_features=128, dtype=float32)
          (key): Linear(in_features=128, out_features=128, dtype=float32)
          (value): Linear(in_features=512, out_features=128, dtype=float32)
          (attention_dropout): Dropout(p=0.1, axis=None, mode=upscale_in_train)
          (dense): Linear(in_features=128, out_features=128, dtype=float32)
          (layer_norm): NoNorm()
        )
        (intermediate): MobileBertIntermediate(
          (dense): Linear(in_features=128, out_features=512, dtype=float32)
        )
        (output): MobileBertOutput(
          (dense): Linear(in_features=512, out_features=128, dtype=float32)
          (layer_norm): NoNorm()
          (bottleneck): OutputBottleneck(
            (dense): Linear(in_features=128, out_features=512, dtype=float32)
            (layer_norm): NoNorm()
            (dropout): Dropout(p=0.0, axis=None, mode=upscale_in_train)
          )
        )
        (bottleneck): Bottleneck(
          (input): BottleneckLayer(
            (dense): Linear(in_features=512, out_features=128, dtype=float32)
            (layer_norm): NoNorm()
          )
          (attention): BottleneckLayer(
            (dense): Linear(in_features=512, out_features=128, dtype=float32)
            (layer_norm): NoNorm()
          )
        )
        (ffn): LayerList(
          (0): FFNLayer(
            (intermediate): MobileBertIntermediate(
              (dense): Linear(in_features=128, out_features=512, dtype=float32)
            )
            (output): FFNOutput(
              (dense): Linear(in_features=512, out_features=128, dtype=float32)
              (layer_norm): NoNorm()
            )
          )
          (1): FFNLayer(
            (intermediate): MobileBertIntermediate(
              (dense): Linear(in_features=128, out_features=512, dtype=float32)
            )
            (output): FFNOutput(
              (dense): Linear(in_features=512, out_features=128, dtype=float32)
              (layer_norm): NoNorm()
            )
          )
          (2): FFNLayer(
            (intermediate): MobileBertIntermediate(
              (dense): Linear(in_features=128, out_features=512, dtype=float32)
            )
            (output): FFNOutput(
              (dense): Linear(in_features=512, out_features=128, dtype=float32)
              (layer_norm): NoNorm()
            )
          )
        )
      )
      (5): MobileBertLayer(
        (attention): MobileBertAttention(
          (query): Linear(in_features=128, out_features=128, dtype=float32)
          (key): Linear(in_features=128, out_features=128, dtype=float32)
          (value): Linear(in_features=512, out_features=128, dtype=float32)
          (attention_dropout): Dropout(p=0.1, axis=None, mode=upscale_in_train)
          (dense): Linear(in_features=128, out_features=128, dtype=float32)
          (layer_norm): NoNorm()
        )
        (intermediate): MobileBertIntermediate(
          (dense): Linear(in_features=128, out_features=512, dtype=float32)
        )
        (output): MobileBertOutput(
          (dense): Linear(in_features=512, out_features=128, dtype=float32)
          (layer_norm): NoNorm()
          (bottleneck): OutputBottleneck(
            (dense): Linear(in_features=128, out_features=512, dtype=float32)
            (layer_norm): NoNorm()
            (dropout): Dropout(p=0.0, axis=None, mode=upscale_in_train)
          )
        )
        (bottleneck): Bottleneck(
          (input): BottleneckLayer(
            (dense): Linear(in_features=512, out_features=128, dtype=float32)
            (layer_norm): NoNorm()
          )
          (attention): BottleneckLayer(
            (dense): Linear(in_features=512, out_features=128, dtype=float32)
            (layer_norm): NoNorm()
          )
        )
        (ffn): LayerList(
          (0): FFNLayer(
            (intermediate): MobileBertIntermediate(
              (dense): Linear(in_features=128, out_features=512, dtype=float32)
            )
            (output): FFNOutput(
              (dense): Linear(in_features=512, out_features=128, dtype=float32)
              (layer_norm): NoNorm()
            )
          )
          (1): FFNLayer(
            (intermediate): MobileBertIntermediate(
              (dense): Linear(in_features=128, out_features=512, dtype=float32)
            )
            (output): FFNOutput(
              (dense): Linear(in_features=512, out_features=128, dtype=float32)
              (layer_norm): NoNorm()
            )
          )
          (2): FFNLayer(
            (intermediate): MobileBertIntermediate(
              (dense): Linear(in_features=128, out_features=512, dtype=float32)
            )
            (output): FFNOutput(
              (dense): Linear(in_features=512, out_features=128, dtype=float32)
              (layer_norm): NoNorm()
            )
          )
        )
      )
      (6): MobileBertLayer(
        (attention): MobileBertAttention(
          (query): Linear(in_features=128, out_features=128, dtype=float32)
          (key): Linear(in_features=128, out_features=128, dtype=float32)
          (value): Linear(in_features=512, out_features=128, dtype=float32)
          (attention_dropout): Dropout(p=0.1, axis=None, mode=upscale_in_train)
          (dense): Linear(in_features=128, out_features=128, dtype=float32)
          (layer_norm): NoNorm()
        )
        (intermediate): MobileBertIntermediate(
          (dense): Linear(in_features=128, out_features=512, dtype=float32)
        )
        (output): MobileBertOutput(
          (dense): Linear(in_features=512, out_features=128, dtype=float32)
          (layer_norm): NoNorm()
          (bottleneck): OutputBottleneck(
            (dense): Linear(in_features=128, out_features=512, dtype=float32)
            (layer_norm): NoNorm()
            (dropout): Dropout(p=0.0, axis=None, mode=upscale_in_train)
          )
        )
        (bottleneck): Bottleneck(
          (input): BottleneckLayer(
            (dense): Linear(in_features=512, out_features=128, dtype=float32)
            (layer_norm): NoNorm()
          )
          (attention): BottleneckLayer(
            (dense): Linear(in_features=512, out_features=128, dtype=float32)
            (layer_norm): NoNorm()
          )
        )
        (ffn): LayerList(
          (0): FFNLayer(
            (intermediate): MobileBertIntermediate(
              (dense): Linear(in_features=128, out_features=512, dtype=float32)
            )
            (output): FFNOutput(
              (dense): Linear(in_features=512, out_features=128, dtype=float32)
              (layer_norm): NoNorm()
            )
          )
          (1): FFNLayer(
            (intermediate): MobileBertIntermediate(
              (dense): Linear(in_features=128, out_features=512, dtype=float32)
            )
            (output): FFNOutput(
              (dense): Linear(in_features=512, out_features=128, dtype=float32)
              (layer_norm): NoNorm()
            )
          )
          (2): FFNLayer(
            (intermediate): MobileBertIntermediate(
              (dense): Linear(in_features=128, out_features=512, dtype=float32)
            )
            (output): FFNOutput(
              (dense): Linear(in_features=512, out_features=128, dtype=float32)
              (layer_norm): NoNorm()
            )
          )
        )
      )
      (7): MobileBertLayer(
        (attention): MobileBertAttention(
          (query): Linear(in_features=128, out_features=128, dtype=float32)
          (key): Linear(in_features=128, out_features=128, dtype=float32)
          (value): Linear(in_features=512, out_features=128, dtype=float32)
          (attention_dropout): Dropout(p=0.1, axis=None, mode=upscale_in_train)
          (dense): Linear(in_features=128, out_features=128, dtype=float32)
          (layer_norm): NoNorm()
        )
        (intermediate): MobileBertIntermediate(
          (dense): Linear(in_features=128, out_features=512, dtype=float32)
        )
        (output): MobileBertOutput(
          (dense): Linear(in_features=512, out_features=128, dtype=float32)
          (layer_norm): NoNorm()
          (bottleneck): OutputBottleneck(
            (dense): Linear(in_features=128, out_features=512, dtype=float32)
            (layer_norm): NoNorm()
            (dropout): Dropout(p=0.0, axis=None, mode=upscale_in_train)
          )
        )
        (bottleneck): Bottleneck(
          (input): BottleneckLayer(
            (dense): Linear(in_features=512, out_features=128, dtype=float32)
            (layer_norm): NoNorm()
          )
          (attention): BottleneckLayer(
            (dense): Linear(in_features=512, out_features=128, dtype=float32)
            (layer_norm): NoNorm()
          )
        )
        (ffn): LayerList(
          (0): FFNLayer(
            (intermediate): MobileBertIntermediate(
              (dense): Linear(in_features=128, out_features=512, dtype=float32)
            )
            (output): FFNOutput(
              (dense): Linear(in_features=512, out_features=128, dtype=float32)
              (layer_norm): NoNorm()
            )
          )
          (1): FFNLayer(
            (intermediate): MobileBertIntermediate(
              (dense): Linear(in_features=128, out_features=512, dtype=float32)
            )
            (output): FFNOutput(
              (dense): Linear(in_features=512, out_features=128, dtype=float32)
              (layer_norm): NoNorm()
            )
          )
          (2): FFNLayer(
            (intermediate): MobileBertIntermediate(
              (dense): Linear(in_features=128, out_features=512, dtype=float32)
            )
            (output): FFNOutput(
              (dense): Linear(in_features=512, out_features=128, dtype=float32)
              (layer_norm): NoNorm()
            )
          )
        )
      )
      (8): MobileBertLayer(
        (attention): MobileBertAttention(
          (query): Linear(in_features=128, out_features=128, dtype=float32)
          (key): Linear(in_features=128, out_features=128, dtype=float32)
          (value): Linear(in_features=512, out_features=128, dtype=float32)
          (attention_dropout): Dropout(p=0.1, axis=None, mode=upscale_in_train)
          (dense): Linear(in_features=128, out_features=128, dtype=float32)
          (layer_norm): NoNorm()
        )
        (intermediate): MobileBertIntermediate(
          (dense): Linear(in_features=128, out_features=512, dtype=float32)
        )
        (output): MobileBertOutput(
          (dense): Linear(in_features=512, out_features=128, dtype=float32)
          (layer_norm): NoNorm()
          (bottleneck): OutputBottleneck(
            (dense): Linear(in_features=128, out_features=512, dtype=float32)
            (layer_norm): NoNorm()
            (dropout): Dropout(p=0.0, axis=None, mode=upscale_in_train)
          )
        )
        (bottleneck): Bottleneck(
          (input): BottleneckLayer(
            (dense): Linear(in_features=512, out_features=128, dtype=float32)
            (layer_norm): NoNorm()
          )
          (attention): BottleneckLayer(
            (dense): Linear(in_features=512, out_features=128, dtype=float32)
            (layer_norm): NoNorm()
          )
        )
        (ffn): LayerList(
          (0): FFNLayer(
            (intermediate): MobileBertIntermediate(
              (dense): Linear(in_features=128, out_features=512, dtype=float32)
            )
            (output): FFNOutput(
              (dense): Linear(in_features=512, out_features=128, dtype=float32)
              (layer_norm): NoNorm()
            )
          )
          (1): FFNLayer(
            (intermediate): MobileBertIntermediate(
              (dense): Linear(in_features=128, out_features=512, dtype=float32)
            )
            (output): FFNOutput(
              (dense): Linear(in_features=512, out_features=128, dtype=float32)
              (layer_norm): NoNorm()
            )
          )
          (2): FFNLayer(
            (intermediate): MobileBertIntermediate(
              (dense): Linear(in_features=128, out_features=512, dtype=float32)
            )
            (output): FFNOutput(
              (dense): Linear(in_features=512, out_features=128, dtype=float32)
              (layer_norm): NoNorm()
            )
          )
        )
      )
      (9): MobileBertLayer(
        (attention): MobileBertAttention(
          (query): Linear(in_features=128, out_features=128, dtype=float32)
          (key): Linear(in_features=128, out_features=128, dtype=float32)
          (value): Linear(in_features=512, out_features=128, dtype=float32)
          (attention_dropout): Dropout(p=0.1, axis=None, mode=upscale_in_train)
          (dense): Linear(in_features=128, out_features=128, dtype=float32)
          (layer_norm): NoNorm()
        )
        (intermediate): MobileBertIntermediate(
          (dense): Linear(in_features=128, out_features=512, dtype=float32)
        )
        (output): MobileBertOutput(
          (dense): Linear(in_features=512, out_features=128, dtype=float32)
          (layer_norm): NoNorm()
          (bottleneck): OutputBottleneck(
            (dense): Linear(in_features=128, out_features=512, dtype=float32)
            (layer_norm): NoNorm()
            (dropout): Dropout(p=0.0, axis=None, mode=upscale_in_train)
          )
        )
        (bottleneck): Bottleneck(
          (input): BottleneckLayer(
            (dense): Linear(in_features=512, out_features=128, dtype=float32)
            (layer_norm): NoNorm()
          )
          (attention): BottleneckLayer(
            (dense): Linear(in_features=512, out_features=128, dtype=float32)
            (layer_norm): NoNorm()
          )
        )
        (ffn): LayerList(
          (0): FFNLayer(
            (intermediate): MobileBertIntermediate(
              (dense): Linear(in_features=128, out_features=512, dtype=float32)
            )
            (output): FFNOutput(
              (dense): Linear(in_features=512, out_features=128, dtype=float32)
              (layer_norm): NoNorm()
            )
          )
          (1): FFNLayer(
            (intermediate): MobileBertIntermediate(
              (dense): Linear(in_features=128, out_features=512, dtype=float32)
            )
            (output): FFNOutput(
              (dense): Linear(in_features=512, out_features=128, dtype=float32)
              (layer_norm): NoNorm()
            )
          )
          (2): FFNLayer(
            (intermediate): MobileBertIntermediate(
              (dense): Linear(in_features=128, out_features=512, dtype=float32)
            )
            (output): FFNOutput(
              (dense): Linear(in_features=512, out_features=128, dtype=float32)
              (layer_norm): NoNorm()
            )
          )
        )
      )
      (10): MobileBertLayer(
        (attention): MobileBertAttention(
          (query): Linear(in_features=128, out_features=128, dtype=float32)
          (key): Linear(in_features=128, out_features=128, dtype=float32)
          (value): Linear(in_features=512, out_features=128, dtype=float32)
          (attention_dropout): Dropout(p=0.1, axis=None, mode=upscale_in_train)
          (dense): Linear(in_features=128, out_features=128, dtype=float32)
          (layer_norm): NoNorm()
        )
        (intermediate): MobileBertIntermediate(
          (dense): Linear(in_features=128, out_features=512, dtype=float32)
        )
        (output): MobileBertOutput(
          (dense): Linear(in_features=512, out_features=128, dtype=float32)
          (layer_norm): NoNorm()
          (bottleneck): OutputBottleneck(
            (dense): Linear(in_features=128, out_features=512, dtype=float32)
            (layer_norm): NoNorm()
            (dropout): Dropout(p=0.0, axis=None, mode=upscale_in_train)
          )
        )
        (bottleneck): Bottleneck(
          (input): BottleneckLayer(
            (dense): Linear(in_features=512, out_features=128, dtype=float32)
            (layer_norm): NoNorm()
          )
          (attention): BottleneckLayer(
            (dense): Linear(in_features=512, out_features=128, dtype=float32)
            (layer_norm): NoNorm()
          )
        )
        (ffn): LayerList(
          (0): FFNLayer(
            (intermediate): MobileBertIntermediate(
              (dense): Linear(in_features=128, out_features=512, dtype=float32)
            )
            (output): FFNOutput(
              (dense): Linear(in_features=512, out_features=128, dtype=float32)
              (layer_norm): NoNorm()
            )
          )
          (1): FFNLayer(
            (intermediate): MobileBertIntermediate(
              (dense): Linear(in_features=128, out_features=512, dtype=float32)
            )
            (output): FFNOutput(
              (dense): Linear(in_features=512, out_features=128, dtype=float32)
              (layer_norm): NoNorm()
            )
          )
          (2): FFNLayer(
            (intermediate): MobileBertIntermediate(
              (dense): Linear(in_features=128, out_features=512, dtype=float32)
            )
            (output): FFNOutput(
              (dense): Linear(in_features=512, out_features=128, dtype=float32)
              (layer_norm): NoNorm()
            )
          )
        )
      )
      (11): MobileBertLayer(
        (attention): MobileBertAttention(
          (query): Linear(in_features=128, out_features=128, dtype=float32)
          (key): Linear(in_features=128, out_features=128, dtype=float32)
          (value): Linear(in_features=512, out_features=128, dtype=float32)
          (attention_dropout): Dropout(p=0.1, axis=None, mode=upscale_in_train)
          (dense): Linear(in_features=128, out_features=128, dtype=float32)
          (layer_norm): NoNorm()
        )
        (intermediate): MobileBertIntermediate(
          (dense): Linear(in_features=128, out_features=512, dtype=float32)
        )
        (output): MobileBertOutput(
          (dense): Linear(in_features=512, out_features=128, dtype=float32)
          (layer_norm): NoNorm()
          (bottleneck): OutputBottleneck(
            (dense): Linear(in_features=128, out_features=512, dtype=float32)
            (layer_norm): NoNorm()
            (dropout): Dropout(p=0.0, axis=None, mode=upscale_in_train)
          )
        )
        (bottleneck): Bottleneck(
          (input): BottleneckLayer(
            (dense): Linear(in_features=512, out_features=128, dtype=float32)
            (layer_norm): NoNorm()
          )
          (attention): BottleneckLayer(
            (dense): Linear(in_features=512, out_features=128, dtype=float32)
            (layer_norm): NoNorm()
          )
        )
        (ffn): LayerList(
          (0): FFNLayer(
            (intermediate): MobileBertIntermediate(
              (dense): Linear(in_features=128, out_features=512, dtype=float32)
            )
            (output): FFNOutput(
              (dense): Linear(in_features=512, out_features=128, dtype=float32)
              (layer_norm): NoNorm()
            )
          )
          (1): FFNLayer(
            (intermediate): MobileBertIntermediate(
              (dense): Linear(in_features=128, out_features=512, dtype=float32)
            )
            (output): FFNOutput(
              (dense): Linear(in_features=512, out_features=128, dtype=float32)
              (layer_norm): NoNorm()
            )
          )
          (2): FFNLayer(
            (intermediate): MobileBertIntermediate(
              (dense): Linear(in_features=128, out_features=512, dtype=float32)
            )
            (output): FFNOutput(
              (dense): Linear(in_features=512, out_features=128, dtype=float32)
              (layer_norm): NoNorm()
            )
          )
        )
      )
      (12): MobileBertLayer(
        (attention): MobileBertAttention(
          (query): Linear(in_features=128, out_features=128, dtype=float32)
          (key): Linear(in_features=128, out_features=128, dtype=float32)
          (value): Linear(in_features=512, out_features=128, dtype=float32)
          (attention_dropout): Dropout(p=0.1, axis=None, mode=upscale_in_train)
          (dense): Linear(in_features=128, out_features=128, dtype=float32)
          (layer_norm): NoNorm()
        )
        (intermediate): MobileBertIntermediate(
          (dense): Linear(in_features=128, out_features=512, dtype=float32)
        )
        (output): MobileBertOutput(
          (dense): Linear(in_features=512, out_features=128, dtype=float32)
          (layer_norm): NoNorm()
          (bottleneck): OutputBottleneck(
            (dense): Linear(in_features=128, out_features=512, dtype=float32)
            (layer_norm): NoNorm()
            (dropout): Dropout(p=0.0, axis=None, mode=upscale_in_train)
          )
        )
        (bottleneck): Bottleneck(
          (input): BottleneckLayer(
            (dense): Linear(in_features=512, out_features=128, dtype=float32)
            (layer_norm): NoNorm()
          )
          (attention): BottleneckLayer(
            (dense): Linear(in_features=512, out_features=128, dtype=float32)
            (layer_norm): NoNorm()
          )
        )
        (ffn): LayerList(
          (0): FFNLayer(
            (intermediate): MobileBertIntermediate(
              (dense): Linear(in_features=128, out_features=512, dtype=float32)
            )
            (output): FFNOutput(
              (dense): Linear(in_features=512, out_features=128, dtype=float32)
              (layer_norm): NoNorm()
            )
          )
          (1): FFNLayer(
            (intermediate): MobileBertIntermediate(
              (dense): Linear(in_features=128, out_features=512, dtype=float32)
            )
            (output): FFNOutput(
              (dense): Linear(in_features=512, out_features=128, dtype=float32)
              (layer_norm): NoNorm()
            )
          )
          (2): FFNLayer(
            (intermediate): MobileBertIntermediate(
              (dense): Linear(in_features=128, out_features=512, dtype=float32)
            )
            (output): FFNOutput(
              (dense): Linear(in_features=512, out_features=128, dtype=float32)
              (layer_norm): NoNorm()
            )
          )
        )
      )
      (13): MobileBertLayer(
        (attention): MobileBertAttention(
          (query): Linear(in_features=128, out_features=128, dtype=float32)
          (key): Linear(in_features=128, out_features=128, dtype=float32)
          (value): Linear(in_features=512, out_features=128, dtype=float32)
          (attention_dropout): Dropout(p=0.1, axis=None, mode=upscale_in_train)
          (dense): Linear(in_features=128, out_features=128, dtype=float32)
          (layer_norm): NoNorm()
        )
        (intermediate): MobileBertIntermediate(
          (dense): Linear(in_features=128, out_features=512, dtype=float32)
        )
        (output): MobileBertOutput(
          (dense): Linear(in_features=512, out_features=128, dtype=float32)
          (layer_norm): NoNorm()
          (bottleneck): OutputBottleneck(
            (dense): Linear(in_features=128, out_features=512, dtype=float32)
            (layer_norm): NoNorm()
            (dropout): Dropout(p=0.0, axis=None, mode=upscale_in_train)
          )
        )
        (bottleneck): Bottleneck(
          (input): BottleneckLayer(
            (dense): Linear(in_features=512, out_features=128, dtype=float32)
            (layer_norm): NoNorm()
          )
          (attention): BottleneckLayer(
            (dense): Linear(in_features=512, out_features=128, dtype=float32)
            (layer_norm): NoNorm()
          )
        )
        (ffn): LayerList(
          (0): FFNLayer(
            (intermediate): MobileBertIntermediate(
              (dense): Linear(in_features=128, out_features=512, dtype=float32)
            )
            (output): FFNOutput(
              (dense): Linear(in_features=512, out_features=128, dtype=float32)
              (layer_norm): NoNorm()
            )
          )
          (1): FFNLayer(
            (intermediate): MobileBertIntermediate(
              (dense): Linear(in_features=128, out_features=512, dtype=float32)
            )
            (output): FFNOutput(
              (dense): Linear(in_features=512, out_features=128, dtype=float32)
              (layer_norm): NoNorm()
            )
          )
          (2): FFNLayer(
            (intermediate): MobileBertIntermediate(
              (dense): Linear(in_features=128, out_features=512, dtype=float32)
            )
            (output): FFNOutput(
              (dense): Linear(in_features=512, out_features=128, dtype=float32)
              (layer_norm): NoNorm()
            )
          )
        )
      )
      (14): MobileBertLayer(
        (attention): MobileBertAttention(
          (query): Linear(in_features=128, out_features=128, dtype=float32)
          (key): Linear(in_features=128, out_features=128, dtype=float32)
          (value): Linear(in_features=512, out_features=128, dtype=float32)
          (attention_dropout): Dropout(p=0.1, axis=None, mode=upscale_in_train)
          (dense): Linear(in_features=128, out_features=128, dtype=float32)
          (layer_norm): NoNorm()
        )
        (intermediate): MobileBertIntermediate(
          (dense): Linear(in_features=128, out_features=512, dtype=float32)
        )
        (output): MobileBertOutput(
          (dense): Linear(in_features=512, out_features=128, dtype=float32)
          (layer_norm): NoNorm()
          (bottleneck): OutputBottleneck(
            (dense): Linear(in_features=128, out_features=512, dtype=float32)
            (layer_norm): NoNorm()
            (dropout): Dropout(p=0.0, axis=None, mode=upscale_in_train)
          )
        )
        (bottleneck): Bottleneck(
          (input): BottleneckLayer(
            (dense): Linear(in_features=512, out_features=128, dtype=float32)
            (layer_norm): NoNorm()
          )
          (attention): BottleneckLayer(
            (dense): Linear(in_features=512, out_features=128, dtype=float32)
            (layer_norm): NoNorm()
          )
        )
        (ffn): LayerList(
          (0): FFNLayer(
            (intermediate): MobileBertIntermediate(
              (dense): Linear(in_features=128, out_features=512, dtype=float32)
            )
            (output): FFNOutput(
              (dense): Linear(in_features=512, out_features=128, dtype=float32)
              (layer_norm): NoNorm()
            )
          )
          (1): FFNLayer(
            (intermediate): MobileBertIntermediate(
              (dense): Linear(in_features=128, out_features=512, dtype=float32)
            )
            (output): FFNOutput(
              (dense): Linear(in_features=512, out_features=128, dtype=float32)
              (layer_norm): NoNorm()
            )
          )
          (2): FFNLayer(
            (intermediate): MobileBertIntermediate(
              (dense): Linear(in_features=128, out_features=512, dtype=float32)
            )
            (output): FFNOutput(
              (dense): Linear(in_features=512, out_features=128, dtype=float32)
              (layer_norm): NoNorm()
            )
          )
        )
      )
      (15): MobileBertLayer(
        (attention): MobileBertAttention(
          (query): Linear(in_features=128, out_features=128, dtype=float32)
          (key): Linear(in_features=128, out_features=128, dtype=float32)
          (value): Linear(in_features=512, out_features=128, dtype=float32)
          (attention_dropout): Dropout(p=0.1, axis=None, mode=upscale_in_train)
          (dense): Linear(in_features=128, out_features=128, dtype=float32)
          (layer_norm): NoNorm()
        )
        (intermediate): MobileBertIntermediate(
          (dense): Linear(in_features=128, out_features=512, dtype=float32)
        )
        (output): MobileBertOutput(
          (dense): Linear(in_features=512, out_features=128, dtype=float32)
          (layer_norm): NoNorm()
          (bottleneck): OutputBottleneck(
            (dense): Linear(in_features=128, out_features=512, dtype=float32)
            (layer_norm): NoNorm()
            (dropout): Dropout(p=0.0, axis=None, mode=upscale_in_train)
          )
        )
        (bottleneck): Bottleneck(
          (input): BottleneckLayer(
            (dense): Linear(in_features=512, out_features=128, dtype=float32)
            (layer_norm): NoNorm()
          )
          (attention): BottleneckLayer(
            (dense): Linear(in_features=512, out_features=128, dtype=float32)
            (layer_norm): NoNorm()
          )
        )
        (ffn): LayerList(
          (0): FFNLayer(
            (intermediate): MobileBertIntermediate(
              (dense): Linear(in_features=128, out_features=512, dtype=float32)
            )
            (output): FFNOutput(
              (dense): Linear(in_features=512, out_features=128, dtype=float32)
              (layer_norm): NoNorm()
            )
          )
          (1): FFNLayer(
            (intermediate): MobileBertIntermediate(
              (dense): Linear(in_features=128, out_features=512, dtype=float32)
            )
            (output): FFNOutput(
              (dense): Linear(in_features=512, out_features=128, dtype=float32)
              (layer_norm): NoNorm()
            )
          )
          (2): FFNLayer(
            (intermediate): MobileBertIntermediate(
              (dense): Linear(in_features=128, out_features=512, dtype=float32)
            )
            (output): FFNOutput(
              (dense): Linear(in_features=512, out_features=128, dtype=float32)
              (layer_norm): NoNorm()
            )
          )
        )
      )
      (16): MobileBertLayer(
        (attention): MobileBertAttention(
          (query): Linear(in_features=128, out_features=128, dtype=float32)
          (key): Linear(in_features=128, out_features=128, dtype=float32)
          (value): Linear(in_features=512, out_features=128, dtype=float32)
          (attention_dropout): Dropout(p=0.1, axis=None, mode=upscale_in_train)
          (dense): Linear(in_features=128, out_features=128, dtype=float32)
          (layer_norm): NoNorm()
        )
        (intermediate): MobileBertIntermediate(
          (dense): Linear(in_features=128, out_features=512, dtype=float32)
        )
        (output): MobileBertOutput(
          (dense): Linear(in_features=512, out_features=128, dtype=float32)
          (layer_norm): NoNorm()
          (bottleneck): OutputBottleneck(
            (dense): Linear(in_features=128, out_features=512, dtype=float32)
            (layer_norm): NoNorm()
            (dropout): Dropout(p=0.0, axis=None, mode=upscale_in_train)
          )
        )
        (bottleneck): Bottleneck(
          (input): BottleneckLayer(
            (dense): Linear(in_features=512, out_features=128, dtype=float32)
            (layer_norm): NoNorm()
          )
          (attention): BottleneckLayer(
            (dense): Linear(in_features=512, out_features=128, dtype=float32)
            (layer_norm): NoNorm()
          )
        )
        (ffn): LayerList(
          (0): FFNLayer(
            (intermediate): MobileBertIntermediate(
              (dense): Linear(in_features=128, out_features=512, dtype=float32)
            )
            (output): FFNOutput(
              (dense): Linear(in_features=512, out_features=128, dtype=float32)
              (layer_norm): NoNorm()
            )
          )
          (1): FFNLayer(
            (intermediate): MobileBertIntermediate(
              (dense): Linear(in_features=128, out_features=512, dtype=float32)
            )
            (output): FFNOutput(
              (dense): Linear(in_features=512, out_features=128, dtype=float32)
              (layer_norm): NoNorm()
            )
          )
          (2): FFNLayer(
            (intermediate): MobileBertIntermediate(
              (dense): Linear(in_features=128, out_features=512, dtype=float32)
            )
            (output): FFNOutput(
              (dense): Linear(in_features=512, out_features=128, dtype=float32)
              (layer_norm): NoNorm()
            )
          )
        )
      )
      (17): MobileBertLayer(
        (attention): MobileBertAttention(
          (query): Linear(in_features=128, out_features=128, dtype=float32)
          (key): Linear(in_features=128, out_features=128, dtype=float32)
          (value): Linear(in_features=512, out_features=128, dtype=float32)
          (attention_dropout): Dropout(p=0.1, axis=None, mode=upscale_in_train)
          (dense): Linear(in_features=128, out_features=128, dtype=float32)
          (layer_norm): NoNorm()
        )
        (intermediate): MobileBertIntermediate(
          (dense): Linear(in_features=128, out_features=512, dtype=float32)
        )
        (output): MobileBertOutput(
          (dense): Linear(in_features=512, out_features=128, dtype=float32)
          (layer_norm): NoNorm()
          (bottleneck): OutputBottleneck(
            (dense): Linear(in_features=128, out_features=512, dtype=float32)
            (layer_norm): NoNorm()
            (dropout): Dropout(p=0.0, axis=None, mode=upscale_in_train)
          )
        )
        (bottleneck): Bottleneck(
          (input): BottleneckLayer(
            (dense): Linear(in_features=512, out_features=128, dtype=float32)
            (layer_norm): NoNorm()
          )
          (attention): BottleneckLayer(
            (dense): Linear(in_features=512, out_features=128, dtype=float32)
            (layer_norm): NoNorm()
          )
        )
        (ffn): LayerList(
          (0): FFNLayer(
            (intermediate): MobileBertIntermediate(
              (dense): Linear(in_features=128, out_features=512, dtype=float32)
            )
            (output): FFNOutput(
              (dense): Linear(in_features=512, out_features=128, dtype=float32)
              (layer_norm): NoNorm()
            )
          )
          (1): FFNLayer(
            (intermediate): MobileBertIntermediate(
              (dense): Linear(in_features=128, out_features=512, dtype=float32)
            )
            (output): FFNOutput(
              (dense): Linear(in_features=512, out_features=128, dtype=float32)
              (layer_norm): NoNorm()
            )
          )
          (2): FFNLayer(
            (intermediate): MobileBertIntermediate(
              (dense): Linear(in_features=128, out_features=512, dtype=float32)
            )
            (output): FFNOutput(
              (dense): Linear(in_features=512, out_features=128, dtype=float32)
              (layer_norm): NoNorm()
            )
          )
        )
      )
      (18): MobileBertLayer(
        (attention): MobileBertAttention(
          (query): Linear(in_features=128, out_features=128, dtype=float32)
          (key): Linear(in_features=128, out_features=128, dtype=float32)
          (value): Linear(in_features=512, out_features=128, dtype=float32)
          (attention_dropout): Dropout(p=0.1, axis=None, mode=upscale_in_train)
          (dense): Linear(in_features=128, out_features=128, dtype=float32)
          (layer_norm): NoNorm()
        )
        (intermediate): MobileBertIntermediate(
          (dense): Linear(in_features=128, out_features=512, dtype=float32)
        )
        (output): MobileBertOutput(
          (dense): Linear(in_features=512, out_features=128, dtype=float32)
          (layer_norm): NoNorm()
          (bottleneck): OutputBottleneck(
            (dense): Linear(in_features=128, out_features=512, dtype=float32)
            (layer_norm): NoNorm()
            (dropout): Dropout(p=0.0, axis=None, mode=upscale_in_train)
          )
        )
        (bottleneck): Bottleneck(
          (input): BottleneckLayer(
            (dense): Linear(in_features=512, out_features=128, dtype=float32)
            (layer_norm): NoNorm()
          )
          (attention): BottleneckLayer(
            (dense): Linear(in_features=512, out_features=128, dtype=float32)
            (layer_norm): NoNorm()
          )
        )
        (ffn): LayerList(
          (0): FFNLayer(
            (intermediate): MobileBertIntermediate(
              (dense): Linear(in_features=128, out_features=512, dtype=float32)
            )
            (output): FFNOutput(
              (dense): Linear(in_features=512, out_features=128, dtype=float32)
              (layer_norm): NoNorm()
            )
          )
          (1): FFNLayer(
            (intermediate): MobileBertIntermediate(
              (dense): Linear(in_features=128, out_features=512, dtype=float32)
            )
            (output): FFNOutput(
              (dense): Linear(in_features=512, out_features=128, dtype=float32)
              (layer_norm): NoNorm()
            )
          )
          (2): FFNLayer(
            (intermediate): MobileBertIntermediate(
              (dense): Linear(in_features=128, out_features=512, dtype=float32)
            )
            (output): FFNOutput(
              (dense): Linear(in_features=512, out_features=128, dtype=float32)
              (layer_norm): NoNorm()
            )
          )
        )
      )
      (19): MobileBertLayer(
        (attention): MobileBertAttention(
          (query): Linear(in_features=128, out_features=128, dtype=float32)
          (key): Linear(in_features=128, out_features=128, dtype=float32)
          (value): Linear(in_features=512, out_features=128, dtype=float32)
          (attention_dropout): Dropout(p=0.1, axis=None, mode=upscale_in_train)
          (dense): Linear(in_features=128, out_features=128, dtype=float32)
          (layer_norm): NoNorm()
        )
        (intermediate): MobileBertIntermediate(
          (dense): Linear(in_features=128, out_features=512, dtype=float32)
        )
        (output): MobileBertOutput(
          (dense): Linear(in_features=512, out_features=128, dtype=float32)
          (layer_norm): NoNorm()
          (bottleneck): OutputBottleneck(
            (dense): Linear(in_features=128, out_features=512, dtype=float32)
            (layer_norm): NoNorm()
            (dropout): Dropout(p=0.0, axis=None, mode=upscale_in_train)
          )
        )
        (bottleneck): Bottleneck(
          (input): BottleneckLayer(
            (dense): Linear(in_features=512, out_features=128, dtype=float32)
            (layer_norm): NoNorm()
          )
          (attention): BottleneckLayer(
            (dense): Linear(in_features=512, out_features=128, dtype=float32)
            (layer_norm): NoNorm()
          )
        )
        (ffn): LayerList(
          (0): FFNLayer(
            (intermediate): MobileBertIntermediate(
              (dense): Linear(in_features=128, out_features=512, dtype=float32)
            )
            (output): FFNOutput(
              (dense): Linear(in_features=512, out_features=128, dtype=float32)
              (layer_norm): NoNorm()
            )
          )
          (1): FFNLayer(
            (intermediate): MobileBertIntermediate(
              (dense): Linear(in_features=128, out_features=512, dtype=float32)
            )
            (output): FFNOutput(
              (dense): Linear(in_features=512, out_features=128, dtype=float32)
              (layer_norm): NoNorm()
            )
          )
          (2): FFNLayer(
            (intermediate): MobileBertIntermediate(
              (dense): Linear(in_features=128, out_features=512, dtype=float32)
            )
            (output): FFNOutput(
              (dense): Linear(in_features=512, out_features=128, dtype=float32)
              (layer_norm): NoNorm()
            )
          )
        )
      )
      (20): MobileBertLayer(
        (attention): MobileBertAttention(
          (query): Linear(in_features=128, out_features=128, dtype=float32)
          (key): Linear(in_features=128, out_features=128, dtype=float32)
          (value): Linear(in_features=512, out_features=128, dtype=float32)
          (attention_dropout): Dropout(p=0.1, axis=None, mode=upscale_in_train)
          (dense): Linear(in_features=128, out_features=128, dtype=float32)
          (layer_norm): NoNorm()
        )
        (intermediate): MobileBertIntermediate(
          (dense): Linear(in_features=128, out_features=512, dtype=float32)
        )
        (output): MobileBertOutput(
          (dense): Linear(in_features=512, out_features=128, dtype=float32)
          (layer_norm): NoNorm()
          (bottleneck): OutputBottleneck(
            (dense): Linear(in_features=128, out_features=512, dtype=float32)
            (layer_norm): NoNorm()
            (dropout): Dropout(p=0.0, axis=None, mode=upscale_in_train)
          )
        )
        (bottleneck): Bottleneck(
          (input): BottleneckLayer(
            (dense): Linear(in_features=512, out_features=128, dtype=float32)
            (layer_norm): NoNorm()
          )
          (attention): BottleneckLayer(
            (dense): Linear(in_features=512, out_features=128, dtype=float32)
            (layer_norm): NoNorm()
          )
        )
        (ffn): LayerList(
          (0): FFNLayer(
            (intermediate): MobileBertIntermediate(
              (dense): Linear(in_features=128, out_features=512, dtype=float32)
            )
            (output): FFNOutput(
              (dense): Linear(in_features=512, out_features=128, dtype=float32)
              (layer_norm): NoNorm()
            )
          )
          (1): FFNLayer(
            (intermediate): MobileBertIntermediate(
              (dense): Linear(in_features=128, out_features=512, dtype=float32)
            )
            (output): FFNOutput(
              (dense): Linear(in_features=512, out_features=128, dtype=float32)
              (layer_norm): NoNorm()
            )
          )
          (2): FFNLayer(
            (intermediate): MobileBertIntermediate(
              (dense): Linear(in_features=128, out_features=512, dtype=float32)
            )
            (output): FFNOutput(
              (dense): Linear(in_features=512, out_features=128, dtype=float32)
              (layer_norm): NoNorm()
            )
          )
        )
      )
      (21): MobileBertLayer(
        (attention): MobileBertAttention(
          (query): Linear(in_features=128, out_features=128, dtype=float32)
          (key): Linear(in_features=128, out_features=128, dtype=float32)
          (value): Linear(in_features=512, out_features=128, dtype=float32)
          (attention_dropout): Dropout(p=0.1, axis=None, mode=upscale_in_train)
          (dense): Linear(in_features=128, out_features=128, dtype=float32)
          (layer_norm): NoNorm()
        )
        (intermediate): MobileBertIntermediate(
          (dense): Linear(in_features=128, out_features=512, dtype=float32)
        )
        (output): MobileBertOutput(
          (dense): Linear(in_features=512, out_features=128, dtype=float32)
          (layer_norm): NoNorm()
          (bottleneck): OutputBottleneck(
            (dense): Linear(in_features=128, out_features=512, dtype=float32)
            (layer_norm): NoNorm()
            (dropout): Dropout(p=0.0, axis=None, mode=upscale_in_train)
          )
        )
        (bottleneck): Bottleneck(
          (input): BottleneckLayer(
            (dense): Linear(in_features=512, out_features=128, dtype=float32)
            (layer_norm): NoNorm()
          )
          (attention): BottleneckLayer(
            (dense): Linear(in_features=512, out_features=128, dtype=float32)
            (layer_norm): NoNorm()
          )
        )
        (ffn): LayerList(
          (0): FFNLayer(
            (intermediate): MobileBertIntermediate(
              (dense): Linear(in_features=128, out_features=512, dtype=float32)
            )
            (output): FFNOutput(
              (dense): Linear(in_features=512, out_features=128, dtype=float32)
              (layer_norm): NoNorm()
            )
          )
          (1): FFNLayer(
            (intermediate): MobileBertIntermediate(
              (dense): Linear(in_features=128, out_features=512, dtype=float32)
            )
            (output): FFNOutput(
              (dense): Linear(in_features=512, out_features=128, dtype=float32)
              (layer_norm): NoNorm()
            )
          )
          (2): FFNLayer(
            (intermediate): MobileBertIntermediate(
              (dense): Linear(in_features=128, out_features=512, dtype=float32)
            )
            (output): FFNOutput(
              (dense): Linear(in_features=512, out_features=128, dtype=float32)
              (layer_norm): NoNorm()
            )
          )
        )
      )
      (22): MobileBertLayer(
        (attention): MobileBertAttention(
          (query): Linear(in_features=128, out_features=128, dtype=float32)
          (key): Linear(in_features=128, out_features=128, dtype=float32)
          (value): Linear(in_features=512, out_features=128, dtype=float32)
          (attention_dropout): Dropout(p=0.1, axis=None, mode=upscale_in_train)
          (dense): Linear(in_features=128, out_features=128, dtype=float32)
          (layer_norm): NoNorm()
        )
        (intermediate): MobileBertIntermediate(
          (dense): Linear(in_features=128, out_features=512, dtype=float32)
        )
        (output): MobileBertOutput(
          (dense): Linear(in_features=512, out_features=128, dtype=float32)
          (layer_norm): NoNorm()
          (bottleneck): OutputBottleneck(
            (dense): Linear(in_features=128, out_features=512, dtype=float32)
            (layer_norm): NoNorm()
            (dropout): Dropout(p=0.0, axis=None, mode=upscale_in_train)
          )
        )
        (bottleneck): Bottleneck(
          (input): BottleneckLayer(
            (dense): Linear(in_features=512, out_features=128, dtype=float32)
            (layer_norm): NoNorm()
          )
          (attention): BottleneckLayer(
            (dense): Linear(in_features=512, out_features=128, dtype=float32)
            (layer_norm): NoNorm()
          )
        )
        (ffn): LayerList(
          (0): FFNLayer(
            (intermediate): MobileBertIntermediate(
              (dense): Linear(in_features=128, out_features=512, dtype=float32)
            )
            (output): FFNOutput(
              (dense): Linear(in_features=512, out_features=128, dtype=float32)
              (layer_norm): NoNorm()
            )
          )
          (1): FFNLayer(
            (intermediate): MobileBertIntermediate(
              (dense): Linear(in_features=128, out_features=512, dtype=float32)
            )
            (output): FFNOutput(
              (dense): Linear(in_features=512, out_features=128, dtype=float32)
              (layer_norm): NoNorm()
            )
          )
          (2): FFNLayer(
            (intermediate): MobileBertIntermediate(
              (dense): Linear(in_features=128, out_features=512, dtype=float32)
            )
            (output): FFNOutput(
              (dense): Linear(in_features=512, out_features=128, dtype=float32)
              (layer_norm): NoNorm()
            )
          )
        )
      )
      (23): MobileBertLayer(
        (attention): MobileBertAttention(
          (query): Linear(in_features=128, out_features=128, dtype=float32)
          (key): Linear(in_features=128, out_features=128, dtype=float32)
          (value): Linear(in_features=512, out_features=128, dtype=float32)
          (attention_dropout): Dropout(p=0.1, axis=None, mode=upscale_in_train)
          (dense): Linear(in_features=128, out_features=128, dtype=float32)
          (layer_norm): NoNorm()
        )
        (intermediate): MobileBertIntermediate(
          (dense): Linear(in_features=128, out_features=512, dtype=float32)
        )
        (output): MobileBertOutput(
          (dense): Linear(in_features=512, out_features=128, dtype=float32)
          (layer_norm): NoNorm()
          (bottleneck): OutputBottleneck(
            (dense): Linear(in_features=128, out_features=512, dtype=float32)
            (layer_norm): NoNorm()
            (dropout): Dropout(p=0.0, axis=None, mode=upscale_in_train)
          )
        )
        (bottleneck): Bottleneck(
          (input): BottleneckLayer(
            (dense): Linear(in_features=512, out_features=128, dtype=float32)
            (layer_norm): NoNorm()
          )
          (attention): BottleneckLayer(
            (dense): Linear(in_features=512, out_features=128, dtype=float32)
            (layer_norm): NoNorm()
          )
        )
        (ffn): LayerList(
          (0): FFNLayer(
            (intermediate): MobileBertIntermediate(
              (dense): Linear(in_features=128, out_features=512, dtype=float32)
            )
            (output): FFNOutput(
              (dense): Linear(in_features=512, out_features=128, dtype=float32)
              (layer_norm): NoNorm()
            )
          )
          (1): FFNLayer(
            (intermediate): MobileBertIntermediate(
              (dense): Linear(in_features=128, out_features=512, dtype=float32)
            )
            (output): FFNOutput(
              (dense): Linear(in_features=512, out_features=128, dtype=float32)
              (layer_norm): NoNorm()
            )
          )
          (2): FFNLayer(
            (intermediate): MobileBertIntermediate(
              (dense): Linear(in_features=128, out_features=512, dtype=float32)
            )
            (output): FFNOutput(
              (dense): Linear(in_features=512, out_features=128, dtype=float32)
              (layer_norm): NoNorm()
            )
          )
        )
      )
    )
  )
  (pooler): MobileBertPooler()
)
