name: mp_net_model_0	labels (NA): NA	MPNetModel(
  (embeddings): MPNetEmbeddings(
    (word_embeddings): Embedding(30527, 768, padding_idx=1, sparse=False)
    (position_embeddings): Embedding(514, 768, padding_idx=1, sparse=False)
    (layer_norm): LayerNorm(normalized_shape=[768], epsilon=1e-05)
    (dropout): Dropout(p=0.1, axis=None, mode=upscale_in_train)
  )
  (encoder): MPNetEncoder(
    (layer): LayerList(
      (0): MPNetLayer(
        (attention): MPNetAttention(
          (q): Linear(in_features=768, out_features=768, dtype=float32)
          (k): Linear(in_features=768, out_features=768, dtype=float32)
          (v): Linear(in_features=768, out_features=768, dtype=float32)
          (o): Linear(in_features=768, out_features=768, dtype=float32)
          (attention_dropout): Dropout(p=0.1, axis=None, mode=upscale_in_train)
          (layer_norm): LayerNorm(normalized_shape=[768], epsilon=1e-05)
          (output_dropout): Dropout(p=0.1, axis=None, mode=upscale_in_train)
        )
        (ffn): Linear(in_features=768, out_features=3072, dtype=float32)
        (ffn_output): Linear(in_features=3072, out_features=768, dtype=float32)
        (layer_norm): LayerNorm(normalized_shape=[768], epsilon=1e-05)
        (dropout): Dropout(p=0.1, axis=None, mode=upscale_in_train)
      )
      (1): MPNetLayer(
        (attention): MPNetAttention(
          (q): Linear(in_features=768, out_features=768, dtype=float32)
          (k): Linear(in_features=768, out_features=768, dtype=float32)
          (v): Linear(in_features=768, out_features=768, dtype=float32)
          (o): Linear(in_features=768, out_features=768, dtype=float32)
          (attention_dropout): Dropout(p=0.1, axis=None, mode=upscale_in_train)
          (layer_norm): LayerNorm(normalized_shape=[768], epsilon=1e-05)
          (output_dropout): Dropout(p=0.1, axis=None, mode=upscale_in_train)
        )
        (ffn): Linear(in_features=768, out_features=3072, dtype=float32)
        (ffn_output): Linear(in_features=3072, out_features=768, dtype=float32)
        (layer_norm): LayerNorm(normalized_shape=[768], epsilon=1e-05)
        (dropout): Dropout(p=0.1, axis=None, mode=upscale_in_train)
      )
      (2): MPNetLayer(
        (attention): MPNetAttention(
          (q): Linear(in_features=768, out_features=768, dtype=float32)
          (k): Linear(in_features=768, out_features=768, dtype=float32)
          (v): Linear(in_features=768, out_features=768, dtype=float32)
          (o): Linear(in_features=768, out_features=768, dtype=float32)
          (attention_dropout): Dropout(p=0.1, axis=None, mode=upscale_in_train)
          (layer_norm): LayerNorm(normalized_shape=[768], epsilon=1e-05)
          (output_dropout): Dropout(p=0.1, axis=None, mode=upscale_in_train)
        )
        (ffn): Linear(in_features=768, out_features=3072, dtype=float32)
        (ffn_output): Linear(in_features=3072, out_features=768, dtype=float32)
        (layer_norm): LayerNorm(normalized_shape=[768], epsilon=1e-05)
        (dropout): Dropout(p=0.1, axis=None, mode=upscale_in_train)
      )
      (3): MPNetLayer(
        (attention): MPNetAttention(
          (q): Linear(in_features=768, out_features=768, dtype=float32)
          (k): Linear(in_features=768, out_features=768, dtype=float32)
          (v): Linear(in_features=768, out_features=768, dtype=float32)
          (o): Linear(in_features=768, out_features=768, dtype=float32)
          (attention_dropout): Dropout(p=0.1, axis=None, mode=upscale_in_train)
          (layer_norm): LayerNorm(normalized_shape=[768], epsilon=1e-05)
          (output_dropout): Dropout(p=0.1, axis=None, mode=upscale_in_train)
        )
        (ffn): Linear(in_features=768, out_features=3072, dtype=float32)
        (ffn_output): Linear(in_features=3072, out_features=768, dtype=float32)
        (layer_norm): LayerNorm(normalized_shape=[768], epsilon=1e-05)
        (dropout): Dropout(p=0.1, axis=None, mode=upscale_in_train)
      )
      (4): MPNetLayer(
        (attention): MPNetAttention(
          (q): Linear(in_features=768, out_features=768, dtype=float32)
          (k): Linear(in_features=768, out_features=768, dtype=float32)
          (v): Linear(in_features=768, out_features=768, dtype=float32)
          (o): Linear(in_features=768, out_features=768, dtype=float32)
          (attention_dropout): Dropout(p=0.1, axis=None, mode=upscale_in_train)
          (layer_norm): LayerNorm(normalized_shape=[768], epsilon=1e-05)
          (output_dropout): Dropout(p=0.1, axis=None, mode=upscale_in_train)
        )
        (ffn): Linear(in_features=768, out_features=3072, dtype=float32)
        (ffn_output): Linear(in_features=3072, out_features=768, dtype=float32)
        (layer_norm): LayerNorm(normalized_shape=[768], epsilon=1e-05)
        (dropout): Dropout(p=0.1, axis=None, mode=upscale_in_train)
      )
      (5): MPNetLayer(
        (attention): MPNetAttention(
          (q): Linear(in_features=768, out_features=768, dtype=float32)
          (k): Linear(in_features=768, out_features=768, dtype=float32)
          (v): Linear(in_features=768, out_features=768, dtype=float32)
          (o): Linear(in_features=768, out_features=768, dtype=float32)
          (attention_dropout): Dropout(p=0.1, axis=None, mode=upscale_in_train)
          (layer_norm): LayerNorm(normalized_shape=[768], epsilon=1e-05)
          (output_dropout): Dropout(p=0.1, axis=None, mode=upscale_in_train)
        )
        (ffn): Linear(in_features=768, out_features=3072, dtype=float32)
        (ffn_output): Linear(in_features=3072, out_features=768, dtype=float32)
        (layer_norm): LayerNorm(normalized_shape=[768], epsilon=1e-05)
        (dropout): Dropout(p=0.1, axis=None, mode=upscale_in_train)
      )
      (6): MPNetLayer(
        (attention): MPNetAttention(
          (q): Linear(in_features=768, out_features=768, dtype=float32)
          (k): Linear(in_features=768, out_features=768, dtype=float32)
          (v): Linear(in_features=768, out_features=768, dtype=float32)
          (o): Linear(in_features=768, out_features=768, dtype=float32)
          (attention_dropout): Dropout(p=0.1, axis=None, mode=upscale_in_train)
          (layer_norm): LayerNorm(normalized_shape=[768], epsilon=1e-05)
          (output_dropout): Dropout(p=0.1, axis=None, mode=upscale_in_train)
        )
        (ffn): Linear(in_features=768, out_features=3072, dtype=float32)
        (ffn_output): Linear(in_features=3072, out_features=768, dtype=float32)
        (layer_norm): LayerNorm(normalized_shape=[768], epsilon=1e-05)
        (dropout): Dropout(p=0.1, axis=None, mode=upscale_in_train)
      )
      (7): MPNetLayer(
        (attention): MPNetAttention(
          (q): Linear(in_features=768, out_features=768, dtype=float32)
          (k): Linear(in_features=768, out_features=768, dtype=float32)
          (v): Linear(in_features=768, out_features=768, dtype=float32)
          (o): Linear(in_features=768, out_features=768, dtype=float32)
          (attention_dropout): Dropout(p=0.1, axis=None, mode=upscale_in_train)
          (layer_norm): LayerNorm(normalized_shape=[768], epsilon=1e-05)
          (output_dropout): Dropout(p=0.1, axis=None, mode=upscale_in_train)
        )
        (ffn): Linear(in_features=768, out_features=3072, dtype=float32)
        (ffn_output): Linear(in_features=3072, out_features=768, dtype=float32)
        (layer_norm): LayerNorm(normalized_shape=[768], epsilon=1e-05)
        (dropout): Dropout(p=0.1, axis=None, mode=upscale_in_train)
      )
      (8): MPNetLayer(
        (attention): MPNetAttention(
          (q): Linear(in_features=768, out_features=768, dtype=float32)
          (k): Linear(in_features=768, out_features=768, dtype=float32)
          (v): Linear(in_features=768, out_features=768, dtype=float32)
          (o): Linear(in_features=768, out_features=768, dtype=float32)
          (attention_dropout): Dropout(p=0.1, axis=None, mode=upscale_in_train)
          (layer_norm): LayerNorm(normalized_shape=[768], epsilon=1e-05)
          (output_dropout): Dropout(p=0.1, axis=None, mode=upscale_in_train)
        )
        (ffn): Linear(in_features=768, out_features=3072, dtype=float32)
        (ffn_output): Linear(in_features=3072, out_features=768, dtype=float32)
        (layer_norm): LayerNorm(normalized_shape=[768], epsilon=1e-05)
        (dropout): Dropout(p=0.1, axis=None, mode=upscale_in_train)
      )
      (9): MPNetLayer(
        (attention): MPNetAttention(
          (q): Linear(in_features=768, out_features=768, dtype=float32)
          (k): Linear(in_features=768, out_features=768, dtype=float32)
          (v): Linear(in_features=768, out_features=768, dtype=float32)
          (o): Linear(in_features=768, out_features=768, dtype=float32)
          (attention_dropout): Dropout(p=0.1, axis=None, mode=upscale_in_train)
          (layer_norm): LayerNorm(normalized_shape=[768], epsilon=1e-05)
          (output_dropout): Dropout(p=0.1, axis=None, mode=upscale_in_train)
        )
        (ffn): Linear(in_features=768, out_features=3072, dtype=float32)
        (ffn_output): Linear(in_features=3072, out_features=768, dtype=float32)
        (layer_norm): LayerNorm(normalized_shape=[768], epsilon=1e-05)
        (dropout): Dropout(p=0.1, axis=None, mode=upscale_in_train)
      )
      (10): MPNetLayer(
        (attention): MPNetAttention(
          (q): Linear(in_features=768, out_features=768, dtype=float32)
          (k): Linear(in_features=768, out_features=768, dtype=float32)
          (v): Linear(in_features=768, out_features=768, dtype=float32)
          (o): Linear(in_features=768, out_features=768, dtype=float32)
          (attention_dropout): Dropout(p=0.1, axis=None, mode=upscale_in_train)
          (layer_norm): LayerNorm(normalized_shape=[768], epsilon=1e-05)
          (output_dropout): Dropout(p=0.1, axis=None, mode=upscale_in_train)
        )
        (ffn): Linear(in_features=768, out_features=3072, dtype=float32)
        (ffn_output): Linear(in_features=3072, out_features=768, dtype=float32)
        (layer_norm): LayerNorm(normalized_shape=[768], epsilon=1e-05)
        (dropout): Dropout(p=0.1, axis=None, mode=upscale_in_train)
      )
      (11): MPNetLayer(
        (attention): MPNetAttention(
          (q): Linear(in_features=768, out_features=768, dtype=float32)
          (k): Linear(in_features=768, out_features=768, dtype=float32)
          (v): Linear(in_features=768, out_features=768, dtype=float32)
          (o): Linear(in_features=768, out_features=768, dtype=float32)
          (attention_dropout): Dropout(p=0.1, axis=None, mode=upscale_in_train)
          (layer_norm): LayerNorm(normalized_shape=[768], epsilon=1e-05)
          (output_dropout): Dropout(p=0.1, axis=None, mode=upscale_in_train)
        )
        (ffn): Linear(in_features=768, out_features=3072, dtype=float32)
        (ffn_output): Linear(in_features=3072, out_features=768, dtype=float32)
        (layer_norm): LayerNorm(normalized_shape=[768], epsilon=1e-05)
        (dropout): Dropout(p=0.1, axis=None, mode=upscale_in_train)
      )
    )
    (relative_attention_bias): Embedding(32, 12, sparse=False)
  )
  (pooler): MPNetPooler(
    (dense): Linear(in_features=768, out_features=768, dtype=float32)
    (activation): Tanh()
  )
)
