name: ne_zha_model_0	labels (NA): NA	NeZhaModel(
  (embeddings): NeZhaEmbeddings(
    (word_embeddings): Embedding(21128, 1024, sparse=False)
    (token_type_embeddings): Embedding(2, 1024, sparse=False)
    (layer_norm): LayerNorm(normalized_shape=[1024], epsilon=1e-12)
    (dropout): Dropout(p=0.1, axis=None, mode=upscale_in_train)
  )
  (encoder): NeZhaEncoder(
    (layer): LayerList(
      (0): NeZhaLayer(
        (layer_norm): LayerNorm(normalized_shape=[1024], epsilon=1e-12)
        (attention): NeZhaAttention(
          (query): Linear(in_features=1024, out_features=1024, dtype=float32)
          (key): Linear(in_features=1024, out_features=1024, dtype=float32)
          (value): Linear(in_features=1024, out_features=1024, dtype=float32)
          (attention_dropout): Dropout(p=0.1, axis=None, mode=upscale_in_train)
          (dense): Linear(in_features=1024, out_features=1024, dtype=float32)
          (layer_norm): LayerNorm(normalized_shape=[1024], epsilon=1e-12)
          (output_dropout): Dropout(p=0.1, axis=None, mode=upscale_in_train)
        )
        (ffn): Linear(in_features=1024, out_features=4096, dtype=float32)
        (ffn_output): Linear(in_features=4096, out_features=1024, dtype=float32)
        (dropout): Dropout(p=0.1, axis=None, mode=upscale_in_train)
      )
      (1): NeZhaLayer(
        (layer_norm): LayerNorm(normalized_shape=[1024], epsilon=1e-12)
        (attention): NeZhaAttention(
          (query): Linear(in_features=1024, out_features=1024, dtype=float32)
          (key): Linear(in_features=1024, out_features=1024, dtype=float32)
          (value): Linear(in_features=1024, out_features=1024, dtype=float32)
          (attention_dropout): Dropout(p=0.1, axis=None, mode=upscale_in_train)
          (dense): Linear(in_features=1024, out_features=1024, dtype=float32)
          (layer_norm): LayerNorm(normalized_shape=[1024], epsilon=1e-12)
          (output_dropout): Dropout(p=0.1, axis=None, mode=upscale_in_train)
        )
        (ffn): Linear(in_features=1024, out_features=4096, dtype=float32)
        (ffn_output): Linear(in_features=4096, out_features=1024, dtype=float32)
        (dropout): Dropout(p=0.1, axis=None, mode=upscale_in_train)
      )
      (2): NeZhaLayer(
        (layer_norm): LayerNorm(normalized_shape=[1024], epsilon=1e-12)
        (attention): NeZhaAttention(
          (query): Linear(in_features=1024, out_features=1024, dtype=float32)
          (key): Linear(in_features=1024, out_features=1024, dtype=float32)
          (value): Linear(in_features=1024, out_features=1024, dtype=float32)
          (attention_dropout): Dropout(p=0.1, axis=None, mode=upscale_in_train)
          (dense): Linear(in_features=1024, out_features=1024, dtype=float32)
          (layer_norm): LayerNorm(normalized_shape=[1024], epsilon=1e-12)
          (output_dropout): Dropout(p=0.1, axis=None, mode=upscale_in_train)
        )
        (ffn): Linear(in_features=1024, out_features=4096, dtype=float32)
        (ffn_output): Linear(in_features=4096, out_features=1024, dtype=float32)
        (dropout): Dropout(p=0.1, axis=None, mode=upscale_in_train)
      )
      (3): NeZhaLayer(
        (layer_norm): LayerNorm(normalized_shape=[1024], epsilon=1e-12)
        (attention): NeZhaAttention(
          (query): Linear(in_features=1024, out_features=1024, dtype=float32)
          (key): Linear(in_features=1024, out_features=1024, dtype=float32)
          (value): Linear(in_features=1024, out_features=1024, dtype=float32)
          (attention_dropout): Dropout(p=0.1, axis=None, mode=upscale_in_train)
          (dense): Linear(in_features=1024, out_features=1024, dtype=float32)
          (layer_norm): LayerNorm(normalized_shape=[1024], epsilon=1e-12)
          (output_dropout): Dropout(p=0.1, axis=None, mode=upscale_in_train)
        )
        (ffn): Linear(in_features=1024, out_features=4096, dtype=float32)
        (ffn_output): Linear(in_features=4096, out_features=1024, dtype=float32)
        (dropout): Dropout(p=0.1, axis=None, mode=upscale_in_train)
      )
      (4): NeZhaLayer(
        (layer_norm): LayerNorm(normalized_shape=[1024], epsilon=1e-12)
        (attention): NeZhaAttention(
          (query): Linear(in_features=1024, out_features=1024, dtype=float32)
          (key): Linear(in_features=1024, out_features=1024, dtype=float32)
          (value): Linear(in_features=1024, out_features=1024, dtype=float32)
          (attention_dropout): Dropout(p=0.1, axis=None, mode=upscale_in_train)
          (dense): Linear(in_features=1024, out_features=1024, dtype=float32)
          (layer_norm): LayerNorm(normalized_shape=[1024], epsilon=1e-12)
          (output_dropout): Dropout(p=0.1, axis=None, mode=upscale_in_train)
        )
        (ffn): Linear(in_features=1024, out_features=4096, dtype=float32)
        (ffn_output): Linear(in_features=4096, out_features=1024, dtype=float32)
        (dropout): Dropout(p=0.1, axis=None, mode=upscale_in_train)
      )
      (5): NeZhaLayer(
        (layer_norm): LayerNorm(normalized_shape=[1024], epsilon=1e-12)
        (attention): NeZhaAttention(
          (query): Linear(in_features=1024, out_features=1024, dtype=float32)
          (key): Linear(in_features=1024, out_features=1024, dtype=float32)
          (value): Linear(in_features=1024, out_features=1024, dtype=float32)
          (attention_dropout): Dropout(p=0.1, axis=None, mode=upscale_in_train)
          (dense): Linear(in_features=1024, out_features=1024, dtype=float32)
          (layer_norm): LayerNorm(normalized_shape=[1024], epsilon=1e-12)
          (output_dropout): Dropout(p=0.1, axis=None, mode=upscale_in_train)
        )
        (ffn): Linear(in_features=1024, out_features=4096, dtype=float32)
        (ffn_output): Linear(in_features=4096, out_features=1024, dtype=float32)
        (dropout): Dropout(p=0.1, axis=None, mode=upscale_in_train)
      )
      (6): NeZhaLayer(
        (layer_norm): LayerNorm(normalized_shape=[1024], epsilon=1e-12)
        (attention): NeZhaAttention(
          (query): Linear(in_features=1024, out_features=1024, dtype=float32)
          (key): Linear(in_features=1024, out_features=1024, dtype=float32)
          (value): Linear(in_features=1024, out_features=1024, dtype=float32)
          (attention_dropout): Dropout(p=0.1, axis=None, mode=upscale_in_train)
          (dense): Linear(in_features=1024, out_features=1024, dtype=float32)
          (layer_norm): LayerNorm(normalized_shape=[1024], epsilon=1e-12)
          (output_dropout): Dropout(p=0.1, axis=None, mode=upscale_in_train)
        )
        (ffn): Linear(in_features=1024, out_features=4096, dtype=float32)
        (ffn_output): Linear(in_features=4096, out_features=1024, dtype=float32)
        (dropout): Dropout(p=0.1, axis=None, mode=upscale_in_train)
      )
      (7): NeZhaLayer(
        (layer_norm): LayerNorm(normalized_shape=[1024], epsilon=1e-12)
        (attention): NeZhaAttention(
          (query): Linear(in_features=1024, out_features=1024, dtype=float32)
          (key): Linear(in_features=1024, out_features=1024, dtype=float32)
          (value): Linear(in_features=1024, out_features=1024, dtype=float32)
          (attention_dropout): Dropout(p=0.1, axis=None, mode=upscale_in_train)
          (dense): Linear(in_features=1024, out_features=1024, dtype=float32)
          (layer_norm): LayerNorm(normalized_shape=[1024], epsilon=1e-12)
          (output_dropout): Dropout(p=0.1, axis=None, mode=upscale_in_train)
        )
        (ffn): Linear(in_features=1024, out_features=4096, dtype=float32)
        (ffn_output): Linear(in_features=4096, out_features=1024, dtype=float32)
        (dropout): Dropout(p=0.1, axis=None, mode=upscale_in_train)
      )
      (8): NeZhaLayer(
        (layer_norm): LayerNorm(normalized_shape=[1024], epsilon=1e-12)
        (attention): NeZhaAttention(
          (query): Linear(in_features=1024, out_features=1024, dtype=float32)
          (key): Linear(in_features=1024, out_features=1024, dtype=float32)
          (value): Linear(in_features=1024, out_features=1024, dtype=float32)
          (attention_dropout): Dropout(p=0.1, axis=None, mode=upscale_in_train)
          (dense): Linear(in_features=1024, out_features=1024, dtype=float32)
          (layer_norm): LayerNorm(normalized_shape=[1024], epsilon=1e-12)
          (output_dropout): Dropout(p=0.1, axis=None, mode=upscale_in_train)
        )
        (ffn): Linear(in_features=1024, out_features=4096, dtype=float32)
        (ffn_output): Linear(in_features=4096, out_features=1024, dtype=float32)
        (dropout): Dropout(p=0.1, axis=None, mode=upscale_in_train)
      )
      (9): NeZhaLayer(
        (layer_norm): LayerNorm(normalized_shape=[1024], epsilon=1e-12)
        (attention): NeZhaAttention(
          (query): Linear(in_features=1024, out_features=1024, dtype=float32)
          (key): Linear(in_features=1024, out_features=1024, dtype=float32)
          (value): Linear(in_features=1024, out_features=1024, dtype=float32)
          (attention_dropout): Dropout(p=0.1, axis=None, mode=upscale_in_train)
          (dense): Linear(in_features=1024, out_features=1024, dtype=float32)
          (layer_norm): LayerNorm(normalized_shape=[1024], epsilon=1e-12)
          (output_dropout): Dropout(p=0.1, axis=None, mode=upscale_in_train)
        )
        (ffn): Linear(in_features=1024, out_features=4096, dtype=float32)
        (ffn_output): Linear(in_features=4096, out_features=1024, dtype=float32)
        (dropout): Dropout(p=0.1, axis=None, mode=upscale_in_train)
      )
      (10): NeZhaLayer(
        (layer_norm): LayerNorm(normalized_shape=[1024], epsilon=1e-12)
        (attention): NeZhaAttention(
          (query): Linear(in_features=1024, out_features=1024, dtype=float32)
          (key): Linear(in_features=1024, out_features=1024, dtype=float32)
          (value): Linear(in_features=1024, out_features=1024, dtype=float32)
          (attention_dropout): Dropout(p=0.1, axis=None, mode=upscale_in_train)
          (dense): Linear(in_features=1024, out_features=1024, dtype=float32)
          (layer_norm): LayerNorm(normalized_shape=[1024], epsilon=1e-12)
          (output_dropout): Dropout(p=0.1, axis=None, mode=upscale_in_train)
        )
        (ffn): Linear(in_features=1024, out_features=4096, dtype=float32)
        (ffn_output): Linear(in_features=4096, out_features=1024, dtype=float32)
        (dropout): Dropout(p=0.1, axis=None, mode=upscale_in_train)
      )
      (11): NeZhaLayer(
        (layer_norm): LayerNorm(normalized_shape=[1024], epsilon=1e-12)
        (attention): NeZhaAttention(
          (query): Linear(in_features=1024, out_features=1024, dtype=float32)
          (key): Linear(in_features=1024, out_features=1024, dtype=float32)
          (value): Linear(in_features=1024, out_features=1024, dtype=float32)
          (attention_dropout): Dropout(p=0.1, axis=None, mode=upscale_in_train)
          (dense): Linear(in_features=1024, out_features=1024, dtype=float32)
          (layer_norm): LayerNorm(normalized_shape=[1024], epsilon=1e-12)
          (output_dropout): Dropout(p=0.1, axis=None, mode=upscale_in_train)
        )
        (ffn): Linear(in_features=1024, out_features=4096, dtype=float32)
        (ffn_output): Linear(in_features=4096, out_features=1024, dtype=float32)
        (dropout): Dropout(p=0.1, axis=None, mode=upscale_in_train)
      )
      (12): NeZhaLayer(
        (layer_norm): LayerNorm(normalized_shape=[1024], epsilon=1e-12)
        (attention): NeZhaAttention(
          (query): Linear(in_features=1024, out_features=1024, dtype=float32)
          (key): Linear(in_features=1024, out_features=1024, dtype=float32)
          (value): Linear(in_features=1024, out_features=1024, dtype=float32)
          (attention_dropout): Dropout(p=0.1, axis=None, mode=upscale_in_train)
          (dense): Linear(in_features=1024, out_features=1024, dtype=float32)
          (layer_norm): LayerNorm(normalized_shape=[1024], epsilon=1e-12)
          (output_dropout): Dropout(p=0.1, axis=None, mode=upscale_in_train)
        )
        (ffn): Linear(in_features=1024, out_features=4096, dtype=float32)
        (ffn_output): Linear(in_features=4096, out_features=1024, dtype=float32)
        (dropout): Dropout(p=0.1, axis=None, mode=upscale_in_train)
      )
      (13): NeZhaLayer(
        (layer_norm): LayerNorm(normalized_shape=[1024], epsilon=1e-12)
        (attention): NeZhaAttention(
          (query): Linear(in_features=1024, out_features=1024, dtype=float32)
          (key): Linear(in_features=1024, out_features=1024, dtype=float32)
          (value): Linear(in_features=1024, out_features=1024, dtype=float32)
          (attention_dropout): Dropout(p=0.1, axis=None, mode=upscale_in_train)
          (dense): Linear(in_features=1024, out_features=1024, dtype=float32)
          (layer_norm): LayerNorm(normalized_shape=[1024], epsilon=1e-12)
          (output_dropout): Dropout(p=0.1, axis=None, mode=upscale_in_train)
        )
        (ffn): Linear(in_features=1024, out_features=4096, dtype=float32)
        (ffn_output): Linear(in_features=4096, out_features=1024, dtype=float32)
        (dropout): Dropout(p=0.1, axis=None, mode=upscale_in_train)
      )
      (14): NeZhaLayer(
        (layer_norm): LayerNorm(normalized_shape=[1024], epsilon=1e-12)
        (attention): NeZhaAttention(
          (query): Linear(in_features=1024, out_features=1024, dtype=float32)
          (key): Linear(in_features=1024, out_features=1024, dtype=float32)
          (value): Linear(in_features=1024, out_features=1024, dtype=float32)
          (attention_dropout): Dropout(p=0.1, axis=None, mode=upscale_in_train)
          (dense): Linear(in_features=1024, out_features=1024, dtype=float32)
          (layer_norm): LayerNorm(normalized_shape=[1024], epsilon=1e-12)
          (output_dropout): Dropout(p=0.1, axis=None, mode=upscale_in_train)
        )
        (ffn): Linear(in_features=1024, out_features=4096, dtype=float32)
        (ffn_output): Linear(in_features=4096, out_features=1024, dtype=float32)
        (dropout): Dropout(p=0.1, axis=None, mode=upscale_in_train)
      )
      (15): NeZhaLayer(
        (layer_norm): LayerNorm(normalized_shape=[1024], epsilon=1e-12)
        (attention): NeZhaAttention(
          (query): Linear(in_features=1024, out_features=1024, dtype=float32)
          (key): Linear(in_features=1024, out_features=1024, dtype=float32)
          (value): Linear(in_features=1024, out_features=1024, dtype=float32)
          (attention_dropout): Dropout(p=0.1, axis=None, mode=upscale_in_train)
          (dense): Linear(in_features=1024, out_features=1024, dtype=float32)
          (layer_norm): LayerNorm(normalized_shape=[1024], epsilon=1e-12)
          (output_dropout): Dropout(p=0.1, axis=None, mode=upscale_in_train)
        )
        (ffn): Linear(in_features=1024, out_features=4096, dtype=float32)
        (ffn_output): Linear(in_features=4096, out_features=1024, dtype=float32)
        (dropout): Dropout(p=0.1, axis=None, mode=upscale_in_train)
      )
      (16): NeZhaLayer(
        (layer_norm): LayerNorm(normalized_shape=[1024], epsilon=1e-12)
        (attention): NeZhaAttention(
          (query): Linear(in_features=1024, out_features=1024, dtype=float32)
          (key): Linear(in_features=1024, out_features=1024, dtype=float32)
          (value): Linear(in_features=1024, out_features=1024, dtype=float32)
          (attention_dropout): Dropout(p=0.1, axis=None, mode=upscale_in_train)
          (dense): Linear(in_features=1024, out_features=1024, dtype=float32)
          (layer_norm): LayerNorm(normalized_shape=[1024], epsilon=1e-12)
          (output_dropout): Dropout(p=0.1, axis=None, mode=upscale_in_train)
        )
        (ffn): Linear(in_features=1024, out_features=4096, dtype=float32)
        (ffn_output): Linear(in_features=4096, out_features=1024, dtype=float32)
        (dropout): Dropout(p=0.1, axis=None, mode=upscale_in_train)
      )
      (17): NeZhaLayer(
        (layer_norm): LayerNorm(normalized_shape=[1024], epsilon=1e-12)
        (attention): NeZhaAttention(
          (query): Linear(in_features=1024, out_features=1024, dtype=float32)
          (key): Linear(in_features=1024, out_features=1024, dtype=float32)
          (value): Linear(in_features=1024, out_features=1024, dtype=float32)
          (attention_dropout): Dropout(p=0.1, axis=None, mode=upscale_in_train)
          (dense): Linear(in_features=1024, out_features=1024, dtype=float32)
          (layer_norm): LayerNorm(normalized_shape=[1024], epsilon=1e-12)
          (output_dropout): Dropout(p=0.1, axis=None, mode=upscale_in_train)
        )
        (ffn): Linear(in_features=1024, out_features=4096, dtype=float32)
        (ffn_output): Linear(in_features=4096, out_features=1024, dtype=float32)
        (dropout): Dropout(p=0.1, axis=None, mode=upscale_in_train)
      )
      (18): NeZhaLayer(
        (layer_norm): LayerNorm(normalized_shape=[1024], epsilon=1e-12)
        (attention): NeZhaAttention(
          (query): Linear(in_features=1024, out_features=1024, dtype=float32)
          (key): Linear(in_features=1024, out_features=1024, dtype=float32)
          (value): Linear(in_features=1024, out_features=1024, dtype=float32)
          (attention_dropout): Dropout(p=0.1, axis=None, mode=upscale_in_train)
          (dense): Linear(in_features=1024, out_features=1024, dtype=float32)
          (layer_norm): LayerNorm(normalized_shape=[1024], epsilon=1e-12)
          (output_dropout): Dropout(p=0.1, axis=None, mode=upscale_in_train)
        )
        (ffn): Linear(in_features=1024, out_features=4096, dtype=float32)
        (ffn_output): Linear(in_features=4096, out_features=1024, dtype=float32)
        (dropout): Dropout(p=0.1, axis=None, mode=upscale_in_train)
      )
      (19): NeZhaLayer(
        (layer_norm): LayerNorm(normalized_shape=[1024], epsilon=1e-12)
        (attention): NeZhaAttention(
          (query): Linear(in_features=1024, out_features=1024, dtype=float32)
          (key): Linear(in_features=1024, out_features=1024, dtype=float32)
          (value): Linear(in_features=1024, out_features=1024, dtype=float32)
          (attention_dropout): Dropout(p=0.1, axis=None, mode=upscale_in_train)
          (dense): Linear(in_features=1024, out_features=1024, dtype=float32)
          (layer_norm): LayerNorm(normalized_shape=[1024], epsilon=1e-12)
          (output_dropout): Dropout(p=0.1, axis=None, mode=upscale_in_train)
        )
        (ffn): Linear(in_features=1024, out_features=4096, dtype=float32)
        (ffn_output): Linear(in_features=4096, out_features=1024, dtype=float32)
        (dropout): Dropout(p=0.1, axis=None, mode=upscale_in_train)
      )
      (20): NeZhaLayer(
        (layer_norm): LayerNorm(normalized_shape=[1024], epsilon=1e-12)
        (attention): NeZhaAttention(
          (query): Linear(in_features=1024, out_features=1024, dtype=float32)
          (key): Linear(in_features=1024, out_features=1024, dtype=float32)
          (value): Linear(in_features=1024, out_features=1024, dtype=float32)
          (attention_dropout): Dropout(p=0.1, axis=None, mode=upscale_in_train)
          (dense): Linear(in_features=1024, out_features=1024, dtype=float32)
          (layer_norm): LayerNorm(normalized_shape=[1024], epsilon=1e-12)
          (output_dropout): Dropout(p=0.1, axis=None, mode=upscale_in_train)
        )
        (ffn): Linear(in_features=1024, out_features=4096, dtype=float32)
        (ffn_output): Linear(in_features=4096, out_features=1024, dtype=float32)
        (dropout): Dropout(p=0.1, axis=None, mode=upscale_in_train)
      )
      (21): NeZhaLayer(
        (layer_norm): LayerNorm(normalized_shape=[1024], epsilon=1e-12)
        (attention): NeZhaAttention(
          (query): Linear(in_features=1024, out_features=1024, dtype=float32)
          (key): Linear(in_features=1024, out_features=1024, dtype=float32)
          (value): Linear(in_features=1024, out_features=1024, dtype=float32)
          (attention_dropout): Dropout(p=0.1, axis=None, mode=upscale_in_train)
          (dense): Linear(in_features=1024, out_features=1024, dtype=float32)
          (layer_norm): LayerNorm(normalized_shape=[1024], epsilon=1e-12)
          (output_dropout): Dropout(p=0.1, axis=None, mode=upscale_in_train)
        )
        (ffn): Linear(in_features=1024, out_features=4096, dtype=float32)
        (ffn_output): Linear(in_features=4096, out_features=1024, dtype=float32)
        (dropout): Dropout(p=0.1, axis=None, mode=upscale_in_train)
      )
      (22): NeZhaLayer(
        (layer_norm): LayerNorm(normalized_shape=[1024], epsilon=1e-12)
        (attention): NeZhaAttention(
          (query): Linear(in_features=1024, out_features=1024, dtype=float32)
          (key): Linear(in_features=1024, out_features=1024, dtype=float32)
          (value): Linear(in_features=1024, out_features=1024, dtype=float32)
          (attention_dropout): Dropout(p=0.1, axis=None, mode=upscale_in_train)
          (dense): Linear(in_features=1024, out_features=1024, dtype=float32)
          (layer_norm): LayerNorm(normalized_shape=[1024], epsilon=1e-12)
          (output_dropout): Dropout(p=0.1, axis=None, mode=upscale_in_train)
        )
        (ffn): Linear(in_features=1024, out_features=4096, dtype=float32)
        (ffn_output): Linear(in_features=4096, out_features=1024, dtype=float32)
        (dropout): Dropout(p=0.1, axis=None, mode=upscale_in_train)
      )
      (23): NeZhaLayer(
        (layer_norm): LayerNorm(normalized_shape=[1024], epsilon=1e-12)
        (attention): NeZhaAttention(
          (query): Linear(in_features=1024, out_features=1024, dtype=float32)
          (key): Linear(in_features=1024, out_features=1024, dtype=float32)
          (value): Linear(in_features=1024, out_features=1024, dtype=float32)
          (attention_dropout): Dropout(p=0.1, axis=None, mode=upscale_in_train)
          (dense): Linear(in_features=1024, out_features=1024, dtype=float32)
          (layer_norm): LayerNorm(normalized_shape=[1024], epsilon=1e-12)
          (output_dropout): Dropout(p=0.1, axis=None, mode=upscale_in_train)
        )
        (ffn): Linear(in_features=1024, out_features=4096, dtype=float32)
        (ffn_output): Linear(in_features=4096, out_features=1024, dtype=float32)
        (dropout): Dropout(p=0.1, axis=None, mode=upscale_in_train)
      )
    )
  )
  (pooler): NeZhaPooler(
    (dense): Linear(in_features=1024, out_features=1024, dtype=float32)
    (activation): Tanh()
  )
)
