name: ne_zha_model_0	labels (NA): NA	NeZhaModel(
  (embeddings): NeZhaEmbeddings(
    (word_embeddings): Embedding(21128, 768, sparse=False)
    (token_type_embeddings): Embedding(2, 768, sparse=False)
    (layer_norm): LayerNorm(normalized_shape=[768], epsilon=1e-12)
    (dropout): Dropout(p=0.1, axis=None, mode=upscale_in_train)
  )
  (encoder): NeZhaEncoder(
    (layer): LayerList(
      (0): NeZhaLayer(
        (layer_norm): LayerNorm(normalized_shape=[768], epsilon=1e-12)
        (attention): NeZhaAttention(
          (query): Linear(in_features=768, out_features=768, dtype=float32)
          (key): Linear(in_features=768, out_features=768, dtype=float32)
          (value): Linear(in_features=768, out_features=768, dtype=float32)
          (attention_dropout): Dropout(p=0.1, axis=None, mode=upscale_in_train)
          (dense): Linear(in_features=768, out_features=768, dtype=float32)
          (layer_norm): LayerNorm(normalized_shape=[768], epsilon=1e-12)
          (output_dropout): Dropout(p=0.1, axis=None, mode=upscale_in_train)
        )
        (ffn): Linear(in_features=768, out_features=3072, dtype=float32)
        (ffn_output): Linear(in_features=3072, out_features=768, dtype=float32)
        (dropout): Dropout(p=0.1, axis=None, mode=upscale_in_train)
      )
      (1): NeZhaLayer(
        (layer_norm): LayerNorm(normalized_shape=[768], epsilon=1e-12)
        (attention): NeZhaAttention(
          (query): Linear(in_features=768, out_features=768, dtype=float32)
          (key): Linear(in_features=768, out_features=768, dtype=float32)
          (value): Linear(in_features=768, out_features=768, dtype=float32)
          (attention_dropout): Dropout(p=0.1, axis=None, mode=upscale_in_train)
          (dense): Linear(in_features=768, out_features=768, dtype=float32)
          (layer_norm): LayerNorm(normalized_shape=[768], epsilon=1e-12)
          (output_dropout): Dropout(p=0.1, axis=None, mode=upscale_in_train)
        )
        (ffn): Linear(in_features=768, out_features=3072, dtype=float32)
        (ffn_output): Linear(in_features=3072, out_features=768, dtype=float32)
        (dropout): Dropout(p=0.1, axis=None, mode=upscale_in_train)
      )
      (2): NeZhaLayer(
        (layer_norm): LayerNorm(normalized_shape=[768], epsilon=1e-12)
        (attention): NeZhaAttention(
          (query): Linear(in_features=768, out_features=768, dtype=float32)
          (key): Linear(in_features=768, out_features=768, dtype=float32)
          (value): Linear(in_features=768, out_features=768, dtype=float32)
          (attention_dropout): Dropout(p=0.1, axis=None, mode=upscale_in_train)
          (dense): Linear(in_features=768, out_features=768, dtype=float32)
          (layer_norm): LayerNorm(normalized_shape=[768], epsilon=1e-12)
          (output_dropout): Dropout(p=0.1, axis=None, mode=upscale_in_train)
        )
        (ffn): Linear(in_features=768, out_features=3072, dtype=float32)
        (ffn_output): Linear(in_features=3072, out_features=768, dtype=float32)
        (dropout): Dropout(p=0.1, axis=None, mode=upscale_in_train)
      )
      (3): NeZhaLayer(
        (layer_norm): LayerNorm(normalized_shape=[768], epsilon=1e-12)
        (attention): NeZhaAttention(
          (query): Linear(in_features=768, out_features=768, dtype=float32)
          (key): Linear(in_features=768, out_features=768, dtype=float32)
          (value): Linear(in_features=768, out_features=768, dtype=float32)
          (attention_dropout): Dropout(p=0.1, axis=None, mode=upscale_in_train)
          (dense): Linear(in_features=768, out_features=768, dtype=float32)
          (layer_norm): LayerNorm(normalized_shape=[768], epsilon=1e-12)
          (output_dropout): Dropout(p=0.1, axis=None, mode=upscale_in_train)
        )
        (ffn): Linear(in_features=768, out_features=3072, dtype=float32)
        (ffn_output): Linear(in_features=3072, out_features=768, dtype=float32)
        (dropout): Dropout(p=0.1, axis=None, mode=upscale_in_train)
      )
      (4): NeZhaLayer(
        (layer_norm): LayerNorm(normalized_shape=[768], epsilon=1e-12)
        (attention): NeZhaAttention(
          (query): Linear(in_features=768, out_features=768, dtype=float32)
          (key): Linear(in_features=768, out_features=768, dtype=float32)
          (value): Linear(in_features=768, out_features=768, dtype=float32)
          (attention_dropout): Dropout(p=0.1, axis=None, mode=upscale_in_train)
          (dense): Linear(in_features=768, out_features=768, dtype=float32)
          (layer_norm): LayerNorm(normalized_shape=[768], epsilon=1e-12)
          (output_dropout): Dropout(p=0.1, axis=None, mode=upscale_in_train)
        )
        (ffn): Linear(in_features=768, out_features=3072, dtype=float32)
        (ffn_output): Linear(in_features=3072, out_features=768, dtype=float32)
        (dropout): Dropout(p=0.1, axis=None, mode=upscale_in_train)
      )
      (5): NeZhaLayer(
        (layer_norm): LayerNorm(normalized_shape=[768], epsilon=1e-12)
        (attention): NeZhaAttention(
          (query): Linear(in_features=768, out_features=768, dtype=float32)
          (key): Linear(in_features=768, out_features=768, dtype=float32)
          (value): Linear(in_features=768, out_features=768, dtype=float32)
          (attention_dropout): Dropout(p=0.1, axis=None, mode=upscale_in_train)
          (dense): Linear(in_features=768, out_features=768, dtype=float32)
          (layer_norm): LayerNorm(normalized_shape=[768], epsilon=1e-12)
          (output_dropout): Dropout(p=0.1, axis=None, mode=upscale_in_train)
        )
        (ffn): Linear(in_features=768, out_features=3072, dtype=float32)
        (ffn_output): Linear(in_features=3072, out_features=768, dtype=float32)
        (dropout): Dropout(p=0.1, axis=None, mode=upscale_in_train)
      )
      (6): NeZhaLayer(
        (layer_norm): LayerNorm(normalized_shape=[768], epsilon=1e-12)
        (attention): NeZhaAttention(
          (query): Linear(in_features=768, out_features=768, dtype=float32)
          (key): Linear(in_features=768, out_features=768, dtype=float32)
          (value): Linear(in_features=768, out_features=768, dtype=float32)
          (attention_dropout): Dropout(p=0.1, axis=None, mode=upscale_in_train)
          (dense): Linear(in_features=768, out_features=768, dtype=float32)
          (layer_norm): LayerNorm(normalized_shape=[768], epsilon=1e-12)
          (output_dropout): Dropout(p=0.1, axis=None, mode=upscale_in_train)
        )
        (ffn): Linear(in_features=768, out_features=3072, dtype=float32)
        (ffn_output): Linear(in_features=3072, out_features=768, dtype=float32)
        (dropout): Dropout(p=0.1, axis=None, mode=upscale_in_train)
      )
      (7): NeZhaLayer(
        (layer_norm): LayerNorm(normalized_shape=[768], epsilon=1e-12)
        (attention): NeZhaAttention(
          (query): Linear(in_features=768, out_features=768, dtype=float32)
          (key): Linear(in_features=768, out_features=768, dtype=float32)
          (value): Linear(in_features=768, out_features=768, dtype=float32)
          (attention_dropout): Dropout(p=0.1, axis=None, mode=upscale_in_train)
          (dense): Linear(in_features=768, out_features=768, dtype=float32)
          (layer_norm): LayerNorm(normalized_shape=[768], epsilon=1e-12)
          (output_dropout): Dropout(p=0.1, axis=None, mode=upscale_in_train)
        )
        (ffn): Linear(in_features=768, out_features=3072, dtype=float32)
        (ffn_output): Linear(in_features=3072, out_features=768, dtype=float32)
        (dropout): Dropout(p=0.1, axis=None, mode=upscale_in_train)
      )
      (8): NeZhaLayer(
        (layer_norm): LayerNorm(normalized_shape=[768], epsilon=1e-12)
        (attention): NeZhaAttention(
          (query): Linear(in_features=768, out_features=768, dtype=float32)
          (key): Linear(in_features=768, out_features=768, dtype=float32)
          (value): Linear(in_features=768, out_features=768, dtype=float32)
          (attention_dropout): Dropout(p=0.1, axis=None, mode=upscale_in_train)
          (dense): Linear(in_features=768, out_features=768, dtype=float32)
          (layer_norm): LayerNorm(normalized_shape=[768], epsilon=1e-12)
          (output_dropout): Dropout(p=0.1, axis=None, mode=upscale_in_train)
        )
        (ffn): Linear(in_features=768, out_features=3072, dtype=float32)
        (ffn_output): Linear(in_features=3072, out_features=768, dtype=float32)
        (dropout): Dropout(p=0.1, axis=None, mode=upscale_in_train)
      )
      (9): NeZhaLayer(
        (layer_norm): LayerNorm(normalized_shape=[768], epsilon=1e-12)
        (attention): NeZhaAttention(
          (query): Linear(in_features=768, out_features=768, dtype=float32)
          (key): Linear(in_features=768, out_features=768, dtype=float32)
          (value): Linear(in_features=768, out_features=768, dtype=float32)
          (attention_dropout): Dropout(p=0.1, axis=None, mode=upscale_in_train)
          (dense): Linear(in_features=768, out_features=768, dtype=float32)
          (layer_norm): LayerNorm(normalized_shape=[768], epsilon=1e-12)
          (output_dropout): Dropout(p=0.1, axis=None, mode=upscale_in_train)
        )
        (ffn): Linear(in_features=768, out_features=3072, dtype=float32)
        (ffn_output): Linear(in_features=3072, out_features=768, dtype=float32)
        (dropout): Dropout(p=0.1, axis=None, mode=upscale_in_train)
      )
      (10): NeZhaLayer(
        (layer_norm): LayerNorm(normalized_shape=[768], epsilon=1e-12)
        (attention): NeZhaAttention(
          (query): Linear(in_features=768, out_features=768, dtype=float32)
          (key): Linear(in_features=768, out_features=768, dtype=float32)
          (value): Linear(in_features=768, out_features=768, dtype=float32)
          (attention_dropout): Dropout(p=0.1, axis=None, mode=upscale_in_train)
          (dense): Linear(in_features=768, out_features=768, dtype=float32)
          (layer_norm): LayerNorm(normalized_shape=[768], epsilon=1e-12)
          (output_dropout): Dropout(p=0.1, axis=None, mode=upscale_in_train)
        )
        (ffn): Linear(in_features=768, out_features=3072, dtype=float32)
        (ffn_output): Linear(in_features=3072, out_features=768, dtype=float32)
        (dropout): Dropout(p=0.1, axis=None, mode=upscale_in_train)
      )
      (11): NeZhaLayer(
        (layer_norm): LayerNorm(normalized_shape=[768], epsilon=1e-12)
        (attention): NeZhaAttention(
          (query): Linear(in_features=768, out_features=768, dtype=float32)
          (key): Linear(in_features=768, out_features=768, dtype=float32)
          (value): Linear(in_features=768, out_features=768, dtype=float32)
          (attention_dropout): Dropout(p=0.1, axis=None, mode=upscale_in_train)
          (dense): Linear(in_features=768, out_features=768, dtype=float32)
          (layer_norm): LayerNorm(normalized_shape=[768], epsilon=1e-12)
          (output_dropout): Dropout(p=0.1, axis=None, mode=upscale_in_train)
        )
        (ffn): Linear(in_features=768, out_features=3072, dtype=float32)
        (ffn_output): Linear(in_features=3072, out_features=768, dtype=float32)
        (dropout): Dropout(p=0.1, axis=None, mode=upscale_in_train)
      )
    )
  )
  (pooler): NeZhaPooler(
    (dense): Linear(in_features=768, out_features=768, dtype=float32)
    (activation): Tanh()
  )
)
