name: ro_former_model_0	labels (NA): NA	RoFormerModel(
  (embeddings): RoFormerEmbeddings(
    (word_embeddings): Embedding(12000, 768, sparse=False)
    (token_type_embeddings): Embedding(2, 768, sparse=False)
    (layer_norm): LayerNorm(normalized_shape=[768], epsilon=1e-12)
    (dropout): Dropout(p=0.1, axis=None, mode=upscale_in_train)
  )
  (encoder): TransformerEncoder(
    (layers): LayerList(
      (0): TransformerEncoderLayerWithRotary(
        (self_attn): MultiHeadAttentionWithRotary(
          (dropout): Dropout(p=0.1, axis=None, mode=upscale_in_train)
          (q_proj): Linear(in_features=768, out_features=768, dtype=float32)
          (k_proj): Linear(in_features=768, out_features=768, dtype=float32)
          (v_proj): Linear(in_features=768, out_features=768, dtype=float32)
          (out_proj): Linear(in_features=768, out_features=768, dtype=float32)
        )
        (linear1): Linear(in_features=768, out_features=3072, dtype=float32)
        (dropout): Dropout(p=0, axis=None, mode=upscale_in_train)
        (linear2): Linear(in_features=3072, out_features=768, dtype=float32)
        (norm1): LayerNorm(normalized_shape=[768], epsilon=1e-12)
        (norm2): LayerNorm(normalized_shape=[768], epsilon=1e-12)
        (dropout1): Dropout(p=0.1, axis=None, mode=upscale_in_train)
        (dropout2): Dropout(p=0.1, axis=None, mode=upscale_in_train)
      )
      (1): TransformerEncoderLayerWithRotary(
        (self_attn): MultiHeadAttentionWithRotary(
          (dropout): Dropout(p=0.1, axis=None, mode=upscale_in_train)
          (q_proj): Linear(in_features=768, out_features=768, dtype=float32)
          (k_proj): Linear(in_features=768, out_features=768, dtype=float32)
          (v_proj): Linear(in_features=768, out_features=768, dtype=float32)
          (out_proj): Linear(in_features=768, out_features=768, dtype=float32)
        )
        (linear1): Linear(in_features=768, out_features=3072, dtype=float32)
        (dropout): Dropout(p=0, axis=None, mode=upscale_in_train)
        (linear2): Linear(in_features=3072, out_features=768, dtype=float32)
        (norm1): LayerNorm(normalized_shape=[768], epsilon=1e-12)
        (norm2): LayerNorm(normalized_shape=[768], epsilon=1e-12)
        (dropout1): Dropout(p=0.1, axis=None, mode=upscale_in_train)
        (dropout2): Dropout(p=0.1, axis=None, mode=upscale_in_train)
      )
      (2): TransformerEncoderLayerWithRotary(
        (self_attn): MultiHeadAttentionWithRotary(
          (dropout): Dropout(p=0.1, axis=None, mode=upscale_in_train)
          (q_proj): Linear(in_features=768, out_features=768, dtype=float32)
          (k_proj): Linear(in_features=768, out_features=768, dtype=float32)
          (v_proj): Linear(in_features=768, out_features=768, dtype=float32)
          (out_proj): Linear(in_features=768, out_features=768, dtype=float32)
        )
        (linear1): Linear(in_features=768, out_features=3072, dtype=float32)
        (dropout): Dropout(p=0, axis=None, mode=upscale_in_train)
        (linear2): Linear(in_features=3072, out_features=768, dtype=float32)
        (norm1): LayerNorm(normalized_shape=[768], epsilon=1e-12)
        (norm2): LayerNorm(normalized_shape=[768], epsilon=1e-12)
        (dropout1): Dropout(p=0.1, axis=None, mode=upscale_in_train)
        (dropout2): Dropout(p=0.1, axis=None, mode=upscale_in_train)
      )
      (3): TransformerEncoderLayerWithRotary(
        (self_attn): MultiHeadAttentionWithRotary(
          (dropout): Dropout(p=0.1, axis=None, mode=upscale_in_train)
          (q_proj): Linear(in_features=768, out_features=768, dtype=float32)
          (k_proj): Linear(in_features=768, out_features=768, dtype=float32)
          (v_proj): Linear(in_features=768, out_features=768, dtype=float32)
          (out_proj): Linear(in_features=768, out_features=768, dtype=float32)
        )
        (linear1): Linear(in_features=768, out_features=3072, dtype=float32)
        (dropout): Dropout(p=0, axis=None, mode=upscale_in_train)
        (linear2): Linear(in_features=3072, out_features=768, dtype=float32)
        (norm1): LayerNorm(normalized_shape=[768], epsilon=1e-12)
        (norm2): LayerNorm(normalized_shape=[768], epsilon=1e-12)
        (dropout1): Dropout(p=0.1, axis=None, mode=upscale_in_train)
        (dropout2): Dropout(p=0.1, axis=None, mode=upscale_in_train)
      )
      (4): TransformerEncoderLayerWithRotary(
        (self_attn): MultiHeadAttentionWithRotary(
          (dropout): Dropout(p=0.1, axis=None, mode=upscale_in_train)
          (q_proj): Linear(in_features=768, out_features=768, dtype=float32)
          (k_proj): Linear(in_features=768, out_features=768, dtype=float32)
          (v_proj): Linear(in_features=768, out_features=768, dtype=float32)
          (out_proj): Linear(in_features=768, out_features=768, dtype=float32)
        )
        (linear1): Linear(in_features=768, out_features=3072, dtype=float32)
        (dropout): Dropout(p=0, axis=None, mode=upscale_in_train)
        (linear2): Linear(in_features=3072, out_features=768, dtype=float32)
        (norm1): LayerNorm(normalized_shape=[768], epsilon=1e-12)
        (norm2): LayerNorm(normalized_shape=[768], epsilon=1e-12)
        (dropout1): Dropout(p=0.1, axis=None, mode=upscale_in_train)
        (dropout2): Dropout(p=0.1, axis=None, mode=upscale_in_train)
      )
      (5): TransformerEncoderLayerWithRotary(
        (self_attn): MultiHeadAttentionWithRotary(
          (dropout): Dropout(p=0.1, axis=None, mode=upscale_in_train)
          (q_proj): Linear(in_features=768, out_features=768, dtype=float32)
          (k_proj): Linear(in_features=768, out_features=768, dtype=float32)
          (v_proj): Linear(in_features=768, out_features=768, dtype=float32)
          (out_proj): Linear(in_features=768, out_features=768, dtype=float32)
        )
        (linear1): Linear(in_features=768, out_features=3072, dtype=float32)
        (dropout): Dropout(p=0, axis=None, mode=upscale_in_train)
        (linear2): Linear(in_features=3072, out_features=768, dtype=float32)
        (norm1): LayerNorm(normalized_shape=[768], epsilon=1e-12)
        (norm2): LayerNorm(normalized_shape=[768], epsilon=1e-12)
        (dropout1): Dropout(p=0.1, axis=None, mode=upscale_in_train)
        (dropout2): Dropout(p=0.1, axis=None, mode=upscale_in_train)
      )
      (6): TransformerEncoderLayerWithRotary(
        (self_attn): MultiHeadAttentionWithRotary(
          (dropout): Dropout(p=0.1, axis=None, mode=upscale_in_train)
          (q_proj): Linear(in_features=768, out_features=768, dtype=float32)
          (k_proj): Linear(in_features=768, out_features=768, dtype=float32)
          (v_proj): Linear(in_features=768, out_features=768, dtype=float32)
          (out_proj): Linear(in_features=768, out_features=768, dtype=float32)
        )
        (linear1): Linear(in_features=768, out_features=3072, dtype=float32)
        (dropout): Dropout(p=0, axis=None, mode=upscale_in_train)
        (linear2): Linear(in_features=3072, out_features=768, dtype=float32)
        (norm1): LayerNorm(normalized_shape=[768], epsilon=1e-12)
        (norm2): LayerNorm(normalized_shape=[768], epsilon=1e-12)
        (dropout1): Dropout(p=0.1, axis=None, mode=upscale_in_train)
        (dropout2): Dropout(p=0.1, axis=None, mode=upscale_in_train)
      )
      (7): TransformerEncoderLayerWithRotary(
        (self_attn): MultiHeadAttentionWithRotary(
          (dropout): Dropout(p=0.1, axis=None, mode=upscale_in_train)
          (q_proj): Linear(in_features=768, out_features=768, dtype=float32)
          (k_proj): Linear(in_features=768, out_features=768, dtype=float32)
          (v_proj): Linear(in_features=768, out_features=768, dtype=float32)
          (out_proj): Linear(in_features=768, out_features=768, dtype=float32)
        )
        (linear1): Linear(in_features=768, out_features=3072, dtype=float32)
        (dropout): Dropout(p=0, axis=None, mode=upscale_in_train)
        (linear2): Linear(in_features=3072, out_features=768, dtype=float32)
        (norm1): LayerNorm(normalized_shape=[768], epsilon=1e-12)
        (norm2): LayerNorm(normalized_shape=[768], epsilon=1e-12)
        (dropout1): Dropout(p=0.1, axis=None, mode=upscale_in_train)
        (dropout2): Dropout(p=0.1, axis=None, mode=upscale_in_train)
      )
      (8): TransformerEncoderLayerWithRotary(
        (self_attn): MultiHeadAttentionWithRotary(
          (dropout): Dropout(p=0.1, axis=None, mode=upscale_in_train)
          (q_proj): Linear(in_features=768, out_features=768, dtype=float32)
          (k_proj): Linear(in_features=768, out_features=768, dtype=float32)
          (v_proj): Linear(in_features=768, out_features=768, dtype=float32)
          (out_proj): Linear(in_features=768, out_features=768, dtype=float32)
        )
        (linear1): Linear(in_features=768, out_features=3072, dtype=float32)
        (dropout): Dropout(p=0, axis=None, mode=upscale_in_train)
        (linear2): Linear(in_features=3072, out_features=768, dtype=float32)
        (norm1): LayerNorm(normalized_shape=[768], epsilon=1e-12)
        (norm2): LayerNorm(normalized_shape=[768], epsilon=1e-12)
        (dropout1): Dropout(p=0.1, axis=None, mode=upscale_in_train)
        (dropout2): Dropout(p=0.1, axis=None, mode=upscale_in_train)
      )
      (9): TransformerEncoderLayerWithRotary(
        (self_attn): MultiHeadAttentionWithRotary(
          (dropout): Dropout(p=0.1, axis=None, mode=upscale_in_train)
          (q_proj): Linear(in_features=768, out_features=768, dtype=float32)
          (k_proj): Linear(in_features=768, out_features=768, dtype=float32)
          (v_proj): Linear(in_features=768, out_features=768, dtype=float32)
          (out_proj): Linear(in_features=768, out_features=768, dtype=float32)
        )
        (linear1): Linear(in_features=768, out_features=3072, dtype=float32)
        (dropout): Dropout(p=0, axis=None, mode=upscale_in_train)
        (linear2): Linear(in_features=3072, out_features=768, dtype=float32)
        (norm1): LayerNorm(normalized_shape=[768], epsilon=1e-12)
        (norm2): LayerNorm(normalized_shape=[768], epsilon=1e-12)
        (dropout1): Dropout(p=0.1, axis=None, mode=upscale_in_train)
        (dropout2): Dropout(p=0.1, axis=None, mode=upscale_in_train)
      )
      (10): TransformerEncoderLayerWithRotary(
        (self_attn): MultiHeadAttentionWithRotary(
          (dropout): Dropout(p=0.1, axis=None, mode=upscale_in_train)
          (q_proj): Linear(in_features=768, out_features=768, dtype=float32)
          (k_proj): Linear(in_features=768, out_features=768, dtype=float32)
          (v_proj): Linear(in_features=768, out_features=768, dtype=float32)
          (out_proj): Linear(in_features=768, out_features=768, dtype=float32)
        )
        (linear1): Linear(in_features=768, out_features=3072, dtype=float32)
        (dropout): Dropout(p=0, axis=None, mode=upscale_in_train)
        (linear2): Linear(in_features=3072, out_features=768, dtype=float32)
        (norm1): LayerNorm(normalized_shape=[768], epsilon=1e-12)
        (norm2): LayerNorm(normalized_shape=[768], epsilon=1e-12)
        (dropout1): Dropout(p=0.1, axis=None, mode=upscale_in_train)
        (dropout2): Dropout(p=0.1, axis=None, mode=upscale_in_train)
      )
      (11): TransformerEncoderLayerWithRotary(
        (self_attn): MultiHeadAttentionWithRotary(
          (dropout): Dropout(p=0.1, axis=None, mode=upscale_in_train)
          (q_proj): Linear(in_features=768, out_features=768, dtype=float32)
          (k_proj): Linear(in_features=768, out_features=768, dtype=float32)
          (v_proj): Linear(in_features=768, out_features=768, dtype=float32)
          (out_proj): Linear(in_features=768, out_features=768, dtype=float32)
        )
        (linear1): Linear(in_features=768, out_features=3072, dtype=float32)
        (dropout): Dropout(p=0, axis=None, mode=upscale_in_train)
        (linear2): Linear(in_features=3072, out_features=768, dtype=float32)
        (norm1): LayerNorm(normalized_shape=[768], epsilon=1e-12)
        (norm2): LayerNorm(normalized_shape=[768], epsilon=1e-12)
        (dropout1): Dropout(p=0.1, axis=None, mode=upscale_in_train)
        (dropout2): Dropout(p=0.1, axis=None, mode=upscale_in_train)
      )
    )
  )
  (pooler): RoFormerPooler(
    (dense): Linear(in_features=768, out_features=768, dtype=float32)
    (activation): Tanh()
  )
)
