name: skep_model_0	labels (NA): NA	SkepModel(
  (embeddings): SkepEmbeddings(
    (word_embeddings): Embedding(12800, 1024, padding_idx=0, sparse=False)
    (position_embeddings): Embedding(512, 1024, sparse=False)
    (token_type_embeddings): Embedding(4, 1024, sparse=False)
    (layer_norm): LayerNorm(normalized_shape=[1024], epsilon=1e-05)
    (dropout): Dropout(p=0.1, axis=None, mode=upscale_in_train)
  )
  (encoder): TransformerEncoder(
    (layers): LayerList(
      (0): TransformerEncoderLayer(
        (self_attn): MultiHeadAttention(
          (q_proj): Linear(in_features=1024, out_features=1024, dtype=float32)
          (k_proj): Linear(in_features=1024, out_features=1024, dtype=float32)
          (v_proj): Linear(in_features=1024, out_features=1024, dtype=float32)
          (out_proj): Linear(in_features=1024, out_features=1024, dtype=float32)
        )
        (linear1): Linear(in_features=1024, out_features=4096, dtype=float32)
        (dropout): Dropout(p=0, axis=None, mode=upscale_in_train)
        (linear2): Linear(in_features=4096, out_features=1024, dtype=float32)
        (norm1): LayerNorm(normalized_shape=[1024], epsilon=1e-05)
        (norm2): LayerNorm(normalized_shape=[1024], epsilon=1e-05)
        (dropout1): Dropout(p=0.1, axis=None, mode=upscale_in_train)
        (dropout2): Dropout(p=0.1, axis=None, mode=upscale_in_train)
      )
      (1): TransformerEncoderLayer(
        (self_attn): MultiHeadAttention(
          (q_proj): Linear(in_features=1024, out_features=1024, dtype=float32)
          (k_proj): Linear(in_features=1024, out_features=1024, dtype=float32)
          (v_proj): Linear(in_features=1024, out_features=1024, dtype=float32)
          (out_proj): Linear(in_features=1024, out_features=1024, dtype=float32)
        )
        (linear1): Linear(in_features=1024, out_features=4096, dtype=float32)
        (dropout): Dropout(p=0, axis=None, mode=upscale_in_train)
        (linear2): Linear(in_features=4096, out_features=1024, dtype=float32)
        (norm1): LayerNorm(normalized_shape=[1024], epsilon=1e-05)
        (norm2): LayerNorm(normalized_shape=[1024], epsilon=1e-05)
        (dropout1): Dropout(p=0.1, axis=None, mode=upscale_in_train)
        (dropout2): Dropout(p=0.1, axis=None, mode=upscale_in_train)
      )
      (2): TransformerEncoderLayer(
        (self_attn): MultiHeadAttention(
          (q_proj): Linear(in_features=1024, out_features=1024, dtype=float32)
          (k_proj): Linear(in_features=1024, out_features=1024, dtype=float32)
          (v_proj): Linear(in_features=1024, out_features=1024, dtype=float32)
          (out_proj): Linear(in_features=1024, out_features=1024, dtype=float32)
        )
        (linear1): Linear(in_features=1024, out_features=4096, dtype=float32)
        (dropout): Dropout(p=0, axis=None, mode=upscale_in_train)
        (linear2): Linear(in_features=4096, out_features=1024, dtype=float32)
        (norm1): LayerNorm(normalized_shape=[1024], epsilon=1e-05)
        (norm2): LayerNorm(normalized_shape=[1024], epsilon=1e-05)
        (dropout1): Dropout(p=0.1, axis=None, mode=upscale_in_train)
        (dropout2): Dropout(p=0.1, axis=None, mode=upscale_in_train)
      )
      (3): TransformerEncoderLayer(
        (self_attn): MultiHeadAttention(
          (q_proj): Linear(in_features=1024, out_features=1024, dtype=float32)
          (k_proj): Linear(in_features=1024, out_features=1024, dtype=float32)
          (v_proj): Linear(in_features=1024, out_features=1024, dtype=float32)
          (out_proj): Linear(in_features=1024, out_features=1024, dtype=float32)
        )
        (linear1): Linear(in_features=1024, out_features=4096, dtype=float32)
        (dropout): Dropout(p=0, axis=None, mode=upscale_in_train)
        (linear2): Linear(in_features=4096, out_features=1024, dtype=float32)
        (norm1): LayerNorm(normalized_shape=[1024], epsilon=1e-05)
        (norm2): LayerNorm(normalized_shape=[1024], epsilon=1e-05)
        (dropout1): Dropout(p=0.1, axis=None, mode=upscale_in_train)
        (dropout2): Dropout(p=0.1, axis=None, mode=upscale_in_train)
      )
      (4): TransformerEncoderLayer(
        (self_attn): MultiHeadAttention(
          (q_proj): Linear(in_features=1024, out_features=1024, dtype=float32)
          (k_proj): Linear(in_features=1024, out_features=1024, dtype=float32)
          (v_proj): Linear(in_features=1024, out_features=1024, dtype=float32)
          (out_proj): Linear(in_features=1024, out_features=1024, dtype=float32)
        )
        (linear1): Linear(in_features=1024, out_features=4096, dtype=float32)
        (dropout): Dropout(p=0, axis=None, mode=upscale_in_train)
        (linear2): Linear(in_features=4096, out_features=1024, dtype=float32)
        (norm1): LayerNorm(normalized_shape=[1024], epsilon=1e-05)
        (norm2): LayerNorm(normalized_shape=[1024], epsilon=1e-05)
        (dropout1): Dropout(p=0.1, axis=None, mode=upscale_in_train)
        (dropout2): Dropout(p=0.1, axis=None, mode=upscale_in_train)
      )
      (5): TransformerEncoderLayer(
        (self_attn): MultiHeadAttention(
          (q_proj): Linear(in_features=1024, out_features=1024, dtype=float32)
          (k_proj): Linear(in_features=1024, out_features=1024, dtype=float32)
          (v_proj): Linear(in_features=1024, out_features=1024, dtype=float32)
          (out_proj): Linear(in_features=1024, out_features=1024, dtype=float32)
        )
        (linear1): Linear(in_features=1024, out_features=4096, dtype=float32)
        (dropout): Dropout(p=0, axis=None, mode=upscale_in_train)
        (linear2): Linear(in_features=4096, out_features=1024, dtype=float32)
        (norm1): LayerNorm(normalized_shape=[1024], epsilon=1e-05)
        (norm2): LayerNorm(normalized_shape=[1024], epsilon=1e-05)
        (dropout1): Dropout(p=0.1, axis=None, mode=upscale_in_train)
        (dropout2): Dropout(p=0.1, axis=None, mode=upscale_in_train)
      )
      (6): TransformerEncoderLayer(
        (self_attn): MultiHeadAttention(
          (q_proj): Linear(in_features=1024, out_features=1024, dtype=float32)
          (k_proj): Linear(in_features=1024, out_features=1024, dtype=float32)
          (v_proj): Linear(in_features=1024, out_features=1024, dtype=float32)
          (out_proj): Linear(in_features=1024, out_features=1024, dtype=float32)
        )
        (linear1): Linear(in_features=1024, out_features=4096, dtype=float32)
        (dropout): Dropout(p=0, axis=None, mode=upscale_in_train)
        (linear2): Linear(in_features=4096, out_features=1024, dtype=float32)
        (norm1): LayerNorm(normalized_shape=[1024], epsilon=1e-05)
        (norm2): LayerNorm(normalized_shape=[1024], epsilon=1e-05)
        (dropout1): Dropout(p=0.1, axis=None, mode=upscale_in_train)
        (dropout2): Dropout(p=0.1, axis=None, mode=upscale_in_train)
      )
      (7): TransformerEncoderLayer(
        (self_attn): MultiHeadAttention(
          (q_proj): Linear(in_features=1024, out_features=1024, dtype=float32)
          (k_proj): Linear(in_features=1024, out_features=1024, dtype=float32)
          (v_proj): Linear(in_features=1024, out_features=1024, dtype=float32)
          (out_proj): Linear(in_features=1024, out_features=1024, dtype=float32)
        )
        (linear1): Linear(in_features=1024, out_features=4096, dtype=float32)
        (dropout): Dropout(p=0, axis=None, mode=upscale_in_train)
        (linear2): Linear(in_features=4096, out_features=1024, dtype=float32)
        (norm1): LayerNorm(normalized_shape=[1024], epsilon=1e-05)
        (norm2): LayerNorm(normalized_shape=[1024], epsilon=1e-05)
        (dropout1): Dropout(p=0.1, axis=None, mode=upscale_in_train)
        (dropout2): Dropout(p=0.1, axis=None, mode=upscale_in_train)
      )
      (8): TransformerEncoderLayer(
        (self_attn): MultiHeadAttention(
          (q_proj): Linear(in_features=1024, out_features=1024, dtype=float32)
          (k_proj): Linear(in_features=1024, out_features=1024, dtype=float32)
          (v_proj): Linear(in_features=1024, out_features=1024, dtype=float32)
          (out_proj): Linear(in_features=1024, out_features=1024, dtype=float32)
        )
        (linear1): Linear(in_features=1024, out_features=4096, dtype=float32)
        (dropout): Dropout(p=0, axis=None, mode=upscale_in_train)
        (linear2): Linear(in_features=4096, out_features=1024, dtype=float32)
        (norm1): LayerNorm(normalized_shape=[1024], epsilon=1e-05)
        (norm2): LayerNorm(normalized_shape=[1024], epsilon=1e-05)
        (dropout1): Dropout(p=0.1, axis=None, mode=upscale_in_train)
        (dropout2): Dropout(p=0.1, axis=None, mode=upscale_in_train)
      )
      (9): TransformerEncoderLayer(
        (self_attn): MultiHeadAttention(
          (q_proj): Linear(in_features=1024, out_features=1024, dtype=float32)
          (k_proj): Linear(in_features=1024, out_features=1024, dtype=float32)
          (v_proj): Linear(in_features=1024, out_features=1024, dtype=float32)
          (out_proj): Linear(in_features=1024, out_features=1024, dtype=float32)
        )
        (linear1): Linear(in_features=1024, out_features=4096, dtype=float32)
        (dropout): Dropout(p=0, axis=None, mode=upscale_in_train)
        (linear2): Linear(in_features=4096, out_features=1024, dtype=float32)
        (norm1): LayerNorm(normalized_shape=[1024], epsilon=1e-05)
        (norm2): LayerNorm(normalized_shape=[1024], epsilon=1e-05)
        (dropout1): Dropout(p=0.1, axis=None, mode=upscale_in_train)
        (dropout2): Dropout(p=0.1, axis=None, mode=upscale_in_train)
      )
      (10): TransformerEncoderLayer(
        (self_attn): MultiHeadAttention(
          (q_proj): Linear(in_features=1024, out_features=1024, dtype=float32)
          (k_proj): Linear(in_features=1024, out_features=1024, dtype=float32)
          (v_proj): Linear(in_features=1024, out_features=1024, dtype=float32)
          (out_proj): Linear(in_features=1024, out_features=1024, dtype=float32)
        )
        (linear1): Linear(in_features=1024, out_features=4096, dtype=float32)
        (dropout): Dropout(p=0, axis=None, mode=upscale_in_train)
        (linear2): Linear(in_features=4096, out_features=1024, dtype=float32)
        (norm1): LayerNorm(normalized_shape=[1024], epsilon=1e-05)
        (norm2): LayerNorm(normalized_shape=[1024], epsilon=1e-05)
        (dropout1): Dropout(p=0.1, axis=None, mode=upscale_in_train)
        (dropout2): Dropout(p=0.1, axis=None, mode=upscale_in_train)
      )
      (11): TransformerEncoderLayer(
        (self_attn): MultiHeadAttention(
          (q_proj): Linear(in_features=1024, out_features=1024, dtype=float32)
          (k_proj): Linear(in_features=1024, out_features=1024, dtype=float32)
          (v_proj): Linear(in_features=1024, out_features=1024, dtype=float32)
          (out_proj): Linear(in_features=1024, out_features=1024, dtype=float32)
        )
        (linear1): Linear(in_features=1024, out_features=4096, dtype=float32)
        (dropout): Dropout(p=0, axis=None, mode=upscale_in_train)
        (linear2): Linear(in_features=4096, out_features=1024, dtype=float32)
        (norm1): LayerNorm(normalized_shape=[1024], epsilon=1e-05)
        (norm2): LayerNorm(normalized_shape=[1024], epsilon=1e-05)
        (dropout1): Dropout(p=0.1, axis=None, mode=upscale_in_train)
        (dropout2): Dropout(p=0.1, axis=None, mode=upscale_in_train)
      )
      (12): TransformerEncoderLayer(
        (self_attn): MultiHeadAttention(
          (q_proj): Linear(in_features=1024, out_features=1024, dtype=float32)
          (k_proj): Linear(in_features=1024, out_features=1024, dtype=float32)
          (v_proj): Linear(in_features=1024, out_features=1024, dtype=float32)
          (out_proj): Linear(in_features=1024, out_features=1024, dtype=float32)
        )
        (linear1): Linear(in_features=1024, out_features=4096, dtype=float32)
        (dropout): Dropout(p=0, axis=None, mode=upscale_in_train)
        (linear2): Linear(in_features=4096, out_features=1024, dtype=float32)
        (norm1): LayerNorm(normalized_shape=[1024], epsilon=1e-05)
        (norm2): LayerNorm(normalized_shape=[1024], epsilon=1e-05)
        (dropout1): Dropout(p=0.1, axis=None, mode=upscale_in_train)
        (dropout2): Dropout(p=0.1, axis=None, mode=upscale_in_train)
      )
      (13): TransformerEncoderLayer(
        (self_attn): MultiHeadAttention(
          (q_proj): Linear(in_features=1024, out_features=1024, dtype=float32)
          (k_proj): Linear(in_features=1024, out_features=1024, dtype=float32)
          (v_proj): Linear(in_features=1024, out_features=1024, dtype=float32)
          (out_proj): Linear(in_features=1024, out_features=1024, dtype=float32)
        )
        (linear1): Linear(in_features=1024, out_features=4096, dtype=float32)
        (dropout): Dropout(p=0, axis=None, mode=upscale_in_train)
        (linear2): Linear(in_features=4096, out_features=1024, dtype=float32)
        (norm1): LayerNorm(normalized_shape=[1024], epsilon=1e-05)
        (norm2): LayerNorm(normalized_shape=[1024], epsilon=1e-05)
        (dropout1): Dropout(p=0.1, axis=None, mode=upscale_in_train)
        (dropout2): Dropout(p=0.1, axis=None, mode=upscale_in_train)
      )
      (14): TransformerEncoderLayer(
        (self_attn): MultiHeadAttention(
          (q_proj): Linear(in_features=1024, out_features=1024, dtype=float32)
          (k_proj): Linear(in_features=1024, out_features=1024, dtype=float32)
          (v_proj): Linear(in_features=1024, out_features=1024, dtype=float32)
          (out_proj): Linear(in_features=1024, out_features=1024, dtype=float32)
        )
        (linear1): Linear(in_features=1024, out_features=4096, dtype=float32)
        (dropout): Dropout(p=0, axis=None, mode=upscale_in_train)
        (linear2): Linear(in_features=4096, out_features=1024, dtype=float32)
        (norm1): LayerNorm(normalized_shape=[1024], epsilon=1e-05)
        (norm2): LayerNorm(normalized_shape=[1024], epsilon=1e-05)
        (dropout1): Dropout(p=0.1, axis=None, mode=upscale_in_train)
        (dropout2): Dropout(p=0.1, axis=None, mode=upscale_in_train)
      )
      (15): TransformerEncoderLayer(
        (self_attn): MultiHeadAttention(
          (q_proj): Linear(in_features=1024, out_features=1024, dtype=float32)
          (k_proj): Linear(in_features=1024, out_features=1024, dtype=float32)
          (v_proj): Linear(in_features=1024, out_features=1024, dtype=float32)
          (out_proj): Linear(in_features=1024, out_features=1024, dtype=float32)
        )
        (linear1): Linear(in_features=1024, out_features=4096, dtype=float32)
        (dropout): Dropout(p=0, axis=None, mode=upscale_in_train)
        (linear2): Linear(in_features=4096, out_features=1024, dtype=float32)
        (norm1): LayerNorm(normalized_shape=[1024], epsilon=1e-05)
        (norm2): LayerNorm(normalized_shape=[1024], epsilon=1e-05)
        (dropout1): Dropout(p=0.1, axis=None, mode=upscale_in_train)
        (dropout2): Dropout(p=0.1, axis=None, mode=upscale_in_train)
      )
      (16): TransformerEncoderLayer(
        (self_attn): MultiHeadAttention(
          (q_proj): Linear(in_features=1024, out_features=1024, dtype=float32)
          (k_proj): Linear(in_features=1024, out_features=1024, dtype=float32)
          (v_proj): Linear(in_features=1024, out_features=1024, dtype=float32)
          (out_proj): Linear(in_features=1024, out_features=1024, dtype=float32)
        )
        (linear1): Linear(in_features=1024, out_features=4096, dtype=float32)
        (dropout): Dropout(p=0, axis=None, mode=upscale_in_train)
        (linear2): Linear(in_features=4096, out_features=1024, dtype=float32)
        (norm1): LayerNorm(normalized_shape=[1024], epsilon=1e-05)
        (norm2): LayerNorm(normalized_shape=[1024], epsilon=1e-05)
        (dropout1): Dropout(p=0.1, axis=None, mode=upscale_in_train)
        (dropout2): Dropout(p=0.1, axis=None, mode=upscale_in_train)
      )
      (17): TransformerEncoderLayer(
        (self_attn): MultiHeadAttention(
          (q_proj): Linear(in_features=1024, out_features=1024, dtype=float32)
          (k_proj): Linear(in_features=1024, out_features=1024, dtype=float32)
          (v_proj): Linear(in_features=1024, out_features=1024, dtype=float32)
          (out_proj): Linear(in_features=1024, out_features=1024, dtype=float32)
        )
        (linear1): Linear(in_features=1024, out_features=4096, dtype=float32)
        (dropout): Dropout(p=0, axis=None, mode=upscale_in_train)
        (linear2): Linear(in_features=4096, out_features=1024, dtype=float32)
        (norm1): LayerNorm(normalized_shape=[1024], epsilon=1e-05)
        (norm2): LayerNorm(normalized_shape=[1024], epsilon=1e-05)
        (dropout1): Dropout(p=0.1, axis=None, mode=upscale_in_train)
        (dropout2): Dropout(p=0.1, axis=None, mode=upscale_in_train)
      )
      (18): TransformerEncoderLayer(
        (self_attn): MultiHeadAttention(
          (q_proj): Linear(in_features=1024, out_features=1024, dtype=float32)
          (k_proj): Linear(in_features=1024, out_features=1024, dtype=float32)
          (v_proj): Linear(in_features=1024, out_features=1024, dtype=float32)
          (out_proj): Linear(in_features=1024, out_features=1024, dtype=float32)
        )
        (linear1): Linear(in_features=1024, out_features=4096, dtype=float32)
        (dropout): Dropout(p=0, axis=None, mode=upscale_in_train)
        (linear2): Linear(in_features=4096, out_features=1024, dtype=float32)
        (norm1): LayerNorm(normalized_shape=[1024], epsilon=1e-05)
        (norm2): LayerNorm(normalized_shape=[1024], epsilon=1e-05)
        (dropout1): Dropout(p=0.1, axis=None, mode=upscale_in_train)
        (dropout2): Dropout(p=0.1, axis=None, mode=upscale_in_train)
      )
      (19): TransformerEncoderLayer(
        (self_attn): MultiHeadAttention(
          (q_proj): Linear(in_features=1024, out_features=1024, dtype=float32)
          (k_proj): Linear(in_features=1024, out_features=1024, dtype=float32)
          (v_proj): Linear(in_features=1024, out_features=1024, dtype=float32)
          (out_proj): Linear(in_features=1024, out_features=1024, dtype=float32)
        )
        (linear1): Linear(in_features=1024, out_features=4096, dtype=float32)
        (dropout): Dropout(p=0, axis=None, mode=upscale_in_train)
        (linear2): Linear(in_features=4096, out_features=1024, dtype=float32)
        (norm1): LayerNorm(normalized_shape=[1024], epsilon=1e-05)
        (norm2): LayerNorm(normalized_shape=[1024], epsilon=1e-05)
        (dropout1): Dropout(p=0.1, axis=None, mode=upscale_in_train)
        (dropout2): Dropout(p=0.1, axis=None, mode=upscale_in_train)
      )
      (20): TransformerEncoderLayer(
        (self_attn): MultiHeadAttention(
          (q_proj): Linear(in_features=1024, out_features=1024, dtype=float32)
          (k_proj): Linear(in_features=1024, out_features=1024, dtype=float32)
          (v_proj): Linear(in_features=1024, out_features=1024, dtype=float32)
          (out_proj): Linear(in_features=1024, out_features=1024, dtype=float32)
        )
        (linear1): Linear(in_features=1024, out_features=4096, dtype=float32)
        (dropout): Dropout(p=0, axis=None, mode=upscale_in_train)
        (linear2): Linear(in_features=4096, out_features=1024, dtype=float32)
        (norm1): LayerNorm(normalized_shape=[1024], epsilon=1e-05)
        (norm2): LayerNorm(normalized_shape=[1024], epsilon=1e-05)
        (dropout1): Dropout(p=0.1, axis=None, mode=upscale_in_train)
        (dropout2): Dropout(p=0.1, axis=None, mode=upscale_in_train)
      )
      (21): TransformerEncoderLayer(
        (self_attn): MultiHeadAttention(
          (q_proj): Linear(in_features=1024, out_features=1024, dtype=float32)
          (k_proj): Linear(in_features=1024, out_features=1024, dtype=float32)
          (v_proj): Linear(in_features=1024, out_features=1024, dtype=float32)
          (out_proj): Linear(in_features=1024, out_features=1024, dtype=float32)
        )
        (linear1): Linear(in_features=1024, out_features=4096, dtype=float32)
        (dropout): Dropout(p=0, axis=None, mode=upscale_in_train)
        (linear2): Linear(in_features=4096, out_features=1024, dtype=float32)
        (norm1): LayerNorm(normalized_shape=[1024], epsilon=1e-05)
        (norm2): LayerNorm(normalized_shape=[1024], epsilon=1e-05)
        (dropout1): Dropout(p=0.1, axis=None, mode=upscale_in_train)
        (dropout2): Dropout(p=0.1, axis=None, mode=upscale_in_train)
      )
      (22): TransformerEncoderLayer(
        (self_attn): MultiHeadAttention(
          (q_proj): Linear(in_features=1024, out_features=1024, dtype=float32)
          (k_proj): Linear(in_features=1024, out_features=1024, dtype=float32)
          (v_proj): Linear(in_features=1024, out_features=1024, dtype=float32)
          (out_proj): Linear(in_features=1024, out_features=1024, dtype=float32)
        )
        (linear1): Linear(in_features=1024, out_features=4096, dtype=float32)
        (dropout): Dropout(p=0, axis=None, mode=upscale_in_train)
        (linear2): Linear(in_features=4096, out_features=1024, dtype=float32)
        (norm1): LayerNorm(normalized_shape=[1024], epsilon=1e-05)
        (norm2): LayerNorm(normalized_shape=[1024], epsilon=1e-05)
        (dropout1): Dropout(p=0.1, axis=None, mode=upscale_in_train)
        (dropout2): Dropout(p=0.1, axis=None, mode=upscale_in_train)
      )
      (23): TransformerEncoderLayer(
        (self_attn): MultiHeadAttention(
          (q_proj): Linear(in_features=1024, out_features=1024, dtype=float32)
          (k_proj): Linear(in_features=1024, out_features=1024, dtype=float32)
          (v_proj): Linear(in_features=1024, out_features=1024, dtype=float32)
          (out_proj): Linear(in_features=1024, out_features=1024, dtype=float32)
        )
        (linear1): Linear(in_features=1024, out_features=4096, dtype=float32)
        (dropout): Dropout(p=0, axis=None, mode=upscale_in_train)
        (linear2): Linear(in_features=4096, out_features=1024, dtype=float32)
        (norm1): LayerNorm(normalized_shape=[1024], epsilon=1e-05)
        (norm2): LayerNorm(normalized_shape=[1024], epsilon=1e-05)
        (dropout1): Dropout(p=0.1, axis=None, mode=upscale_in_train)
        (dropout2): Dropout(p=0.1, axis=None, mode=upscale_in_train)
      )
    )
  )
  (pooler): SkepPooler(
    (dense): Linear(in_features=1024, out_features=1024, dtype=float32)
    (activation): Tanh()
  )
)
