name: ctrl_model_0	labels (NA): NA	CTRLModel(
  (pos_encoding): SinusoidalPositionalEmbedding(50000, 16, sparse=False)
  (w): Embedding(246534, 16, sparse=False)
  (dropout): Dropout(p=0.1, axis=None, mode=upscale_in_train)
  (h): LayerList(
    (0): EncoderLayer(
      (multi_head_attention): MultiHeadAttention(
        (Wq): Linear(in_features=16, out_features=16, dtype=float32)
        (Wk): Linear(in_features=16, out_features=16, dtype=float32)
        (Wv): Linear(in_features=16, out_features=16, dtype=float32)
        (dense): Linear(in_features=16, out_features=16, dtype=float32)
      )
      (ffn): Sequential(
        (0): Linear(in_features=16, out_features=2, dtype=float32)
        (1): ReLU()
        (2): Linear(in_features=2, out_features=16, dtype=float32)
      )
      (layernorm1): LayerNorm(normalized_shape=[16], epsilon=1e-06)
      (layernorm2): LayerNorm(normalized_shape=[16], epsilon=1e-06)
      (dropout1): Dropout(p=0.1, axis=None, mode=upscale_in_train)
      (dropout2): Dropout(p=0.1, axis=None, mode=upscale_in_train)
    )
    (1): EncoderLayer(
      (multi_head_attention): MultiHeadAttention(
        (Wq): Linear(in_features=16, out_features=16, dtype=float32)
        (Wk): Linear(in_features=16, out_features=16, dtype=float32)
        (Wv): Linear(in_features=16, out_features=16, dtype=float32)
        (dense): Linear(in_features=16, out_features=16, dtype=float32)
      )
      (ffn): Sequential(
        (0): Linear(in_features=16, out_features=2, dtype=float32)
        (1): ReLU()
        (2): Linear(in_features=2, out_features=16, dtype=float32)
      )
      (layernorm1): LayerNorm(normalized_shape=[16], epsilon=1e-06)
      (layernorm2): LayerNorm(normalized_shape=[16], epsilon=1e-06)
      (dropout1): Dropout(p=0.1, axis=None, mode=upscale_in_train)
      (dropout2): Dropout(p=0.1, axis=None, mode=upscale_in_train)
    )
  )
  (layernorm): LayerNorm(normalized_shape=[16], epsilon=1e-06)
)
