model: hf-internal-testing/processor_with_lm	model: hf-internal-testing/processor_with_lm	downloads: 19643	likes: 0	task: automatic-speech-recognition
model: hf-internal-testing/processor_with_lm	labels: LABEL_0, LABEL_1
Wav2Vec2ForCTC(
  (wav2vec2): Wav2Vec2Model(
    (feature_extractor): Wav2Vec2FeatureEncoder(
      (conv_layers): ModuleList(
        (0): Wav2Vec2LayerNormConvLayer(
          (conv): Conv1d(1, 32, kernel_size=(8,), stride=(4,), bias=False)
          (layer_norm): LayerNorm((32,), eps=1e-05, elementwise_affine=True)
        )
        (1): Wav2Vec2LayerNormConvLayer(
          (conv): Conv1d(32, 32, kernel_size=(8,), stride=(4,), bias=False)
          (layer_norm): LayerNorm((32,), eps=1e-05, elementwise_affine=True)
        )
        (2): Wav2Vec2LayerNormConvLayer(
          (conv): Conv1d(32, 32, kernel_size=(8,), stride=(4,), bias=False)
          (layer_norm): LayerNorm((32,), eps=1e-05, elementwise_affine=True)
        )
      )
    )
    (feature_projection): Wav2Vec2FeatureProjection(
      (layer_norm): LayerNorm((32,), eps=1e-05, elementwise_affine=True)
      (projection): Linear(in_features=32, out_features=16, bias=True)
      (dropout): Dropout(p=0.1, inplace=False)
    )
    (encoder): Wav2Vec2EncoderStableLayerNorm(
      (pos_conv_embed): Wav2Vec2PositionalConvEmbedding(
        (conv): Conv1d(16, 16, kernel_size=(16,), stride=(1,), padding=(8,), groups=2)
        (padding): Wav2Vec2SamePadLayer()
      )
      (layer_norm): LayerNorm((16,), eps=1e-05, elementwise_affine=True)
      (dropout): Dropout(p=0.1, inplace=False)
      (layers): ModuleList(
        (0): Wav2Vec2EncoderLayerStableLayerNorm(
          (attention): Wav2Vec2Attention(
            (k_proj): Linear(in_features=16, out_features=16, bias=True)
            (v_proj): Linear(in_features=16, out_features=16, bias=True)
            (q_proj): Linear(in_features=16, out_features=16, bias=True)
            (out_proj): Linear(in_features=16, out_features=16, bias=True)
          )
          (dropout): Dropout(p=0.1, inplace=False)
          (layer_norm): LayerNorm((16,), eps=1e-05, elementwise_affine=True)
          (feed_forward): Wav2Vec2FeedForward(
            (intermediate_dropout): Dropout(p=0.1, inplace=False)
            (intermediate_dense): Linear(in_features=16, out_features=20, bias=True)
            (output_dense): Linear(in_features=20, out_features=16, bias=True)
            (output_dropout): Dropout(p=0.1, inplace=False)
          )
          (final_layer_norm): LayerNorm((16,), eps=1e-05, elementwise_affine=True)
        )
        (1): Wav2Vec2EncoderLayerStableLayerNorm(
          (attention): Wav2Vec2Attention(
            (k_proj): Linear(in_features=16, out_features=16, bias=True)
            (v_proj): Linear(in_features=16, out_features=16, bias=True)
            (q_proj): Linear(in_features=16, out_features=16, bias=True)
            (out_proj): Linear(in_features=16, out_features=16, bias=True)
          )
          (dropout): Dropout(p=0.1, inplace=False)
          (layer_norm): LayerNorm((16,), eps=1e-05, elementwise_affine=True)
          (feed_forward): Wav2Vec2FeedForward(
            (intermediate_dropout): Dropout(p=0.1, inplace=False)
            (intermediate_dense): Linear(in_features=16, out_features=20, bias=True)
            (output_dense): Linear(in_features=20, out_features=16, bias=True)
            (output_dropout): Dropout(p=0.1, inplace=False)
          )
          (final_layer_norm): LayerNorm((16,), eps=1e-05, elementwise_affine=True)
        )
        (2): Wav2Vec2EncoderLayerStableLayerNorm(
          (attention): Wav2Vec2Attention(
            (k_proj): Linear(in_features=16, out_features=16, bias=True)
            (v_proj): Linear(in_features=16, out_features=16, bias=True)
            (q_proj): Linear(in_features=16, out_features=16, bias=True)
            (out_proj): Linear(in_features=16, out_features=16, bias=True)
          )
          (dropout): Dropout(p=0.1, inplace=False)
          (layer_norm): LayerNorm((16,), eps=1e-05, elementwise_affine=True)
          (feed_forward): Wav2Vec2FeedForward(
            (intermediate_dropout): Dropout(p=0.1, inplace=False)
            (intermediate_dense): Linear(in_features=16, out_features=20, bias=True)
            (output_dense): Linear(in_features=20, out_features=16, bias=True)
            (output_dropout): Dropout(p=0.1, inplace=False)
          )
          (final_layer_norm): LayerNorm((16,), eps=1e-05, elementwise_affine=True)
        )
        (3): Wav2Vec2EncoderLayerStableLayerNorm(
          (attention): Wav2Vec2Attention(
            (k_proj): Linear(in_features=16, out_features=16, bias=True)
            (v_proj): Linear(in_features=16, out_features=16, bias=True)
            (q_proj): Linear(in_features=16, out_features=16, bias=True)
            (out_proj): Linear(in_features=16, out_features=16, bias=True)
          )
          (dropout): Dropout(p=0.1, inplace=False)
          (layer_norm): LayerNorm((16,), eps=1e-05, elementwise_affine=True)
          (feed_forward): Wav2Vec2FeedForward(
            (intermediate_dropout): Dropout(p=0.1, inplace=False)
            (intermediate_dense): Linear(in_features=16, out_features=20, bias=True)
            (output_dense): Linear(in_features=20, out_features=16, bias=True)
            (output_dropout): Dropout(p=0.1, inplace=False)
          )
          (final_layer_norm): LayerNorm((16,), eps=1e-05, elementwise_affine=True)
        )
      )
    )
  )
  (dropout): Dropout(p=0.1, inplace=False)
  (lm_head): Linear(in_features=16, out_features=16, bias=True)
)
