model: hf-internal-testing/tiny-random-vit	model: hf-internal-testing/tiny-random-vit	downloads: 8505	likes: 0	task: image-classification
model: hf-internal-testing/tiny-random-vit	labels: LABEL_0, LABEL_1
ViTForImageClassification(
  (vit): ViTModel(
    (embeddings): ViTEmbeddings(
      (patch_embeddings): PatchEmbeddings(
        (projection): Conv2d(3, 32, kernel_size=(2, 2), stride=(2, 2))
      )
      (dropout): Dropout(p=0.1, inplace=False)
    )
    (encoder): ViTEncoder(
      (layer): ModuleList(
        (0): ViTLayer(
          (attention): ViTAttention(
            (attention): ViTSelfAttention(
              (query): Linear(in_features=32, out_features=32, bias=True)
              (key): Linear(in_features=32, out_features=32, bias=True)
              (value): Linear(in_features=32, out_features=32, bias=True)
              (dropout): Dropout(p=0.1, inplace=False)
            )
            (output): ViTSelfOutput(
              (dense): Linear(in_features=32, out_features=32, bias=True)
              (dropout): Dropout(p=0.1, inplace=False)
            )
          )
          (intermediate): ViTIntermediate(
            (dense): Linear(in_features=32, out_features=37, bias=True)
          )
          (output): ViTOutput(
            (dense): Linear(in_features=37, out_features=32, bias=True)
            (dropout): Dropout(p=0.1, inplace=False)
          )
          (layernorm_before): LayerNorm((32,), eps=1e-12, elementwise_affine=True)
          (layernorm_after): LayerNorm((32,), eps=1e-12, elementwise_affine=True)
        )
        (1): ViTLayer(
          (attention): ViTAttention(
            (attention): ViTSelfAttention(
              (query): Linear(in_features=32, out_features=32, bias=True)
              (key): Linear(in_features=32, out_features=32, bias=True)
              (value): Linear(in_features=32, out_features=32, bias=True)
              (dropout): Dropout(p=0.1, inplace=False)
            )
            (output): ViTSelfOutput(
              (dense): Linear(in_features=32, out_features=32, bias=True)
              (dropout): Dropout(p=0.1, inplace=False)
            )
          )
          (intermediate): ViTIntermediate(
            (dense): Linear(in_features=32, out_features=37, bias=True)
          )
          (output): ViTOutput(
            (dense): Linear(in_features=37, out_features=32, bias=True)
            (dropout): Dropout(p=0.1, inplace=False)
          )
          (layernorm_before): LayerNorm((32,), eps=1e-12, elementwise_affine=True)
          (layernorm_after): LayerNorm((32,), eps=1e-12, elementwise_affine=True)
        )
        (2): ViTLayer(
          (attention): ViTAttention(
            (attention): ViTSelfAttention(
              (query): Linear(in_features=32, out_features=32, bias=True)
              (key): Linear(in_features=32, out_features=32, bias=True)
              (value): Linear(in_features=32, out_features=32, bias=True)
              (dropout): Dropout(p=0.1, inplace=False)
            )
            (output): ViTSelfOutput(
              (dense): Linear(in_features=32, out_features=32, bias=True)
              (dropout): Dropout(p=0.1, inplace=False)
            )
          )
          (intermediate): ViTIntermediate(
            (dense): Linear(in_features=32, out_features=37, bias=True)
          )
          (output): ViTOutput(
            (dense): Linear(in_features=37, out_features=32, bias=True)
            (dropout): Dropout(p=0.1, inplace=False)
          )
          (layernorm_before): LayerNorm((32,), eps=1e-12, elementwise_affine=True)
          (layernorm_after): LayerNorm((32,), eps=1e-12, elementwise_affine=True)
        )
        (3): ViTLayer(
          (attention): ViTAttention(
            (attention): ViTSelfAttention(
              (query): Linear(in_features=32, out_features=32, bias=True)
              (key): Linear(in_features=32, out_features=32, bias=True)
              (value): Linear(in_features=32, out_features=32, bias=True)
              (dropout): Dropout(p=0.1, inplace=False)
            )
            (output): ViTSelfOutput(
              (dense): Linear(in_features=32, out_features=32, bias=True)
              (dropout): Dropout(p=0.1, inplace=False)
            )
          )
          (intermediate): ViTIntermediate(
            (dense): Linear(in_features=32, out_features=37, bias=True)
          )
          (output): ViTOutput(
            (dense): Linear(in_features=37, out_features=32, bias=True)
            (dropout): Dropout(p=0.1, inplace=False)
          )
          (layernorm_before): LayerNorm((32,), eps=1e-12, elementwise_affine=True)
          (layernorm_after): LayerNorm((32,), eps=1e-12, elementwise_affine=True)
        )
        (4): ViTLayer(
          (attention): ViTAttention(
            (attention): ViTSelfAttention(
              (query): Linear(in_features=32, out_features=32, bias=True)
              (key): Linear(in_features=32, out_features=32, bias=True)
              (value): Linear(in_features=32, out_features=32, bias=True)
              (dropout): Dropout(p=0.1, inplace=False)
            )
            (output): ViTSelfOutput(
              (dense): Linear(in_features=32, out_features=32, bias=True)
              (dropout): Dropout(p=0.1, inplace=False)
            )
          )
          (intermediate): ViTIntermediate(
            (dense): Linear(in_features=32, out_features=37, bias=True)
          )
          (output): ViTOutput(
            (dense): Linear(in_features=37, out_features=32, bias=True)
            (dropout): Dropout(p=0.1, inplace=False)
          )
          (layernorm_before): LayerNorm((32,), eps=1e-12, elementwise_affine=True)
          (layernorm_after): LayerNorm((32,), eps=1e-12, elementwise_affine=True)
        )
      )
    )
    (layernorm): LayerNorm((32,), eps=1e-12, elementwise_affine=True)
  )
  (classifier): Linear(in_features=32, out_features=2, bias=True)
)
