We use pattern recognition to recognize the Tokenizer class.
name: electra_model_0	labels (NA): NA	ElectraModel(
  (embeddings): ElectraEmbeddings(
    (word_embeddings): Embedding(21128, 768, sparse=False)
    (position_embeddings): Embedding(512, 768, sparse=False)
    (token_type_embeddings): Embedding(2, 768, sparse=False)
    (layer_norm): LayerNorm(normalized_shape=[768], epsilon=1e-12)
    (dropout): Dropout(p=0.1, axis=None, mode=upscale_in_train)
  )
  (encoder): TransformerEncoderPro(
    (layers): LayerList(
      (0): TransformerEncoderLayerPro(
        (self_attn): MultiHeadAttention(
          (q_proj): Linear(in_features=768, out_features=768, dtype=float32)
          (k_proj): Linear(in_features=768, out_features=768, dtype=float32)
          (v_proj): Linear(in_features=768, out_features=768, dtype=float32)
          (out_proj): Linear(in_features=768, out_features=768, dtype=float32)
        )
        (linear1): Linear(in_features=768, out_features=3072, dtype=float32)
        (dropout): Dropout(p=0, axis=None, mode=upscale_in_train)
        (linear2): Linear(in_features=3072, out_features=768, dtype=float32)
        (norm1): LayerNorm(normalized_shape=[768], epsilon=1e-12)
        (norm2): LayerNorm(normalized_shape=[768], epsilon=1e-12)
        (dropout1): Dropout(p=0.1, axis=None, mode=upscale_in_train)
        (dropout2): Dropout(p=0.1, axis=None, mode=upscale_in_train)
      )
      (1): TransformerEncoderLayerPro(
        (self_attn): MultiHeadAttention(
          (q_proj): Linear(in_features=768, out_features=768, dtype=float32)
          (k_proj): Linear(in_features=768, out_features=768, dtype=float32)
          (v_proj): Linear(in_features=768, out_features=768, dtype=float32)
          (out_proj): Linear(in_features=768, out_features=768, dtype=float32)
        )
        (linear1): Linear(in_features=768, out_features=3072, dtype=float32)
        (dropout): Dropout(p=0, axis=None, mode=upscale_in_train)
        (linear2): Linear(in_features=3072, out_features=768, dtype=float32)
        (norm1): LayerNorm(normalized_shape=[768], epsilon=1e-12)
        (norm2): LayerNorm(normalized_shape=[768], epsilon=1e-12)
        (dropout1): Dropout(p=0.1, axis=None, mode=upscale_in_train)
        (dropout2): Dropout(p=0.1, axis=None, mode=upscale_in_train)
      )
      (2): TransformerEncoderLayerPro(
        (self_attn): MultiHeadAttention(
          (q_proj): Linear(in_features=768, out_features=768, dtype=float32)
          (k_proj): Linear(in_features=768, out_features=768, dtype=float32)
          (v_proj): Linear(in_features=768, out_features=768, dtype=float32)
          (out_proj): Linear(in_features=768, out_features=768, dtype=float32)
        )
        (linear1): Linear(in_features=768, out_features=3072, dtype=float32)
        (dropout): Dropout(p=0, axis=None, mode=upscale_in_train)
        (linear2): Linear(in_features=3072, out_features=768, dtype=float32)
        (norm1): LayerNorm(normalized_shape=[768], epsilon=1e-12)
        (norm2): LayerNorm(normalized_shape=[768], epsilon=1e-12)
        (dropout1): Dropout(p=0.1, axis=None, mode=upscale_in_train)
        (dropout2): Dropout(p=0.1, axis=None, mode=upscale_in_train)
      )
      (3): TransformerEncoderLayerPro(
        (self_attn): MultiHeadAttention(
          (q_proj): Linear(in_features=768, out_features=768, dtype=float32)
          (k_proj): Linear(in_features=768, out_features=768, dtype=float32)
          (v_proj): Linear(in_features=768, out_features=768, dtype=float32)
          (out_proj): Linear(in_features=768, out_features=768, dtype=float32)
        )
        (linear1): Linear(in_features=768, out_features=3072, dtype=float32)
        (dropout): Dropout(p=0, axis=None, mode=upscale_in_train)
        (linear2): Linear(in_features=3072, out_features=768, dtype=float32)
        (norm1): LayerNorm(normalized_shape=[768], epsilon=1e-12)
        (norm2): LayerNorm(normalized_shape=[768], epsilon=1e-12)
        (dropout1): Dropout(p=0.1, axis=None, mode=upscale_in_train)
        (dropout2): Dropout(p=0.1, axis=None, mode=upscale_in_train)
      )
      (4): TransformerEncoderLayerPro(
        (self_attn): MultiHeadAttention(
          (q_proj): Linear(in_features=768, out_features=768, dtype=float32)
          (k_proj): Linear(in_features=768, out_features=768, dtype=float32)
          (v_proj): Linear(in_features=768, out_features=768, dtype=float32)
          (out_proj): Linear(in_features=768, out_features=768, dtype=float32)
        )
        (linear1): Linear(in_features=768, out_features=3072, dtype=float32)
        (dropout): Dropout(p=0, axis=None, mode=upscale_in_train)
        (linear2): Linear(in_features=3072, out_features=768, dtype=float32)
        (norm1): LayerNorm(normalized_shape=[768], epsilon=1e-12)
        (norm2): LayerNorm(normalized_shape=[768], epsilon=1e-12)
        (dropout1): Dropout(p=0.1, axis=None, mode=upscale_in_train)
        (dropout2): Dropout(p=0.1, axis=None, mode=upscale_in_train)
      )
      (5): TransformerEncoderLayerPro(
        (self_attn): MultiHeadAttention(
          (q_proj): Linear(in_features=768, out_features=768, dtype=float32)
          (k_proj): Linear(in_features=768, out_features=768, dtype=float32)
          (v_proj): Linear(in_features=768, out_features=768, dtype=float32)
          (out_proj): Linear(in_features=768, out_features=768, dtype=float32)
        )
        (linear1): Linear(in_features=768, out_features=3072, dtype=float32)
        (dropout): Dropout(p=0, axis=None, mode=upscale_in_train)
        (linear2): Linear(in_features=3072, out_features=768, dtype=float32)
        (norm1): LayerNorm(normalized_shape=[768], epsilon=1e-12)
        (norm2): LayerNorm(normalized_shape=[768], epsilon=1e-12)
        (dropout1): Dropout(p=0.1, axis=None, mode=upscale_in_train)
        (dropout2): Dropout(p=0.1, axis=None, mode=upscale_in_train)
      )
      (6): TransformerEncoderLayerPro(
        (self_attn): MultiHeadAttention(
          (q_proj): Linear(in_features=768, out_features=768, dtype=float32)
          (k_proj): Linear(in_features=768, out_features=768, dtype=float32)
          (v_proj): Linear(in_features=768, out_features=768, dtype=float32)
          (out_proj): Linear(in_features=768, out_features=768, dtype=float32)
        )
        (linear1): Linear(in_features=768, out_features=3072, dtype=float32)
        (dropout): Dropout(p=0, axis=None, mode=upscale_in_train)
        (linear2): Linear(in_features=3072, out_features=768, dtype=float32)
        (norm1): LayerNorm(normalized_shape=[768], epsilon=1e-12)
        (norm2): LayerNorm(normalized_shape=[768], epsilon=1e-12)
        (dropout1): Dropout(p=0.1, axis=None, mode=upscale_in_train)
        (dropout2): Dropout(p=0.1, axis=None, mode=upscale_in_train)
      )
      (7): TransformerEncoderLayerPro(
        (self_attn): MultiHeadAttention(
          (q_proj): Linear(in_features=768, out_features=768, dtype=float32)
          (k_proj): Linear(in_features=768, out_features=768, dtype=float32)
          (v_proj): Linear(in_features=768, out_features=768, dtype=float32)
          (out_proj): Linear(in_features=768, out_features=768, dtype=float32)
        )
        (linear1): Linear(in_features=768, out_features=3072, dtype=float32)
        (dropout): Dropout(p=0, axis=None, mode=upscale_in_train)
        (linear2): Linear(in_features=3072, out_features=768, dtype=float32)
        (norm1): LayerNorm(normalized_shape=[768], epsilon=1e-12)
        (norm2): LayerNorm(normalized_shape=[768], epsilon=1e-12)
        (dropout1): Dropout(p=0.1, axis=None, mode=upscale_in_train)
        (dropout2): Dropout(p=0.1, axis=None, mode=upscale_in_train)
      )
      (8): TransformerEncoderLayerPro(
        (self_attn): MultiHeadAttention(
          (q_proj): Linear(in_features=768, out_features=768, dtype=float32)
          (k_proj): Linear(in_features=768, out_features=768, dtype=float32)
          (v_proj): Linear(in_features=768, out_features=768, dtype=float32)
          (out_proj): Linear(in_features=768, out_features=768, dtype=float32)
        )
        (linear1): Linear(in_features=768, out_features=3072, dtype=float32)
        (dropout): Dropout(p=0, axis=None, mode=upscale_in_train)
        (linear2): Linear(in_features=3072, out_features=768, dtype=float32)
        (norm1): LayerNorm(normalized_shape=[768], epsilon=1e-12)
        (norm2): LayerNorm(normalized_shape=[768], epsilon=1e-12)
        (dropout1): Dropout(p=0.1, axis=None, mode=upscale_in_train)
        (dropout2): Dropout(p=0.1, axis=None, mode=upscale_in_train)
      )
      (9): TransformerEncoderLayerPro(
        (self_attn): MultiHeadAttention(
          (q_proj): Linear(in_features=768, out_features=768, dtype=float32)
          (k_proj): Linear(in_features=768, out_features=768, dtype=float32)
          (v_proj): Linear(in_features=768, out_features=768, dtype=float32)
          (out_proj): Linear(in_features=768, out_features=768, dtype=float32)
        )
        (linear1): Linear(in_features=768, out_features=3072, dtype=float32)
        (dropout): Dropout(p=0, axis=None, mode=upscale_in_train)
        (linear2): Linear(in_features=3072, out_features=768, dtype=float32)
        (norm1): LayerNorm(normalized_shape=[768], epsilon=1e-12)
        (norm2): LayerNorm(normalized_shape=[768], epsilon=1e-12)
        (dropout1): Dropout(p=0.1, axis=None, mode=upscale_in_train)
        (dropout2): Dropout(p=0.1, axis=None, mode=upscale_in_train)
      )
      (10): TransformerEncoderLayerPro(
        (self_attn): MultiHeadAttention(
          (q_proj): Linear(in_features=768, out_features=768, dtype=float32)
          (k_proj): Linear(in_features=768, out_features=768, dtype=float32)
          (v_proj): Linear(in_features=768, out_features=768, dtype=float32)
          (out_proj): Linear(in_features=768, out_features=768, dtype=float32)
        )
        (linear1): Linear(in_features=768, out_features=3072, dtype=float32)
        (dropout): Dropout(p=0, axis=None, mode=upscale_in_train)
        (linear2): Linear(in_features=3072, out_features=768, dtype=float32)
        (norm1): LayerNorm(normalized_shape=[768], epsilon=1e-12)
        (norm2): LayerNorm(normalized_shape=[768], epsilon=1e-12)
        (dropout1): Dropout(p=0.1, axis=None, mode=upscale_in_train)
        (dropout2): Dropout(p=0.1, axis=None, mode=upscale_in_train)
      )
      (11): TransformerEncoderLayerPro(
        (self_attn): MultiHeadAttention(
          (q_proj): Linear(in_features=768, out_features=768, dtype=float32)
          (k_proj): Linear(in_features=768, out_features=768, dtype=float32)
          (v_proj): Linear(in_features=768, out_features=768, dtype=float32)
          (out_proj): Linear(in_features=768, out_features=768, dtype=float32)
        )
        (linear1): Linear(in_features=768, out_features=3072, dtype=float32)
        (dropout): Dropout(p=0, axis=None, mode=upscale_in_train)
        (linear2): Linear(in_features=3072, out_features=768, dtype=float32)
        (norm1): LayerNorm(normalized_shape=[768], epsilon=1e-12)
        (norm2): LayerNorm(normalized_shape=[768], epsilon=1e-12)
        (dropout1): Dropout(p=0.1, axis=None, mode=upscale_in_train)
        (dropout2): Dropout(p=0.1, axis=None, mode=upscale_in_train)
      )
    )
  )
)
