name: gpt_model_0	labels (NA): NA	GPTModel(
  (embeddings): GPTEmbeddings(
    (word_embeddings): Embedding(50257, 1024, sparse=False)
    (position_embeddings): Embedding(1024, 1024, sparse=False)
    (dropout): Dropout(p=0.1, axis=None, mode=upscale_in_train)
  )
  (decoder): TransformerDecoder(
    (layers): LayerList(
      (0): TransformerDecoderLayer(
        (self_attn): MultiHeadAttention(
          (q_proj): Linear(in_features=1024, out_features=1024, dtype=float32)
          (k_proj): Linear(in_features=1024, out_features=1024, dtype=float32)
          (v_proj): Linear(in_features=1024, out_features=1024, dtype=float32)
          (out_proj): Linear(in_features=1024, out_features=1024, dtype=float32)
        )
        (linear1): Linear(in_features=1024, out_features=4096, dtype=float32)
        (linear2): Linear(in_features=4096, out_features=1024, dtype=float32)
        (norm1): LayerNorm(normalized_shape=[1024], epsilon=1e-05)
        (norm2): LayerNorm(normalized_shape=[1024], epsilon=1e-05)
        (dropout1): Dropout(p=0.1, axis=None, mode=upscale_in_train)
        (dropout2): Dropout(p=0.1, axis=None, mode=upscale_in_train)
      )
      (1): TransformerDecoderLayer(
        (self_attn): MultiHeadAttention(
          (q_proj): Linear(in_features=1024, out_features=1024, dtype=float32)
          (k_proj): Linear(in_features=1024, out_features=1024, dtype=float32)
          (v_proj): Linear(in_features=1024, out_features=1024, dtype=float32)
          (out_proj): Linear(in_features=1024, out_features=1024, dtype=float32)
        )
        (linear1): Linear(in_features=1024, out_features=4096, dtype=float32)
        (linear2): Linear(in_features=4096, out_features=1024, dtype=float32)
        (norm1): LayerNorm(normalized_shape=[1024], epsilon=1e-05)
        (norm2): LayerNorm(normalized_shape=[1024], epsilon=1e-05)
        (dropout1): Dropout(p=0.1, axis=None, mode=upscale_in_train)
        (dropout2): Dropout(p=0.1, axis=None, mode=upscale_in_train)
      )
      (2): TransformerDecoderLayer(
        (self_attn): MultiHeadAttention(
          (q_proj): Linear(in_features=1024, out_features=1024, dtype=float32)
          (k_proj): Linear(in_features=1024, out_features=1024, dtype=float32)
          (v_proj): Linear(in_features=1024, out_features=1024, dtype=float32)
          (out_proj): Linear(in_features=1024, out_features=1024, dtype=float32)
        )
        (linear1): Linear(in_features=1024, out_features=4096, dtype=float32)
        (linear2): Linear(in_features=4096, out_features=1024, dtype=float32)
        (norm1): LayerNorm(normalized_shape=[1024], epsilon=1e-05)
        (norm2): LayerNorm(normalized_shape=[1024], epsilon=1e-05)
        (dropout1): Dropout(p=0.1, axis=None, mode=upscale_in_train)
        (dropout2): Dropout(p=0.1, axis=None, mode=upscale_in_train)
      )
      (3): TransformerDecoderLayer(
        (self_attn): MultiHeadAttention(
          (q_proj): Linear(in_features=1024, out_features=1024, dtype=float32)
          (k_proj): Linear(in_features=1024, out_features=1024, dtype=float32)
          (v_proj): Linear(in_features=1024, out_features=1024, dtype=float32)
          (out_proj): Linear(in_features=1024, out_features=1024, dtype=float32)
        )
        (linear1): Linear(in_features=1024, out_features=4096, dtype=float32)
        (linear2): Linear(in_features=4096, out_features=1024, dtype=float32)
        (norm1): LayerNorm(normalized_shape=[1024], epsilon=1e-05)
        (norm2): LayerNorm(normalized_shape=[1024], epsilon=1e-05)
        (dropout1): Dropout(p=0.1, axis=None, mode=upscale_in_train)
        (dropout2): Dropout(p=0.1, axis=None, mode=upscale_in_train)
      )
      (4): TransformerDecoderLayer(
        (self_attn): MultiHeadAttention(
          (q_proj): Linear(in_features=1024, out_features=1024, dtype=float32)
          (k_proj): Linear(in_features=1024, out_features=1024, dtype=float32)
          (v_proj): Linear(in_features=1024, out_features=1024, dtype=float32)
          (out_proj): Linear(in_features=1024, out_features=1024, dtype=float32)
        )
        (linear1): Linear(in_features=1024, out_features=4096, dtype=float32)
        (linear2): Linear(in_features=4096, out_features=1024, dtype=float32)
        (norm1): LayerNorm(normalized_shape=[1024], epsilon=1e-05)
        (norm2): LayerNorm(normalized_shape=[1024], epsilon=1e-05)
        (dropout1): Dropout(p=0.1, axis=None, mode=upscale_in_train)
        (dropout2): Dropout(p=0.1, axis=None, mode=upscale_in_train)
      )
      (5): TransformerDecoderLayer(
        (self_attn): MultiHeadAttention(
          (q_proj): Linear(in_features=1024, out_features=1024, dtype=float32)
          (k_proj): Linear(in_features=1024, out_features=1024, dtype=float32)
          (v_proj): Linear(in_features=1024, out_features=1024, dtype=float32)
          (out_proj): Linear(in_features=1024, out_features=1024, dtype=float32)
        )
        (linear1): Linear(in_features=1024, out_features=4096, dtype=float32)
        (linear2): Linear(in_features=4096, out_features=1024, dtype=float32)
        (norm1): LayerNorm(normalized_shape=[1024], epsilon=1e-05)
        (norm2): LayerNorm(normalized_shape=[1024], epsilon=1e-05)
        (dropout1): Dropout(p=0.1, axis=None, mode=upscale_in_train)
        (dropout2): Dropout(p=0.1, axis=None, mode=upscale_in_train)
      )
      (6): TransformerDecoderLayer(
        (self_attn): MultiHeadAttention(
          (q_proj): Linear(in_features=1024, out_features=1024, dtype=float32)
          (k_proj): Linear(in_features=1024, out_features=1024, dtype=float32)
          (v_proj): Linear(in_features=1024, out_features=1024, dtype=float32)
          (out_proj): Linear(in_features=1024, out_features=1024, dtype=float32)
        )
        (linear1): Linear(in_features=1024, out_features=4096, dtype=float32)
        (linear2): Linear(in_features=4096, out_features=1024, dtype=float32)
        (norm1): LayerNorm(normalized_shape=[1024], epsilon=1e-05)
        (norm2): LayerNorm(normalized_shape=[1024], epsilon=1e-05)
        (dropout1): Dropout(p=0.1, axis=None, mode=upscale_in_train)
        (dropout2): Dropout(p=0.1, axis=None, mode=upscale_in_train)
      )
      (7): TransformerDecoderLayer(
        (self_attn): MultiHeadAttention(
          (q_proj): Linear(in_features=1024, out_features=1024, dtype=float32)
          (k_proj): Linear(in_features=1024, out_features=1024, dtype=float32)
          (v_proj): Linear(in_features=1024, out_features=1024, dtype=float32)
          (out_proj): Linear(in_features=1024, out_features=1024, dtype=float32)
        )
        (linear1): Linear(in_features=1024, out_features=4096, dtype=float32)
        (linear2): Linear(in_features=4096, out_features=1024, dtype=float32)
        (norm1): LayerNorm(normalized_shape=[1024], epsilon=1e-05)
        (norm2): LayerNorm(normalized_shape=[1024], epsilon=1e-05)
        (dropout1): Dropout(p=0.1, axis=None, mode=upscale_in_train)
        (dropout2): Dropout(p=0.1, axis=None, mode=upscale_in_train)
      )
      (8): TransformerDecoderLayer(
        (self_attn): MultiHeadAttention(
          (q_proj): Linear(in_features=1024, out_features=1024, dtype=float32)
          (k_proj): Linear(in_features=1024, out_features=1024, dtype=float32)
          (v_proj): Linear(in_features=1024, out_features=1024, dtype=float32)
          (out_proj): Linear(in_features=1024, out_features=1024, dtype=float32)
        )
        (linear1): Linear(in_features=1024, out_features=4096, dtype=float32)
        (linear2): Linear(in_features=4096, out_features=1024, dtype=float32)
        (norm1): LayerNorm(normalized_shape=[1024], epsilon=1e-05)
        (norm2): LayerNorm(normalized_shape=[1024], epsilon=1e-05)
        (dropout1): Dropout(p=0.1, axis=None, mode=upscale_in_train)
        (dropout2): Dropout(p=0.1, axis=None, mode=upscale_in_train)
      )
      (9): TransformerDecoderLayer(
        (self_attn): MultiHeadAttention(
          (q_proj): Linear(in_features=1024, out_features=1024, dtype=float32)
          (k_proj): Linear(in_features=1024, out_features=1024, dtype=float32)
          (v_proj): Linear(in_features=1024, out_features=1024, dtype=float32)
          (out_proj): Linear(in_features=1024, out_features=1024, dtype=float32)
        )
        (linear1): Linear(in_features=1024, out_features=4096, dtype=float32)
        (linear2): Linear(in_features=4096, out_features=1024, dtype=float32)
        (norm1): LayerNorm(normalized_shape=[1024], epsilon=1e-05)
        (norm2): LayerNorm(normalized_shape=[1024], epsilon=1e-05)
        (dropout1): Dropout(p=0.1, axis=None, mode=upscale_in_train)
        (dropout2): Dropout(p=0.1, axis=None, mode=upscale_in_train)
      )
      (10): TransformerDecoderLayer(
        (self_attn): MultiHeadAttention(
          (q_proj): Linear(in_features=1024, out_features=1024, dtype=float32)
          (k_proj): Linear(in_features=1024, out_features=1024, dtype=float32)
          (v_proj): Linear(in_features=1024, out_features=1024, dtype=float32)
          (out_proj): Linear(in_features=1024, out_features=1024, dtype=float32)
        )
        (linear1): Linear(in_features=1024, out_features=4096, dtype=float32)
        (linear2): Linear(in_features=4096, out_features=1024, dtype=float32)
        (norm1): LayerNorm(normalized_shape=[1024], epsilon=1e-05)
        (norm2): LayerNorm(normalized_shape=[1024], epsilon=1e-05)
        (dropout1): Dropout(p=0.1, axis=None, mode=upscale_in_train)
        (dropout2): Dropout(p=0.1, axis=None, mode=upscale_in_train)
      )
      (11): TransformerDecoderLayer(
        (self_attn): MultiHeadAttention(
          (q_proj): Linear(in_features=1024, out_features=1024, dtype=float32)
          (k_proj): Linear(in_features=1024, out_features=1024, dtype=float32)
          (v_proj): Linear(in_features=1024, out_features=1024, dtype=float32)
          (out_proj): Linear(in_features=1024, out_features=1024, dtype=float32)
        )
        (linear1): Linear(in_features=1024, out_features=4096, dtype=float32)
        (linear2): Linear(in_features=4096, out_features=1024, dtype=float32)
        (norm1): LayerNorm(normalized_shape=[1024], epsilon=1e-05)
        (norm2): LayerNorm(normalized_shape=[1024], epsilon=1e-05)
        (dropout1): Dropout(p=0.1, axis=None, mode=upscale_in_train)
        (dropout2): Dropout(p=0.1, axis=None, mode=upscale_in_train)
      )
      (12): TransformerDecoderLayer(
        (self_attn): MultiHeadAttention(
          (q_proj): Linear(in_features=1024, out_features=1024, dtype=float32)
          (k_proj): Linear(in_features=1024, out_features=1024, dtype=float32)
          (v_proj): Linear(in_features=1024, out_features=1024, dtype=float32)
          (out_proj): Linear(in_features=1024, out_features=1024, dtype=float32)
        )
        (linear1): Linear(in_features=1024, out_features=4096, dtype=float32)
        (linear2): Linear(in_features=4096, out_features=1024, dtype=float32)
        (norm1): LayerNorm(normalized_shape=[1024], epsilon=1e-05)
        (norm2): LayerNorm(normalized_shape=[1024], epsilon=1e-05)
        (dropout1): Dropout(p=0.1, axis=None, mode=upscale_in_train)
        (dropout2): Dropout(p=0.1, axis=None, mode=upscale_in_train)
      )
      (13): TransformerDecoderLayer(
        (self_attn): MultiHeadAttention(
          (q_proj): Linear(in_features=1024, out_features=1024, dtype=float32)
          (k_proj): Linear(in_features=1024, out_features=1024, dtype=float32)
          (v_proj): Linear(in_features=1024, out_features=1024, dtype=float32)
          (out_proj): Linear(in_features=1024, out_features=1024, dtype=float32)
        )
        (linear1): Linear(in_features=1024, out_features=4096, dtype=float32)
        (linear2): Linear(in_features=4096, out_features=1024, dtype=float32)
        (norm1): LayerNorm(normalized_shape=[1024], epsilon=1e-05)
        (norm2): LayerNorm(normalized_shape=[1024], epsilon=1e-05)
        (dropout1): Dropout(p=0.1, axis=None, mode=upscale_in_train)
        (dropout2): Dropout(p=0.1, axis=None, mode=upscale_in_train)
      )
      (14): TransformerDecoderLayer(
        (self_attn): MultiHeadAttention(
          (q_proj): Linear(in_features=1024, out_features=1024, dtype=float32)
          (k_proj): Linear(in_features=1024, out_features=1024, dtype=float32)
          (v_proj): Linear(in_features=1024, out_features=1024, dtype=float32)
          (out_proj): Linear(in_features=1024, out_features=1024, dtype=float32)
        )
        (linear1): Linear(in_features=1024, out_features=4096, dtype=float32)
        (linear2): Linear(in_features=4096, out_features=1024, dtype=float32)
        (norm1): LayerNorm(normalized_shape=[1024], epsilon=1e-05)
        (norm2): LayerNorm(normalized_shape=[1024], epsilon=1e-05)
        (dropout1): Dropout(p=0.1, axis=None, mode=upscale_in_train)
        (dropout2): Dropout(p=0.1, axis=None, mode=upscale_in_train)
      )
      (15): TransformerDecoderLayer(
        (self_attn): MultiHeadAttention(
          (q_proj): Linear(in_features=1024, out_features=1024, dtype=float32)
          (k_proj): Linear(in_features=1024, out_features=1024, dtype=float32)
          (v_proj): Linear(in_features=1024, out_features=1024, dtype=float32)
          (out_proj): Linear(in_features=1024, out_features=1024, dtype=float32)
        )
        (linear1): Linear(in_features=1024, out_features=4096, dtype=float32)
        (linear2): Linear(in_features=4096, out_features=1024, dtype=float32)
        (norm1): LayerNorm(normalized_shape=[1024], epsilon=1e-05)
        (norm2): LayerNorm(normalized_shape=[1024], epsilon=1e-05)
        (dropout1): Dropout(p=0.1, axis=None, mode=upscale_in_train)
        (dropout2): Dropout(p=0.1, axis=None, mode=upscale_in_train)
      )
      (16): TransformerDecoderLayer(
        (self_attn): MultiHeadAttention(
          (q_proj): Linear(in_features=1024, out_features=1024, dtype=float32)
          (k_proj): Linear(in_features=1024, out_features=1024, dtype=float32)
          (v_proj): Linear(in_features=1024, out_features=1024, dtype=float32)
          (out_proj): Linear(in_features=1024, out_features=1024, dtype=float32)
        )
        (linear1): Linear(in_features=1024, out_features=4096, dtype=float32)
        (linear2): Linear(in_features=4096, out_features=1024, dtype=float32)
        (norm1): LayerNorm(normalized_shape=[1024], epsilon=1e-05)
        (norm2): LayerNorm(normalized_shape=[1024], epsilon=1e-05)
        (dropout1): Dropout(p=0.1, axis=None, mode=upscale_in_train)
        (dropout2): Dropout(p=0.1, axis=None, mode=upscale_in_train)
      )
      (17): TransformerDecoderLayer(
        (self_attn): MultiHeadAttention(
          (q_proj): Linear(in_features=1024, out_features=1024, dtype=float32)
          (k_proj): Linear(in_features=1024, out_features=1024, dtype=float32)
          (v_proj): Linear(in_features=1024, out_features=1024, dtype=float32)
          (out_proj): Linear(in_features=1024, out_features=1024, dtype=float32)
        )
        (linear1): Linear(in_features=1024, out_features=4096, dtype=float32)
        (linear2): Linear(in_features=4096, out_features=1024, dtype=float32)
        (norm1): LayerNorm(normalized_shape=[1024], epsilon=1e-05)
        (norm2): LayerNorm(normalized_shape=[1024], epsilon=1e-05)
        (dropout1): Dropout(p=0.1, axis=None, mode=upscale_in_train)
        (dropout2): Dropout(p=0.1, axis=None, mode=upscale_in_train)
      )
      (18): TransformerDecoderLayer(
        (self_attn): MultiHeadAttention(
          (q_proj): Linear(in_features=1024, out_features=1024, dtype=float32)
          (k_proj): Linear(in_features=1024, out_features=1024, dtype=float32)
          (v_proj): Linear(in_features=1024, out_features=1024, dtype=float32)
          (out_proj): Linear(in_features=1024, out_features=1024, dtype=float32)
        )
        (linear1): Linear(in_features=1024, out_features=4096, dtype=float32)
        (linear2): Linear(in_features=4096, out_features=1024, dtype=float32)
        (norm1): LayerNorm(normalized_shape=[1024], epsilon=1e-05)
        (norm2): LayerNorm(normalized_shape=[1024], epsilon=1e-05)
        (dropout1): Dropout(p=0.1, axis=None, mode=upscale_in_train)
        (dropout2): Dropout(p=0.1, axis=None, mode=upscale_in_train)
      )
      (19): TransformerDecoderLayer(
        (self_attn): MultiHeadAttention(
          (q_proj): Linear(in_features=1024, out_features=1024, dtype=float32)
          (k_proj): Linear(in_features=1024, out_features=1024, dtype=float32)
          (v_proj): Linear(in_features=1024, out_features=1024, dtype=float32)
          (out_proj): Linear(in_features=1024, out_features=1024, dtype=float32)
        )
        (linear1): Linear(in_features=1024, out_features=4096, dtype=float32)
        (linear2): Linear(in_features=4096, out_features=1024, dtype=float32)
        (norm1): LayerNorm(normalized_shape=[1024], epsilon=1e-05)
        (norm2): LayerNorm(normalized_shape=[1024], epsilon=1e-05)
        (dropout1): Dropout(p=0.1, axis=None, mode=upscale_in_train)
        (dropout2): Dropout(p=0.1, axis=None, mode=upscale_in_train)
      )
      (20): TransformerDecoderLayer(
        (self_attn): MultiHeadAttention(
          (q_proj): Linear(in_features=1024, out_features=1024, dtype=float32)
          (k_proj): Linear(in_features=1024, out_features=1024, dtype=float32)
          (v_proj): Linear(in_features=1024, out_features=1024, dtype=float32)
          (out_proj): Linear(in_features=1024, out_features=1024, dtype=float32)
        )
        (linear1): Linear(in_features=1024, out_features=4096, dtype=float32)
        (linear2): Linear(in_features=4096, out_features=1024, dtype=float32)
        (norm1): LayerNorm(normalized_shape=[1024], epsilon=1e-05)
        (norm2): LayerNorm(normalized_shape=[1024], epsilon=1e-05)
        (dropout1): Dropout(p=0.1, axis=None, mode=upscale_in_train)
        (dropout2): Dropout(p=0.1, axis=None, mode=upscale_in_train)
      )
      (21): TransformerDecoderLayer(
        (self_attn): MultiHeadAttention(
          (q_proj): Linear(in_features=1024, out_features=1024, dtype=float32)
          (k_proj): Linear(in_features=1024, out_features=1024, dtype=float32)
          (v_proj): Linear(in_features=1024, out_features=1024, dtype=float32)
          (out_proj): Linear(in_features=1024, out_features=1024, dtype=float32)
        )
        (linear1): Linear(in_features=1024, out_features=4096, dtype=float32)
        (linear2): Linear(in_features=4096, out_features=1024, dtype=float32)
        (norm1): LayerNorm(normalized_shape=[1024], epsilon=1e-05)
        (norm2): LayerNorm(normalized_shape=[1024], epsilon=1e-05)
        (dropout1): Dropout(p=0.1, axis=None, mode=upscale_in_train)
        (dropout2): Dropout(p=0.1, axis=None, mode=upscale_in_train)
      )
      (22): TransformerDecoderLayer(
        (self_attn): MultiHeadAttention(
          (q_proj): Linear(in_features=1024, out_features=1024, dtype=float32)
          (k_proj): Linear(in_features=1024, out_features=1024, dtype=float32)
          (v_proj): Linear(in_features=1024, out_features=1024, dtype=float32)
          (out_proj): Linear(in_features=1024, out_features=1024, dtype=float32)
        )
        (linear1): Linear(in_features=1024, out_features=4096, dtype=float32)
        (linear2): Linear(in_features=4096, out_features=1024, dtype=float32)
        (norm1): LayerNorm(normalized_shape=[1024], epsilon=1e-05)
        (norm2): LayerNorm(normalized_shape=[1024], epsilon=1e-05)
        (dropout1): Dropout(p=0.1, axis=None, mode=upscale_in_train)
        (dropout2): Dropout(p=0.1, axis=None, mode=upscale_in_train)
      )
      (23): TransformerDecoderLayer(
        (self_attn): MultiHeadAttention(
          (q_proj): Linear(in_features=1024, out_features=1024, dtype=float32)
          (k_proj): Linear(in_features=1024, out_features=1024, dtype=float32)
          (v_proj): Linear(in_features=1024, out_features=1024, dtype=float32)
          (out_proj): Linear(in_features=1024, out_features=1024, dtype=float32)
        )
        (linear1): Linear(in_features=1024, out_features=4096, dtype=float32)
        (linear2): Linear(in_features=4096, out_features=1024, dtype=float32)
        (norm1): LayerNorm(normalized_shape=[1024], epsilon=1e-05)
        (norm2): LayerNorm(normalized_shape=[1024], epsilon=1e-05)
        (dropout1): Dropout(p=0.1, axis=None, mode=upscale_in_train)
        (dropout2): Dropout(p=0.1, axis=None, mode=upscale_in_train)
      )
    )
    (norm): LayerNorm(normalized_shape=[1024], epsilon=1e-05)
  )
)
