name: bert_model_0	labels (NA): NA	BertModel(
  (embeddings): BertEmbeddings(
    (word_embeddings): Embedding(28996, 2, sparse=False)
    (position_embeddings): Embedding(512, 2, sparse=False)
    (token_type_embeddings): Embedding(2, 2, sparse=False)
    (layer_norm): LayerNorm(normalized_shape=[2], epsilon=1e-12)
    (dropout): Dropout(p=0.1, axis=None, mode=upscale_in_train)
  )
  (encoder): TransformerEncoder(
    (layers): LayerList(
      (0): TransformerEncoderLayer(
        (self_attn): MultiHeadAttention(
          (q_proj): Linear(in_features=2, out_features=2, dtype=float32)
          (k_proj): Linear(in_features=2, out_features=2, dtype=float32)
          (v_proj): Linear(in_features=2, out_features=2, dtype=float32)
          (out_proj): Linear(in_features=2, out_features=2, dtype=float32)
        )
        (linear1): Linear(in_features=2, out_features=4, dtype=float32)
        (dropout): Dropout(p=0, axis=None, mode=upscale_in_train)
        (linear2): Linear(in_features=4, out_features=2, dtype=float32)
        (norm1): LayerNorm(normalized_shape=[2], epsilon=1e-12)
        (norm2): LayerNorm(normalized_shape=[2], epsilon=1e-12)
        (dropout1): Dropout(p=0.1, axis=None, mode=upscale_in_train)
        (dropout2): Dropout(p=0.1, axis=None, mode=upscale_in_train)
      )
      (1): TransformerEncoderLayer(
        (self_attn): MultiHeadAttention(
          (q_proj): Linear(in_features=2, out_features=2, dtype=float32)
          (k_proj): Linear(in_features=2, out_features=2, dtype=float32)
          (v_proj): Linear(in_features=2, out_features=2, dtype=float32)
          (out_proj): Linear(in_features=2, out_features=2, dtype=float32)
        )
        (linear1): Linear(in_features=2, out_features=4, dtype=float32)
        (dropout): Dropout(p=0, axis=None, mode=upscale_in_train)
        (linear2): Linear(in_features=4, out_features=2, dtype=float32)
        (norm1): LayerNorm(normalized_shape=[2], epsilon=1e-12)
        (norm2): LayerNorm(normalized_shape=[2], epsilon=1e-12)
        (dropout1): Dropout(p=0.1, axis=None, mode=upscale_in_train)
        (dropout2): Dropout(p=0.1, axis=None, mode=upscale_in_train)
      )
    )
  )
  (pooler): BertPooler(
    (dense): Linear(in_features=2, out_features=2, dtype=float32)
    (activation): Tanh()
  )
)
