model: facebook/blenderbot_small-90M	model: facebook/blenderbot_small-90M	downloads: 64327	likes: 9	task: conversational
model: facebook/blenderbot_small-90M	labels: LABEL_0, LABEL_1, LABEL_2
BlenderbotSmallForCausalLM(
  (model): BlenderbotSmallDecoderWrapper(
    (decoder): BlenderbotSmallDecoder(
      (embed_tokens): Embedding(54944, 512, padding_idx=0)
      (embed_positions): BlenderbotSmallLearnedPositionalEmbedding(512, 512)
      (layers): ModuleList(
        (0): BlenderbotSmallDecoderLayer(
          (self_attn): BlenderbotSmallAttention(
            (k_proj): Linear(in_features=512, out_features=512, bias=True)
            (v_proj): Linear(in_features=512, out_features=512, bias=True)
            (q_proj): Linear(in_features=512, out_features=512, bias=True)
            (out_proj): Linear(in_features=512, out_features=512, bias=True)
          )
          (self_attn_layer_norm): LayerNorm((512,), eps=1e-05, elementwise_affine=True)
          (encoder_attn): BlenderbotSmallAttention(
            (k_proj): Linear(in_features=512, out_features=512, bias=True)
            (v_proj): Linear(in_features=512, out_features=512, bias=True)
            (q_proj): Linear(in_features=512, out_features=512, bias=True)
            (out_proj): Linear(in_features=512, out_features=512, bias=True)
          )
          (encoder_attn_layer_norm): LayerNorm((512,), eps=1e-05, elementwise_affine=True)
          (fc1): Linear(in_features=512, out_features=2048, bias=True)
          (fc2): Linear(in_features=2048, out_features=512, bias=True)
          (final_layer_norm): LayerNorm((512,), eps=1e-05, elementwise_affine=True)
        )
        (1): BlenderbotSmallDecoderLayer(
          (self_attn): BlenderbotSmallAttention(
            (k_proj): Linear(in_features=512, out_features=512, bias=True)
            (v_proj): Linear(in_features=512, out_features=512, bias=True)
            (q_proj): Linear(in_features=512, out_features=512, bias=True)
            (out_proj): Linear(in_features=512, out_features=512, bias=True)
          )
          (self_attn_layer_norm): LayerNorm((512,), eps=1e-05, elementwise_affine=True)
          (encoder_attn): BlenderbotSmallAttention(
            (k_proj): Linear(in_features=512, out_features=512, bias=True)
            (v_proj): Linear(in_features=512, out_features=512, bias=True)
            (q_proj): Linear(in_features=512, out_features=512, bias=True)
            (out_proj): Linear(in_features=512, out_features=512, bias=True)
          )
          (encoder_attn_layer_norm): LayerNorm((512,), eps=1e-05, elementwise_affine=True)
          (fc1): Linear(in_features=512, out_features=2048, bias=True)
          (fc2): Linear(in_features=2048, out_features=512, bias=True)
          (final_layer_norm): LayerNorm((512,), eps=1e-05, elementwise_affine=True)
        )
        (2): BlenderbotSmallDecoderLayer(
          (self_attn): BlenderbotSmallAttention(
            (k_proj): Linear(in_features=512, out_features=512, bias=True)
            (v_proj): Linear(in_features=512, out_features=512, bias=True)
            (q_proj): Linear(in_features=512, out_features=512, bias=True)
            (out_proj): Linear(in_features=512, out_features=512, bias=True)
          )
          (self_attn_layer_norm): LayerNorm((512,), eps=1e-05, elementwise_affine=True)
          (encoder_attn): BlenderbotSmallAttention(
            (k_proj): Linear(in_features=512, out_features=512, bias=True)
            (v_proj): Linear(in_features=512, out_features=512, bias=True)
            (q_proj): Linear(in_features=512, out_features=512, bias=True)
            (out_proj): Linear(in_features=512, out_features=512, bias=True)
          )
          (encoder_attn_layer_norm): LayerNorm((512,), eps=1e-05, elementwise_affine=True)
          (fc1): Linear(in_features=512, out_features=2048, bias=True)
          (fc2): Linear(in_features=2048, out_features=512, bias=True)
          (final_layer_norm): LayerNorm((512,), eps=1e-05, elementwise_affine=True)
        )
        (3): BlenderbotSmallDecoderLayer(
          (self_attn): BlenderbotSmallAttention(
            (k_proj): Linear(in_features=512, out_features=512, bias=True)
            (v_proj): Linear(in_features=512, out_features=512, bias=True)
            (q_proj): Linear(in_features=512, out_features=512, bias=True)
            (out_proj): Linear(in_features=512, out_features=512, bias=True)
          )
          (self_attn_layer_norm): LayerNorm((512,), eps=1e-05, elementwise_affine=True)
          (encoder_attn): BlenderbotSmallAttention(
            (k_proj): Linear(in_features=512, out_features=512, bias=True)
            (v_proj): Linear(in_features=512, out_features=512, bias=True)
            (q_proj): Linear(in_features=512, out_features=512, bias=True)
            (out_proj): Linear(in_features=512, out_features=512, bias=True)
          )
          (encoder_attn_layer_norm): LayerNorm((512,), eps=1e-05, elementwise_affine=True)
          (fc1): Linear(in_features=512, out_features=2048, bias=True)
          (fc2): Linear(in_features=2048, out_features=512, bias=True)
          (final_layer_norm): LayerNorm((512,), eps=1e-05, elementwise_affine=True)
        )
        (4): BlenderbotSmallDecoderLayer(
          (self_attn): BlenderbotSmallAttention(
            (k_proj): Linear(in_features=512, out_features=512, bias=True)
            (v_proj): Linear(in_features=512, out_features=512, bias=True)
            (q_proj): Linear(in_features=512, out_features=512, bias=True)
            (out_proj): Linear(in_features=512, out_features=512, bias=True)
          )
          (self_attn_layer_norm): LayerNorm((512,), eps=1e-05, elementwise_affine=True)
          (encoder_attn): BlenderbotSmallAttention(
            (k_proj): Linear(in_features=512, out_features=512, bias=True)
            (v_proj): Linear(in_features=512, out_features=512, bias=True)
            (q_proj): Linear(in_features=512, out_features=512, bias=True)
            (out_proj): Linear(in_features=512, out_features=512, bias=True)
          )
          (encoder_attn_layer_norm): LayerNorm((512,), eps=1e-05, elementwise_affine=True)
          (fc1): Linear(in_features=512, out_features=2048, bias=True)
          (fc2): Linear(in_features=2048, out_features=512, bias=True)
          (final_layer_norm): LayerNorm((512,), eps=1e-05, elementwise_affine=True)
        )
        (5): BlenderbotSmallDecoderLayer(
          (self_attn): BlenderbotSmallAttention(
            (k_proj): Linear(in_features=512, out_features=512, bias=True)
            (v_proj): Linear(in_features=512, out_features=512, bias=True)
            (q_proj): Linear(in_features=512, out_features=512, bias=True)
            (out_proj): Linear(in_features=512, out_features=512, bias=True)
          )
          (self_attn_layer_norm): LayerNorm((512,), eps=1e-05, elementwise_affine=True)
          (encoder_attn): BlenderbotSmallAttention(
            (k_proj): Linear(in_features=512, out_features=512, bias=True)
            (v_proj): Linear(in_features=512, out_features=512, bias=True)
            (q_proj): Linear(in_features=512, out_features=512, bias=True)
            (out_proj): Linear(in_features=512, out_features=512, bias=True)
          )
          (encoder_attn_layer_norm): LayerNorm((512,), eps=1e-05, elementwise_affine=True)
          (fc1): Linear(in_features=512, out_features=2048, bias=True)
          (fc2): Linear(in_features=2048, out_features=512, bias=True)
          (final_layer_norm): LayerNorm((512,), eps=1e-05, elementwise_affine=True)
        )
        (6): BlenderbotSmallDecoderLayer(
          (self_attn): BlenderbotSmallAttention(
            (k_proj): Linear(in_features=512, out_features=512, bias=True)
            (v_proj): Linear(in_features=512, out_features=512, bias=True)
            (q_proj): Linear(in_features=512, out_features=512, bias=True)
            (out_proj): Linear(in_features=512, out_features=512, bias=True)
          )
          (self_attn_layer_norm): LayerNorm((512,), eps=1e-05, elementwise_affine=True)
          (encoder_attn): BlenderbotSmallAttention(
            (k_proj): Linear(in_features=512, out_features=512, bias=True)
            (v_proj): Linear(in_features=512, out_features=512, bias=True)
            (q_proj): Linear(in_features=512, out_features=512, bias=True)
            (out_proj): Linear(in_features=512, out_features=512, bias=True)
          )
          (encoder_attn_layer_norm): LayerNorm((512,), eps=1e-05, elementwise_affine=True)
          (fc1): Linear(in_features=512, out_features=2048, bias=True)
          (fc2): Linear(in_features=2048, out_features=512, bias=True)
          (final_layer_norm): LayerNorm((512,), eps=1e-05, elementwise_affine=True)
        )
        (7): BlenderbotSmallDecoderLayer(
          (self_attn): BlenderbotSmallAttention(
            (k_proj): Linear(in_features=512, out_features=512, bias=True)
            (v_proj): Linear(in_features=512, out_features=512, bias=True)
            (q_proj): Linear(in_features=512, out_features=512, bias=True)
            (out_proj): Linear(in_features=512, out_features=512, bias=True)
          )
          (self_attn_layer_norm): LayerNorm((512,), eps=1e-05, elementwise_affine=True)
          (encoder_attn): BlenderbotSmallAttention(
            (k_proj): Linear(in_features=512, out_features=512, bias=True)
            (v_proj): Linear(in_features=512, out_features=512, bias=True)
            (q_proj): Linear(in_features=512, out_features=512, bias=True)
            (out_proj): Linear(in_features=512, out_features=512, bias=True)
          )
          (encoder_attn_layer_norm): LayerNorm((512,), eps=1e-05, elementwise_affine=True)
          (fc1): Linear(in_features=512, out_features=2048, bias=True)
          (fc2): Linear(in_features=2048, out_features=512, bias=True)
          (final_layer_norm): LayerNorm((512,), eps=1e-05, elementwise_affine=True)
        )
      )
      (layernorm_embedding): LayerNorm((512,), eps=1e-05, elementwise_affine=True)
    )
  )
  (lm_head): Linear(in_features=512, out_features=54944, bias=False)
)
