model: facebook/blenderbot-3B	model: facebook/blenderbot-3B	downloads: 26666	likes: 17	task: conversational
model: facebook/blenderbot-3B	labels: LABEL_0, LABEL_1, LABEL_2
BlenderbotForCausalLM(
  (model): BlenderbotDecoderWrapper(
    (decoder): BlenderbotDecoder(
      (embed_tokens): Embedding(8008, 2560, padding_idx=0)
      (embed_positions): BlenderbotLearnedPositionalEmbedding(128, 2560)
      (layers): ModuleList(
        (0): BlenderbotDecoderLayer(
          (self_attn): BlenderbotAttention(
            (k_proj): Linear(in_features=2560, out_features=2560, bias=True)
            (v_proj): Linear(in_features=2560, out_features=2560, bias=True)
            (q_proj): Linear(in_features=2560, out_features=2560, bias=True)
            (out_proj): Linear(in_features=2560, out_features=2560, bias=True)
          )
          (self_attn_layer_norm): LayerNorm((2560,), eps=1e-05, elementwise_affine=True)
          (encoder_attn): BlenderbotAttention(
            (k_proj): Linear(in_features=2560, out_features=2560, bias=True)
            (v_proj): Linear(in_features=2560, out_features=2560, bias=True)
            (q_proj): Linear(in_features=2560, out_features=2560, bias=True)
            (out_proj): Linear(in_features=2560, out_features=2560, bias=True)
          )
          (encoder_attn_layer_norm): LayerNorm((2560,), eps=1e-05, elementwise_affine=True)
          (fc1): Linear(in_features=2560, out_features=10240, bias=True)
          (fc2): Linear(in_features=10240, out_features=2560, bias=True)
          (final_layer_norm): LayerNorm((2560,), eps=1e-05, elementwise_affine=True)
        )
        (1): BlenderbotDecoderLayer(
          (self_attn): BlenderbotAttention(
            (k_proj): Linear(in_features=2560, out_features=2560, bias=True)
            (v_proj): Linear(in_features=2560, out_features=2560, bias=True)
            (q_proj): Linear(in_features=2560, out_features=2560, bias=True)
            (out_proj): Linear(in_features=2560, out_features=2560, bias=True)
          )
          (self_attn_layer_norm): LayerNorm((2560,), eps=1e-05, elementwise_affine=True)
          (encoder_attn): BlenderbotAttention(
            (k_proj): Linear(in_features=2560, out_features=2560, bias=True)
            (v_proj): Linear(in_features=2560, out_features=2560, bias=True)
            (q_proj): Linear(in_features=2560, out_features=2560, bias=True)
            (out_proj): Linear(in_features=2560, out_features=2560, bias=True)
          )
          (encoder_attn_layer_norm): LayerNorm((2560,), eps=1e-05, elementwise_affine=True)
          (fc1): Linear(in_features=2560, out_features=10240, bias=True)
          (fc2): Linear(in_features=10240, out_features=2560, bias=True)
          (final_layer_norm): LayerNorm((2560,), eps=1e-05, elementwise_affine=True)
        )
        (2): BlenderbotDecoderLayer(
          (self_attn): BlenderbotAttention(
            (k_proj): Linear(in_features=2560, out_features=2560, bias=True)
            (v_proj): Linear(in_features=2560, out_features=2560, bias=True)
            (q_proj): Linear(in_features=2560, out_features=2560, bias=True)
            (out_proj): Linear(in_features=2560, out_features=2560, bias=True)
          )
          (self_attn_layer_norm): LayerNorm((2560,), eps=1e-05, elementwise_affine=True)
          (encoder_attn): BlenderbotAttention(
            (k_proj): Linear(in_features=2560, out_features=2560, bias=True)
            (v_proj): Linear(in_features=2560, out_features=2560, bias=True)
            (q_proj): Linear(in_features=2560, out_features=2560, bias=True)
            (out_proj): Linear(in_features=2560, out_features=2560, bias=True)
          )
          (encoder_attn_layer_norm): LayerNorm((2560,), eps=1e-05, elementwise_affine=True)
          (fc1): Linear(in_features=2560, out_features=10240, bias=True)
          (fc2): Linear(in_features=10240, out_features=2560, bias=True)
          (final_layer_norm): LayerNorm((2560,), eps=1e-05, elementwise_affine=True)
        )
        (3): BlenderbotDecoderLayer(
          (self_attn): BlenderbotAttention(
            (k_proj): Linear(in_features=2560, out_features=2560, bias=True)
            (v_proj): Linear(in_features=2560, out_features=2560, bias=True)
            (q_proj): Linear(in_features=2560, out_features=2560, bias=True)
            (out_proj): Linear(in_features=2560, out_features=2560, bias=True)
          )
          (self_attn_layer_norm): LayerNorm((2560,), eps=1e-05, elementwise_affine=True)
          (encoder_attn): BlenderbotAttention(
            (k_proj): Linear(in_features=2560, out_features=2560, bias=True)
            (v_proj): Linear(in_features=2560, out_features=2560, bias=True)
            (q_proj): Linear(in_features=2560, out_features=2560, bias=True)
            (out_proj): Linear(in_features=2560, out_features=2560, bias=True)
          )
          (encoder_attn_layer_norm): LayerNorm((2560,), eps=1e-05, elementwise_affine=True)
          (fc1): Linear(in_features=2560, out_features=10240, bias=True)
          (fc2): Linear(in_features=10240, out_features=2560, bias=True)
          (final_layer_norm): LayerNorm((2560,), eps=1e-05, elementwise_affine=True)
        )
        (4): BlenderbotDecoderLayer(
          (self_attn): BlenderbotAttention(
            (k_proj): Linear(in_features=2560, out_features=2560, bias=True)
            (v_proj): Linear(in_features=2560, out_features=2560, bias=True)
            (q_proj): Linear(in_features=2560, out_features=2560, bias=True)
            (out_proj): Linear(in_features=2560, out_features=2560, bias=True)
          )
          (self_attn_layer_norm): LayerNorm((2560,), eps=1e-05, elementwise_affine=True)
          (encoder_attn): BlenderbotAttention(
            (k_proj): Linear(in_features=2560, out_features=2560, bias=True)
            (v_proj): Linear(in_features=2560, out_features=2560, bias=True)
            (q_proj): Linear(in_features=2560, out_features=2560, bias=True)
            (out_proj): Linear(in_features=2560, out_features=2560, bias=True)
          )
          (encoder_attn_layer_norm): LayerNorm((2560,), eps=1e-05, elementwise_affine=True)
          (fc1): Linear(in_features=2560, out_features=10240, bias=True)
          (fc2): Linear(in_features=10240, out_features=2560, bias=True)
          (final_layer_norm): LayerNorm((2560,), eps=1e-05, elementwise_affine=True)
        )
        (5): BlenderbotDecoderLayer(
          (self_attn): BlenderbotAttention(
            (k_proj): Linear(in_features=2560, out_features=2560, bias=True)
            (v_proj): Linear(in_features=2560, out_features=2560, bias=True)
            (q_proj): Linear(in_features=2560, out_features=2560, bias=True)
            (out_proj): Linear(in_features=2560, out_features=2560, bias=True)
          )
          (self_attn_layer_norm): LayerNorm((2560,), eps=1e-05, elementwise_affine=True)
          (encoder_attn): BlenderbotAttention(
            (k_proj): Linear(in_features=2560, out_features=2560, bias=True)
            (v_proj): Linear(in_features=2560, out_features=2560, bias=True)
            (q_proj): Linear(in_features=2560, out_features=2560, bias=True)
            (out_proj): Linear(in_features=2560, out_features=2560, bias=True)
          )
          (encoder_attn_layer_norm): LayerNorm((2560,), eps=1e-05, elementwise_affine=True)
          (fc1): Linear(in_features=2560, out_features=10240, bias=True)
          (fc2): Linear(in_features=10240, out_features=2560, bias=True)
          (final_layer_norm): LayerNorm((2560,), eps=1e-05, elementwise_affine=True)
        )
        (6): BlenderbotDecoderLayer(
          (self_attn): BlenderbotAttention(
            (k_proj): Linear(in_features=2560, out_features=2560, bias=True)
            (v_proj): Linear(in_features=2560, out_features=2560, bias=True)
            (q_proj): Linear(in_features=2560, out_features=2560, bias=True)
            (out_proj): Linear(in_features=2560, out_features=2560, bias=True)
          )
          (self_attn_layer_norm): LayerNorm((2560,), eps=1e-05, elementwise_affine=True)
          (encoder_attn): BlenderbotAttention(
            (k_proj): Linear(in_features=2560, out_features=2560, bias=True)
            (v_proj): Linear(in_features=2560, out_features=2560, bias=True)
            (q_proj): Linear(in_features=2560, out_features=2560, bias=True)
            (out_proj): Linear(in_features=2560, out_features=2560, bias=True)
          )
          (encoder_attn_layer_norm): LayerNorm((2560,), eps=1e-05, elementwise_affine=True)
          (fc1): Linear(in_features=2560, out_features=10240, bias=True)
          (fc2): Linear(in_features=10240, out_features=2560, bias=True)
          (final_layer_norm): LayerNorm((2560,), eps=1e-05, elementwise_affine=True)
        )
        (7): BlenderbotDecoderLayer(
          (self_attn): BlenderbotAttention(
            (k_proj): Linear(in_features=2560, out_features=2560, bias=True)
            (v_proj): Linear(in_features=2560, out_features=2560, bias=True)
            (q_proj): Linear(in_features=2560, out_features=2560, bias=True)
            (out_proj): Linear(in_features=2560, out_features=2560, bias=True)
          )
          (self_attn_layer_norm): LayerNorm((2560,), eps=1e-05, elementwise_affine=True)
          (encoder_attn): BlenderbotAttention(
            (k_proj): Linear(in_features=2560, out_features=2560, bias=True)
            (v_proj): Linear(in_features=2560, out_features=2560, bias=True)
            (q_proj): Linear(in_features=2560, out_features=2560, bias=True)
            (out_proj): Linear(in_features=2560, out_features=2560, bias=True)
          )
          (encoder_attn_layer_norm): LayerNorm((2560,), eps=1e-05, elementwise_affine=True)
          (fc1): Linear(in_features=2560, out_features=10240, bias=True)
          (fc2): Linear(in_features=10240, out_features=2560, bias=True)
          (final_layer_norm): LayerNorm((2560,), eps=1e-05, elementwise_affine=True)
        )
        (8): BlenderbotDecoderLayer(
          (self_attn): BlenderbotAttention(
            (k_proj): Linear(in_features=2560, out_features=2560, bias=True)
            (v_proj): Linear(in_features=2560, out_features=2560, bias=True)
            (q_proj): Linear(in_features=2560, out_features=2560, bias=True)
            (out_proj): Linear(in_features=2560, out_features=2560, bias=True)
          )
          (self_attn_layer_norm): LayerNorm((2560,), eps=1e-05, elementwise_affine=True)
          (encoder_attn): BlenderbotAttention(
            (k_proj): Linear(in_features=2560, out_features=2560, bias=True)
            (v_proj): Linear(in_features=2560, out_features=2560, bias=True)
            (q_proj): Linear(in_features=2560, out_features=2560, bias=True)
            (out_proj): Linear(in_features=2560, out_features=2560, bias=True)
          )
          (encoder_attn_layer_norm): LayerNorm((2560,), eps=1e-05, elementwise_affine=True)
          (fc1): Linear(in_features=2560, out_features=10240, bias=True)
          (fc2): Linear(in_features=10240, out_features=2560, bias=True)
          (final_layer_norm): LayerNorm((2560,), eps=1e-05, elementwise_affine=True)
        )
        (9): BlenderbotDecoderLayer(
          (self_attn): BlenderbotAttention(
            (k_proj): Linear(in_features=2560, out_features=2560, bias=True)
            (v_proj): Linear(in_features=2560, out_features=2560, bias=True)
            (q_proj): Linear(in_features=2560, out_features=2560, bias=True)
            (out_proj): Linear(in_features=2560, out_features=2560, bias=True)
          )
          (self_attn_layer_norm): LayerNorm((2560,), eps=1e-05, elementwise_affine=True)
          (encoder_attn): BlenderbotAttention(
            (k_proj): Linear(in_features=2560, out_features=2560, bias=True)
            (v_proj): Linear(in_features=2560, out_features=2560, bias=True)
            (q_proj): Linear(in_features=2560, out_features=2560, bias=True)
            (out_proj): Linear(in_features=2560, out_features=2560, bias=True)
          )
          (encoder_attn_layer_norm): LayerNorm((2560,), eps=1e-05, elementwise_affine=True)
          (fc1): Linear(in_features=2560, out_features=10240, bias=True)
          (fc2): Linear(in_features=10240, out_features=2560, bias=True)
          (final_layer_norm): LayerNorm((2560,), eps=1e-05, elementwise_affine=True)
        )
        (10): BlenderbotDecoderLayer(
          (self_attn): BlenderbotAttention(
            (k_proj): Linear(in_features=2560, out_features=2560, bias=True)
            (v_proj): Linear(in_features=2560, out_features=2560, bias=True)
            (q_proj): Linear(in_features=2560, out_features=2560, bias=True)
            (out_proj): Linear(in_features=2560, out_features=2560, bias=True)
          )
          (self_attn_layer_norm): LayerNorm((2560,), eps=1e-05, elementwise_affine=True)
          (encoder_attn): BlenderbotAttention(
            (k_proj): Linear(in_features=2560, out_features=2560, bias=True)
            (v_proj): Linear(in_features=2560, out_features=2560, bias=True)
            (q_proj): Linear(in_features=2560, out_features=2560, bias=True)
            (out_proj): Linear(in_features=2560, out_features=2560, bias=True)
          )
          (encoder_attn_layer_norm): LayerNorm((2560,), eps=1e-05, elementwise_affine=True)
          (fc1): Linear(in_features=2560, out_features=10240, bias=True)
          (fc2): Linear(in_features=10240, out_features=2560, bias=True)
          (final_layer_norm): LayerNorm((2560,), eps=1e-05, elementwise_affine=True)
        )
        (11): BlenderbotDecoderLayer(
          (self_attn): BlenderbotAttention(
            (k_proj): Linear(in_features=2560, out_features=2560, bias=True)
            (v_proj): Linear(in_features=2560, out_features=2560, bias=True)
            (q_proj): Linear(in_features=2560, out_features=2560, bias=True)
            (out_proj): Linear(in_features=2560, out_features=2560, bias=True)
          )
          (self_attn_layer_norm): LayerNorm((2560,), eps=1e-05, elementwise_affine=True)
          (encoder_attn): BlenderbotAttention(
            (k_proj): Linear(in_features=2560, out_features=2560, bias=True)
            (v_proj): Linear(in_features=2560, out_features=2560, bias=True)
            (q_proj): Linear(in_features=2560, out_features=2560, bias=True)
            (out_proj): Linear(in_features=2560, out_features=2560, bias=True)
          )
          (encoder_attn_layer_norm): LayerNorm((2560,), eps=1e-05, elementwise_affine=True)
          (fc1): Linear(in_features=2560, out_features=10240, bias=True)
          (fc2): Linear(in_features=10240, out_features=2560, bias=True)
          (final_layer_norm): LayerNorm((2560,), eps=1e-05, elementwise_affine=True)
        )
        (12): BlenderbotDecoderLayer(
          (self_attn): BlenderbotAttention(
            (k_proj): Linear(in_features=2560, out_features=2560, bias=True)
            (v_proj): Linear(in_features=2560, out_features=2560, bias=True)
            (q_proj): Linear(in_features=2560, out_features=2560, bias=True)
            (out_proj): Linear(in_features=2560, out_features=2560, bias=True)
          )
          (self_attn_layer_norm): LayerNorm((2560,), eps=1e-05, elementwise_affine=True)
          (encoder_attn): BlenderbotAttention(
            (k_proj): Linear(in_features=2560, out_features=2560, bias=True)
            (v_proj): Linear(in_features=2560, out_features=2560, bias=True)
            (q_proj): Linear(in_features=2560, out_features=2560, bias=True)
            (out_proj): Linear(in_features=2560, out_features=2560, bias=True)
          )
          (encoder_attn_layer_norm): LayerNorm((2560,), eps=1e-05, elementwise_affine=True)
          (fc1): Linear(in_features=2560, out_features=10240, bias=True)
          (fc2): Linear(in_features=10240, out_features=2560, bias=True)
          (final_layer_norm): LayerNorm((2560,), eps=1e-05, elementwise_affine=True)
        )
        (13): BlenderbotDecoderLayer(
          (self_attn): BlenderbotAttention(
            (k_proj): Linear(in_features=2560, out_features=2560, bias=True)
            (v_proj): Linear(in_features=2560, out_features=2560, bias=True)
            (q_proj): Linear(in_features=2560, out_features=2560, bias=True)
            (out_proj): Linear(in_features=2560, out_features=2560, bias=True)
          )
          (self_attn_layer_norm): LayerNorm((2560,), eps=1e-05, elementwise_affine=True)
          (encoder_attn): BlenderbotAttention(
            (k_proj): Linear(in_features=2560, out_features=2560, bias=True)
            (v_proj): Linear(in_features=2560, out_features=2560, bias=True)
            (q_proj): Linear(in_features=2560, out_features=2560, bias=True)
            (out_proj): Linear(in_features=2560, out_features=2560, bias=True)
          )
          (encoder_attn_layer_norm): LayerNorm((2560,), eps=1e-05, elementwise_affine=True)
          (fc1): Linear(in_features=2560, out_features=10240, bias=True)
          (fc2): Linear(in_features=10240, out_features=2560, bias=True)
          (final_layer_norm): LayerNorm((2560,), eps=1e-05, elementwise_affine=True)
        )
        (14): BlenderbotDecoderLayer(
          (self_attn): BlenderbotAttention(
            (k_proj): Linear(in_features=2560, out_features=2560, bias=True)
            (v_proj): Linear(in_features=2560, out_features=2560, bias=True)
            (q_proj): Linear(in_features=2560, out_features=2560, bias=True)
            (out_proj): Linear(in_features=2560, out_features=2560, bias=True)
          )
          (self_attn_layer_norm): LayerNorm((2560,), eps=1e-05, elementwise_affine=True)
          (encoder_attn): BlenderbotAttention(
            (k_proj): Linear(in_features=2560, out_features=2560, bias=True)
            (v_proj): Linear(in_features=2560, out_features=2560, bias=True)
            (q_proj): Linear(in_features=2560, out_features=2560, bias=True)
            (out_proj): Linear(in_features=2560, out_features=2560, bias=True)
          )
          (encoder_attn_layer_norm): LayerNorm((2560,), eps=1e-05, elementwise_affine=True)
          (fc1): Linear(in_features=2560, out_features=10240, bias=True)
          (fc2): Linear(in_features=10240, out_features=2560, bias=True)
          (final_layer_norm): LayerNorm((2560,), eps=1e-05, elementwise_affine=True)
        )
        (15): BlenderbotDecoderLayer(
          (self_attn): BlenderbotAttention(
            (k_proj): Linear(in_features=2560, out_features=2560, bias=True)
            (v_proj): Linear(in_features=2560, out_features=2560, bias=True)
            (q_proj): Linear(in_features=2560, out_features=2560, bias=True)
            (out_proj): Linear(in_features=2560, out_features=2560, bias=True)
          )
          (self_attn_layer_norm): LayerNorm((2560,), eps=1e-05, elementwise_affine=True)
          (encoder_attn): BlenderbotAttention(
            (k_proj): Linear(in_features=2560, out_features=2560, bias=True)
            (v_proj): Linear(in_features=2560, out_features=2560, bias=True)
            (q_proj): Linear(in_features=2560, out_features=2560, bias=True)
            (out_proj): Linear(in_features=2560, out_features=2560, bias=True)
          )
          (encoder_attn_layer_norm): LayerNorm((2560,), eps=1e-05, elementwise_affine=True)
          (fc1): Linear(in_features=2560, out_features=10240, bias=True)
          (fc2): Linear(in_features=10240, out_features=2560, bias=True)
          (final_layer_norm): LayerNorm((2560,), eps=1e-05, elementwise_affine=True)
        )
        (16): BlenderbotDecoderLayer(
          (self_attn): BlenderbotAttention(
            (k_proj): Linear(in_features=2560, out_features=2560, bias=True)
            (v_proj): Linear(in_features=2560, out_features=2560, bias=True)
            (q_proj): Linear(in_features=2560, out_features=2560, bias=True)
            (out_proj): Linear(in_features=2560, out_features=2560, bias=True)
          )
          (self_attn_layer_norm): LayerNorm((2560,), eps=1e-05, elementwise_affine=True)
          (encoder_attn): BlenderbotAttention(
            (k_proj): Linear(in_features=2560, out_features=2560, bias=True)
            (v_proj): Linear(in_features=2560, out_features=2560, bias=True)
            (q_proj): Linear(in_features=2560, out_features=2560, bias=True)
            (out_proj): Linear(in_features=2560, out_features=2560, bias=True)
          )
          (encoder_attn_layer_norm): LayerNorm((2560,), eps=1e-05, elementwise_affine=True)
          (fc1): Linear(in_features=2560, out_features=10240, bias=True)
          (fc2): Linear(in_features=10240, out_features=2560, bias=True)
          (final_layer_norm): LayerNorm((2560,), eps=1e-05, elementwise_affine=True)
        )
        (17): BlenderbotDecoderLayer(
          (self_attn): BlenderbotAttention(
            (k_proj): Linear(in_features=2560, out_features=2560, bias=True)
            (v_proj): Linear(in_features=2560, out_features=2560, bias=True)
            (q_proj): Linear(in_features=2560, out_features=2560, bias=True)
            (out_proj): Linear(in_features=2560, out_features=2560, bias=True)
          )
          (self_attn_layer_norm): LayerNorm((2560,), eps=1e-05, elementwise_affine=True)
          (encoder_attn): BlenderbotAttention(
            (k_proj): Linear(in_features=2560, out_features=2560, bias=True)
            (v_proj): Linear(in_features=2560, out_features=2560, bias=True)
            (q_proj): Linear(in_features=2560, out_features=2560, bias=True)
            (out_proj): Linear(in_features=2560, out_features=2560, bias=True)
          )
          (encoder_attn_layer_norm): LayerNorm((2560,), eps=1e-05, elementwise_affine=True)
          (fc1): Linear(in_features=2560, out_features=10240, bias=True)
          (fc2): Linear(in_features=10240, out_features=2560, bias=True)
          (final_layer_norm): LayerNorm((2560,), eps=1e-05, elementwise_affine=True)
        )
        (18): BlenderbotDecoderLayer(
          (self_attn): BlenderbotAttention(
            (k_proj): Linear(in_features=2560, out_features=2560, bias=True)
            (v_proj): Linear(in_features=2560, out_features=2560, bias=True)
            (q_proj): Linear(in_features=2560, out_features=2560, bias=True)
            (out_proj): Linear(in_features=2560, out_features=2560, bias=True)
          )
          (self_attn_layer_norm): LayerNorm((2560,), eps=1e-05, elementwise_affine=True)
          (encoder_attn): BlenderbotAttention(
            (k_proj): Linear(in_features=2560, out_features=2560, bias=True)
            (v_proj): Linear(in_features=2560, out_features=2560, bias=True)
            (q_proj): Linear(in_features=2560, out_features=2560, bias=True)
            (out_proj): Linear(in_features=2560, out_features=2560, bias=True)
          )
          (encoder_attn_layer_norm): LayerNorm((2560,), eps=1e-05, elementwise_affine=True)
          (fc1): Linear(in_features=2560, out_features=10240, bias=True)
          (fc2): Linear(in_features=10240, out_features=2560, bias=True)
          (final_layer_norm): LayerNorm((2560,), eps=1e-05, elementwise_affine=True)
        )
        (19): BlenderbotDecoderLayer(
          (self_attn): BlenderbotAttention(
            (k_proj): Linear(in_features=2560, out_features=2560, bias=True)
            (v_proj): Linear(in_features=2560, out_features=2560, bias=True)
            (q_proj): Linear(in_features=2560, out_features=2560, bias=True)
            (out_proj): Linear(in_features=2560, out_features=2560, bias=True)
          )
          (self_attn_layer_norm): LayerNorm((2560,), eps=1e-05, elementwise_affine=True)
          (encoder_attn): BlenderbotAttention(
            (k_proj): Linear(in_features=2560, out_features=2560, bias=True)
            (v_proj): Linear(in_features=2560, out_features=2560, bias=True)
            (q_proj): Linear(in_features=2560, out_features=2560, bias=True)
            (out_proj): Linear(in_features=2560, out_features=2560, bias=True)
          )
          (encoder_attn_layer_norm): LayerNorm((2560,), eps=1e-05, elementwise_affine=True)
          (fc1): Linear(in_features=2560, out_features=10240, bias=True)
          (fc2): Linear(in_features=10240, out_features=2560, bias=True)
          (final_layer_norm): LayerNorm((2560,), eps=1e-05, elementwise_affine=True)
        )
        (20): BlenderbotDecoderLayer(
          (self_attn): BlenderbotAttention(
            (k_proj): Linear(in_features=2560, out_features=2560, bias=True)
            (v_proj): Linear(in_features=2560, out_features=2560, bias=True)
            (q_proj): Linear(in_features=2560, out_features=2560, bias=True)
            (out_proj): Linear(in_features=2560, out_features=2560, bias=True)
          )
          (self_attn_layer_norm): LayerNorm((2560,), eps=1e-05, elementwise_affine=True)
          (encoder_attn): BlenderbotAttention(
            (k_proj): Linear(in_features=2560, out_features=2560, bias=True)
            (v_proj): Linear(in_features=2560, out_features=2560, bias=True)
            (q_proj): Linear(in_features=2560, out_features=2560, bias=True)
            (out_proj): Linear(in_features=2560, out_features=2560, bias=True)
          )
          (encoder_attn_layer_norm): LayerNorm((2560,), eps=1e-05, elementwise_affine=True)
          (fc1): Linear(in_features=2560, out_features=10240, bias=True)
          (fc2): Linear(in_features=10240, out_features=2560, bias=True)
          (final_layer_norm): LayerNorm((2560,), eps=1e-05, elementwise_affine=True)
        )
        (21): BlenderbotDecoderLayer(
          (self_attn): BlenderbotAttention(
            (k_proj): Linear(in_features=2560, out_features=2560, bias=True)
            (v_proj): Linear(in_features=2560, out_features=2560, bias=True)
            (q_proj): Linear(in_features=2560, out_features=2560, bias=True)
            (out_proj): Linear(in_features=2560, out_features=2560, bias=True)
          )
          (self_attn_layer_norm): LayerNorm((2560,), eps=1e-05, elementwise_affine=True)
          (encoder_attn): BlenderbotAttention(
            (k_proj): Linear(in_features=2560, out_features=2560, bias=True)
            (v_proj): Linear(in_features=2560, out_features=2560, bias=True)
            (q_proj): Linear(in_features=2560, out_features=2560, bias=True)
            (out_proj): Linear(in_features=2560, out_features=2560, bias=True)
          )
          (encoder_attn_layer_norm): LayerNorm((2560,), eps=1e-05, elementwise_affine=True)
          (fc1): Linear(in_features=2560, out_features=10240, bias=True)
          (fc2): Linear(in_features=10240, out_features=2560, bias=True)
          (final_layer_norm): LayerNorm((2560,), eps=1e-05, elementwise_affine=True)
        )
        (22): BlenderbotDecoderLayer(
          (self_attn): BlenderbotAttention(
            (k_proj): Linear(in_features=2560, out_features=2560, bias=True)
            (v_proj): Linear(in_features=2560, out_features=2560, bias=True)
            (q_proj): Linear(in_features=2560, out_features=2560, bias=True)
            (out_proj): Linear(in_features=2560, out_features=2560, bias=True)
          )
          (self_attn_layer_norm): LayerNorm((2560,), eps=1e-05, elementwise_affine=True)
          (encoder_attn): BlenderbotAttention(
            (k_proj): Linear(in_features=2560, out_features=2560, bias=True)
            (v_proj): Linear(in_features=2560, out_features=2560, bias=True)
            (q_proj): Linear(in_features=2560, out_features=2560, bias=True)
            (out_proj): Linear(in_features=2560, out_features=2560, bias=True)
          )
          (encoder_attn_layer_norm): LayerNorm((2560,), eps=1e-05, elementwise_affine=True)
          (fc1): Linear(in_features=2560, out_features=10240, bias=True)
          (fc2): Linear(in_features=10240, out_features=2560, bias=True)
          (final_layer_norm): LayerNorm((2560,), eps=1e-05, elementwise_affine=True)
        )
        (23): BlenderbotDecoderLayer(
          (self_attn): BlenderbotAttention(
            (k_proj): Linear(in_features=2560, out_features=2560, bias=True)
            (v_proj): Linear(in_features=2560, out_features=2560, bias=True)
            (q_proj): Linear(in_features=2560, out_features=2560, bias=True)
            (out_proj): Linear(in_features=2560, out_features=2560, bias=True)
          )
          (self_attn_layer_norm): LayerNorm((2560,), eps=1e-05, elementwise_affine=True)
          (encoder_attn): BlenderbotAttention(
            (k_proj): Linear(in_features=2560, out_features=2560, bias=True)
            (v_proj): Linear(in_features=2560, out_features=2560, bias=True)
            (q_proj): Linear(in_features=2560, out_features=2560, bias=True)
            (out_proj): Linear(in_features=2560, out_features=2560, bias=True)
          )
          (encoder_attn_layer_norm): LayerNorm((2560,), eps=1e-05, elementwise_affine=True)
          (fc1): Linear(in_features=2560, out_features=10240, bias=True)
          (fc2): Linear(in_features=10240, out_features=2560, bias=True)
          (final_layer_norm): LayerNorm((2560,), eps=1e-05, elementwise_affine=True)
        )
      )
      (layer_norm): LayerNorm((2560,), eps=1e-05, elementwise_affine=True)
    )
  )
  (lm_head): Linear(in_features=2560, out_features=8008, bias=False)
)
