…
traw, street sign, structural-other, suitcase, surfboard, table, teddy bear, tennis racket, tent, textile-other, tie, toaster, toilet, toothbrush, towel, traffic light, train, tree, truck, tv, umbrella, vase, vegetable, wall-brick, wall-concrete, wall-other, wall-panel, wall-stone, wall-tile, wall-wood, water-other, waterdrops, window, window-blind, window-other, wine glass, wood, zebra
DetrForSegmentation(
  (detr): DetrForObjectDetection(
    (model): DetrModel(
      (backbone): DetrConvModel(
        (conv_encoder): DetrTimmConvEncoder(
          (model): FeatureListNet(
            (conv1): Conv2d(3, 64, kernel_size=(7, 7), stride=(2, 2), padding=(3, 3), bias=False)
            (bn1): DetrFrozenBatchNorm2d()
            (act1): ReLU(inplace=True)
            (maxpool): MaxPool2d(kernel_size=3, stride=2, padding=1, dilation=1, ceil_mode=False)
            (layer1): Sequential(
              (0): Bottleneck(
                (conv1): Conv2d(64, 64, kernel_size=(1, 1), stride=(1, 1), bias=False)
                (bn1): DetrFrozenBatchNorm2d()
                (act1): ReLU(inplace=True)
                (conv2): Conv2d(64, 64, kernel_size=(3, 3), stride=(1, 1), padding=(1, 1), bias=False)
                (bn2): DetrFrozenBatchNorm2d()
                (act2): ReLU(inplace=True)
                (conv3): Conv2d(64, 256, kernel_size=(1, 1), stride=(1, 1), bias=False)
                (bn3): DetrFrozenBatchNorm2d()
                (act3): ReLU(inplace=True)
                (downsample): Sequential(
                  (0): Conv2d(64, 256, kernel_size=(1, 1), stride=(1, 1), bias=False)
                  (1): BatchNorm2d(256, eps=1e-05, momentum=0.1, affine=True, track_running_stats=True)
                )
              )
              (1): Bottleneck(
                (conv1): Conv2d(256, 64, kernel_size=(1, 1), stride=(1, 1), bias=False)
                (bn1): DetrFrozenBatchNorm2d()
                (act1): ReLU(inplace=True)
                (conv2): Conv2d(64, 64, kernel_size=(3, 3), stride=(1, 1), padding=(1, 1), bias=False)
                (bn2): DetrFrozenBatchNorm2d()
                (act2): ReLU(inplace=True)
                (conv3): Conv2d(64, 256, kernel_size=(1, 1), stride=(1, 1), bias=False)
                (bn3): DetrFrozenBatchNorm2d()
                (act3): ReLU(inplace=True)
              )
              (2): Bottleneck(
                (conv1): Conv2d(256, 64, kernel_size=(1, 1), stride=(1, 1), bias=False)
                (bn1): DetrFrozenBatchNorm2d()
                (act1): ReLU(inplace=True)
                (conv2): Conv2d(64, 64, kernel_size=(3, 3), stride=(1, 1), padding=(1, 1), bias=False)
                (bn2): DetrFrozenBatchNorm2d()
                (act2): ReLU(inplace=True)
                (conv3): Conv2d(64, 256, kernel_size=(1, 1), stride=(1, 1), bias=False)
                (bn3): DetrFrozenBatchNorm2d()
                (act3): ReLU(inplace=True)
              )
            )
            (layer2): Sequential(
              (0): Bottleneck(
                (conv1): Conv2d(256, 128, kernel_size=(1, 1), stride=(1, 1), bias=False)
                (bn1): DetrFrozenBatchNorm2d()
                (act1): ReLU(inplace=True)
                (conv2): Conv2d(128, 128, kernel_size=(3, 3), stride=(2, 2), padding=(1, 1), bias=False)
                (bn2): DetrFrozenBatchNorm2d()
                (act2): ReLU(inplace=True)
                (conv3): Conv2d(128, 512, kernel_size=(1, 1), stride=(1, 1), bias=False)
                (bn3): DetrFrozenBatchNorm2d()
                (act3): ReLU(inplace=True)
                (downsample): Sequential(
                  (0): Conv2d(256, 512, kernel_size=(1, 1), stride=(2, 2), bias=False)
                  (1): BatchNorm2d(512, eps=1e-05, momentum=0.1, affine=True, track_running_stats=True)
                )
              )
              (1): Bottleneck(
                (conv1): Conv2d(512, 128, kernel_size=(1, 1), stride=(1, 1), bias=False)
                (bn1): DetrFrozenBatchNorm2d()
                (act1): ReLU(inplace=True)
                (conv2): Conv2d(128, 128, kernel_size=(3, 3), stride=(1, 1), padding=(1, 1), bias=False)
                (bn2): DetrFrozenBatchNorm2d()
                (act2): ReLU(inplace=True)
                (conv3): Conv2d(128, 512, kernel_size=(1, 1), stride=(1, 1), bias=False)
                (bn3): DetrFrozenBatchNorm2d()
                (act3): ReLU(inplace=True)
              )
              (2): Bottleneck(
                (conv1): Conv2d(512, 128, kernel_size=(1, 1), stride=(1, 1), bias=False)
                (bn1): DetrFrozenBatchNorm2d()
                (act1): ReLU(inplace=True)
                (conv2): Conv2d(128, 128, kernel_size=(3, 3), stride=(1, 1), padding=(1, 1), bias=False)
                (bn2): DetrFrozenBatchNorm2d()
                (act2): ReLU(inplace=True)
                (conv3): Conv2d(128, 512, kernel_size=(1, 1), stride=(1, 1), bias=False)
                (bn3): DetrFrozenBatchNorm2d()
                (act3): ReLU(inplace=True)
              )
              (3): Bottleneck(
                (conv1): Conv2d(512, 128, kernel_size=(1, 1), stride=(1, 1), bias=False)
                (bn1): DetrFrozenBatchNorm2d()
                (act1): ReLU(inplace=True)
                (conv2): Conv2d(128, 128, kernel_size=(3, 3), stride=(1, 1), padding=(1, 1), bias=False)
                (bn2): DetrFrozenBatchNorm2d()
                (act2): ReLU(inplace=True)
                (conv3): Conv2d(128, 512, kernel_size=(1, 1), stride=(1, 1), bias=False)
                (bn3): DetrFrozenBatchNorm2d()
                (act3): ReLU(inplace=True)
              )
            )
            (layer3): Sequential(
              (0): Bottleneck(
                (conv1): Conv2d(512, 256, kernel_size=(1, 1), stride=(1, 1), bias=False)
                (bn1): DetrFrozenBatchNorm2d()
                (act1): ReLU(inplace=True)
                (conv2): Conv2d(256, 256, kernel_size=(3, 3), stride=(2, 2), padding=(1, 1), bias=False)
                (bn2): DetrFrozenBatchNorm2d()
                (act2): ReLU(inplace=True)
                (conv3): Conv2d(256, 1024, kernel_size=(1, 1), stride=(1, 1), bias=False)
                (bn3): DetrFrozenBatchNorm2d()
                (act3): ReLU(inplace=True)
                (downsample): Sequential(
                  (0): Conv2d(512, 1024, kernel_size=(1, 1), stride=(2, 2), bias=False)
                  (1): BatchNorm2d(1024, eps=1e-05, momentum=0.1, affine=True, track_running_stats=True)
                )
              )
              (1): Bottleneck(
                (conv1): Conv2d(1024, 256, kernel_size=(1, 1), stride=(1, 1), bias=False)
                (bn1): DetrFrozenBatchNorm2d()
                (act1): ReLU(inplace=True)
                (conv2): Conv2d(256, 256, kernel_size=(3, 3), stride=(1, 1), padding=(1, 1), bias=False)
                (bn2): DetrFrozenBatchNorm2d()
                (act2): ReLU(inplace=True)
                (conv3): Conv2d(256, 1024, kernel_size=(1, 1), stride=(1, 1), bias=False)
                (bn3): DetrFrozenBatchNorm2d()
                (act3): ReLU(inplace=True)
              )
              (2): Bottleneck(
                (conv1): Conv2d(1024, 256, kernel_size=(1, 1), stride=(1, 1), bias=False)
                (bn1): DetrFrozenBatchNorm2d()
                (act1): ReLU(inplace=True)
                (conv2): Conv2d(256, 256, kernel_size=(3, 3), stride=(1, 1), padding=(1, 1), bias=False)
                (bn2): DetrFrozenBatchNorm2d()
                (act2): ReLU(inplace=True)
                (conv3): Conv2d(256, 1024, kernel_size=(1, 1), stride=(1, 1), bias=False)
                (bn3): DetrFrozenBatchNorm2d()
                (act3): ReLU(inplace=True)
              )
              (3): Bottleneck(
                (conv1): Conv2d(1024, 256, kernel_size=(1, 1), stride=(1, 1), bias=False)
                (bn1): DetrFrozenBatchNorm2d()
                (act1): ReLU(inplace=True)
                (conv2): Conv2d(256, 256, kernel_size=(3, 3), stride=(1, 1), padding=(1, 1), bias=False)
                (bn2): DetrFrozenBatchNorm2d()
                (act2): ReLU(inplace=True)
                (conv3): Conv2d(256, 1024, kernel_size=(1, 1), stride=(1, 1), bias=False)
                (bn3): DetrFrozenBatchNorm2d()
                (act3): ReLU(inplace=True)
              )
              (4): Bottleneck(
                (conv1): Conv2d(1024, 256, kernel_size=(1, 1), stride=(1, 1), bias=False)
                (bn1): DetrFrozenBatchNorm2d()
                (act1): ReLU(inplace=True)
                (conv2): Conv2d(256, 256, kernel_size=(3, 3), stride=(1, 1), padding=(1, 1), bias=False)
                (bn2): DetrFrozenBatchNorm2d()
                (act2): ReLU(inplace=True)
                (conv3): Conv2d(256, 1024, kernel_size=(1, 1), stride=(1, 1), bias=False)
                (bn3): DetrFrozenBatchNorm2d()
                (act3): ReLU(inplace=True)
              )
              (5): Bottleneck(
                (conv1): Conv2d(1024, 256, kernel_size=(1, 1), stride=(1, 1), bias=False)
                (bn1): DetrFrozenBatchNorm2d()
                (act1): ReLU(inplace=True)
                (conv2): Conv2d(256, 256, kernel_size=(3, 3), stride=(1, 1), padding=(1, 1), bias=False)
                (bn2): DetrFrozenBatchNorm2d()
                (act2): ReLU(inplace=True)
                (conv3): Conv2d(256, 1024, kernel_size=(1, 1), stride=(1, 1), bias=False)
                (bn3): DetrFrozenBatchNorm2d()
                (act3): ReLU(inplace=True)
              )
              (6): Bottleneck(
                (conv1): Conv2d(1024, 256, kernel_size=(1, 1), stride=(1, 1), bias=False)
                (bn1): DetrFrozenBatchNorm2d()
                (act1): ReLU(inplace=True)
                (conv2): Conv2d(256, 256, kernel_size=(3, 3), stride=(1, 1), padding=(1, 1), bias=False)
                (bn2): DetrFrozenBatchNorm2d()
                (act2): ReLU(inplace=True)
                (conv3): Conv2d(256, 1024, kernel_size=(1, 1), stride=(1, 1), bias=False)
                (bn3): DetrFrozenBatchNorm2d()
                (act3): ReLU(inplace=True)
              )
              (7): Bottleneck(
                (conv1): Conv2d(1024, 256, kernel_size=(1, 1), stride=(1, 1), bias=False)
                (bn1): DetrFrozenBatchNorm2d()
                (act1): ReLU(inplace=True)
                (conv2): Conv2d(256, 256, kernel_size=(3, 3), stride=(1, 1), padding=(1, 1), bias=False)
                (bn2): DetrFrozenBatchNorm2d()
                (act2): ReLU(inplace=True)
                (conv3): Conv2d(256, 1024, kernel_size=(1, 1), stride=(1, 1), bias=False)
                (bn3): DetrFrozenBatchNorm2d()
                (act3): ReLU(inplace=True)
              )
              (8): Bottleneck(
                (conv1): Conv2d(1024, 256, kernel_size=(1, 1), stride=(1, 1), bias=False)
                (bn1): DetrFrozenBatchNorm2d()
                (act1): ReLU(inplace=True)
                (conv2): Conv2d(256, 256, kernel_size=(3, 3), stride=(1, 1), padding=(1, 1), bias=False)
                (bn2): DetrFrozenBatchNorm2d()
                (act2): ReLU(inplace=True)
                (conv3): Conv2d(256, 1024, kernel_size=(1, 1), stride=(1, 1), bias=False)
                (bn3): DetrFrozenBatchNorm2d()
                (act3): ReLU(inplace=True)
              )
              (9): Bottleneck(
                (conv1): Conv2d(1024, 256, kernel_size=(1, 1), stride=(1, 1), bias=False)
                (bn1): DetrFrozenBatchNorm2d()
                (act1): ReLU(inplace=True)
                (conv2): Conv2d(256, 256, kernel_size=(3, 3), stride=(1, 1), padding=(1, 1), bias=False)
                (bn2): DetrFrozenBatchNorm2d()
                (act2): ReLU(inplace=True)
                (conv3): Conv2d(256, 1024, kernel_size=(1, 1), stride=(1, 1), bias=False)
                (bn3): DetrFrozenBatchNorm2d()
                (act3): ReLU(inplace=True)
              )
              (10): Bottleneck(
                (conv1): Conv2d(1024, 256, kernel_size=(1, 1), stride=(1, 1), bias=False)
                (bn1): DetrFrozenBatchNorm2d()
                (act1): ReLU(inplace=True)
                (conv2): Conv2d(256, 256, kernel_size=(3, 3), stride=(1, 1), padding=(1, 1), bias=False)
                (bn2): DetrFrozenBatchNorm2d()
                (act2): ReLU(inplace=True)
                (conv3): Conv2d(256, 1024, kernel_size=(1, 1), stride=(1, 1), bias=False)
                (bn3): DetrFrozenBatchNorm2d()
                (act3): ReLU(inplace=True)
              )
              (11): Bottleneck(
                (conv1): Conv2d(1024, 256, kernel_size=(1, 1), stride=(1, 1), bias=False)
                (bn1): DetrFrozenBatchNorm2d()
                (act1): ReLU(inplace=True)
                (conv2): Conv2d(256, 256, kernel_size=(3, 3), stride=(1, 1), padding=(1, 1), bias=False)
                (bn2): DetrFrozenBatchNorm2d()
                (act2): ReLU(inplace=True)
                (conv3): Conv2d(256, 1024, kernel_size=(1, 1), stride=(1, 1), bias=False)
                (bn3): DetrFrozenBatchNorm2d()
                (act3): ReLU(inplace=True)
              )
              (12): Bottleneck(
                (conv1): Conv2d(1024, 256, kernel_size=(1, 1), stride=(1, 1), bias=False)
                (bn1): DetrFrozenBatchNorm2d()
                (act1): ReLU(inplace=True)
                (conv2): Conv2d(256, 256, kernel_size=(3, 3), stride=(1, 1), padding=(1, 1), bias=False)
                (bn2): DetrFrozenBatchNorm2d()
                (act2): ReLU(inplace=True)
                (conv3): Conv2d(256, 1024, kernel_size=(1, 1), stride=(1, 1), bias=False)
                (bn3): DetrFrozenBatchNorm2d()
                (act3): ReLU(inplace=True)
              )
              (13): Bottleneck(
                (conv1): Conv2d(1024, 256, kernel_size=(1, 1), stride=(1, 1), bias=False)
                (bn1): DetrFrozenBatchNorm2d()
                (act1): ReLU(inplace=True)
                (conv2): Conv2d(256, 256, kernel_size=(3, 3), stride=(1, 1), padding=(1, 1), bias=False)
                (bn2): DetrFrozenBatchNorm2d()
                (act2): ReLU(inplace=True)
                (conv3): Conv2d(256, 1024, kernel_size=(1, 1), stride=(1, 1), bias=False)
                (bn3): DetrFrozenBatchNorm2d()
                (act3): ReLU(inplace=True)
              )
              (14): Bottleneck(
                (conv1): Conv2d(1024, 256, kernel_size=(1, 1), stride=(1, 1), bias=False)
                (bn1): DetrFrozenBatchNorm2d()
                (act1): ReLU(inplace=True)
                (conv2): Conv2d(256, 256, kernel_size=(3, 3), stride=(1, 1), padding=(1, 1), bias=False)
                (bn2): DetrFrozenBatchNorm2d()
                (act2): ReLU(inplace=True)
                (conv3): Conv2d(256, 1024, kernel_size=(1, 1), stride=(1, 1), bias=False)
                (bn3): DetrFrozenBatchNorm2d()
                (act3): ReLU(inplace=True)
              )
              (15): Bottleneck(
                (conv1): Conv2d(1024, 256, kernel_size=(1, 1), stride=(1, 1), bias=False)
                (bn1): DetrFrozenBatchNorm2d()
                (act1): ReLU(inplace=True)
                (conv2): Conv2d(256, 256, kernel_size=(3, 3), stride=(1, 1), padding=(1, 1), bias=False)
                (bn2): DetrFrozenBatchNorm2d()
                (act2): ReLU(inplace=True)
                (conv3): Conv2d(256, 1024, kernel_size=(1, 1), stride=(1, 1), bias=False)
                (bn3): DetrFrozenBatchNorm2d()
                (act3): ReLU(inplace=True)
              )
              (16): Bottleneck(
                (conv1): Conv2d(1024, 256, kernel_size=(1, 1), stride=(1, 1), bias=False)
                (bn1): DetrFrozenBatchNorm2d()
                (act1): ReLU(inplace=True)
                (conv2): Conv2d(256, 256, kernel_size=(3, 3), stride=(1, 1), padding=(1, 1), bias=False)
                (bn2): DetrFrozenBatchNorm2d()
                (act2): ReLU(inplace=True)
                (conv3): Conv2d(256, 1024, kernel_size=(1, 1), stride=(1, 1), bias=False)
                (bn3): DetrFrozenBatchNorm2d()
                (act3): ReLU(inplace=True)
              )
              (17): Bottleneck(
                (conv1): Conv2d(1024, 256, kernel_size=(1, 1), stride=(1, 1), bias=False)
                (bn1): DetrFrozenBatchNorm2d()
                (act1): ReLU(inplace=True)
                (conv2): Conv2d(256, 256, kernel_size=(3, 3), stride=(1, 1), padding=(1, 1), bias=False)
                (bn2): DetrFrozenBatchNorm2d()
                (act2): ReLU(inplace=True)
                (conv3): Conv2d(256, 1024, kernel_size=(1, 1), stride=(1, 1), bias=False)
                (bn3): DetrFrozenBatchNorm2d()
                (act3): ReLU(inplace=True)
              )
              (18): Bottleneck(
                (conv1): Conv2d(1024, 256, kernel_size=(1, 1), stride=(1, 1), bias=False)
                (bn1): DetrFrozenBatchNorm2d()
                (act1): ReLU(inplace=True)
                (conv2): Conv2d(256, 256, kernel_size=(3, 3), stride=(1, 1), padding=(1, 1), bias=False)
                (bn2): DetrFrozenBatchNorm2d()
                (act2): ReLU(inplace=True)
                (conv3): Conv2d(256, 1024, kernel_size=(1, 1), stride=(1, 1), bias=False)
                (bn3): DetrFrozenBatchNorm2d()
                (act3): ReLU(inplace=True)
              )
              (19): Bottleneck(
                (conv1): Conv2d(1024, 256, kernel_size=(1, 1), stride=(1, 1), bias=False)
                (bn1): DetrFrozenBatchNorm2d()
                (act1): ReLU(inplace=True)
                (conv2): Conv2d(256, 256, kernel_size=(3, 3), stride=(1, 1), padding=(1, 1), bias=False)
                (bn2): DetrFrozenBatchNorm2d()
                (act2): ReLU(inplace=True)
                (conv3): Conv2d(256, 1024, kernel_size=(1, 1), stride=(1, 1), bias=False)
                (bn3): DetrFrozenBatchNorm2d()
                (act3): ReLU(inplace=True)
              )
              (20): Bottleneck(
                (conv1): Conv2d(1024, 256, kernel_size=(1, 1), stride=(1, 1), bias=False)
                (bn1): DetrFrozenBatchNorm2d()
                (act1): ReLU(inplace=True)
                (conv2): Conv2d(256, 256, kernel_size=(3, 3), stride=(1, 1), padding=(1, 1), bias=False)
                (bn2): DetrFrozenBatchNorm2d()
                (act2): ReLU(inplace=True)
                (conv3): Conv2d(256, 1024, kernel_size=(1, 1), stride=(1, 1), bias=False)
                (bn3): DetrFrozenBatchNorm2d()
                (act3): ReLU(inplace=True)
              )
              (21): Bottleneck(
                (conv1): Conv2d(1024, 256, kernel_size=(1, 1), stride=(1, 1), bias=False)
                (bn1): DetrFrozenBatchNorm2d()
                (act1): ReLU(inplace=True)
                (conv2): Conv2d(256, 256, kernel_size=(3, 3), stride=(1, 1), padding=(1, 1), bias=False)
                (bn2): DetrFrozenBatchNorm2d()
                (act2): ReLU(inplace=True)
                (conv3): Conv2d(256, 1024, kernel_size=(1, 1), stride=(1, 1), bias=False)
                (bn3): DetrFrozenBatchNorm2d()
                (act3): ReLU(inplace=True)
              )
              (22): Bottleneck(
                (conv1): Conv2d(1024, 256, kernel_size=(1, 1), stride=(1, 1), bias=False)
                (bn1): DetrFrozenBatchNorm2d()
                (act1): ReLU(inplace=True)
                (conv2): Conv2d(256, 256, kernel_size=(3, 3), stride=(1, 1), padding=(1, 1), bias=False)
                (bn2): DetrFrozenBatchNorm2d()
                (act2): ReLU(inplace=True)
                (conv3): Conv2d(256, 1024, kernel_size=(1, 1), stride=(1, 1), bias=False)
                (bn3): DetrFrozenBatchNorm2d()
                (act3): ReLU(inplace=True)
              )
            )
            (layer4): Sequential(
              (0): Bottleneck(
                (conv1): Conv2d(1024, 512, kernel_size=(1, 1), stride=(1, 1), bias=False)
                (bn1): DetrFrozenBatchNorm2d()
                (act1): ReLU(inplace=True)
                (conv2): Conv2d(512, 512, kernel_size=(3, 3), stride=(2, 2), padding=(1, 1), bias=False)
                (bn2): DetrFrozenBatchNorm2d()
                (act2): ReLU(inplace=True)
                (conv3): Conv2d(512, 2048, kernel_size=(1, 1), stride=(1, 1), bias=False)
                (bn3): DetrFrozenBatchNorm2d()
                (act3): ReLU(inplace=True)
                (downsample): Sequential(
                  (0): Conv2d(1024, 2048, kernel_size=(1, 1), stride=(2, 2), bias=False)
                  (1): BatchNorm2d(2048, eps=1e-05, momentum=0.1, affine=True, track_running_stats=True)
                )
              )
              (1): Bottleneck(
                (conv1): Conv2d(2048, 512, kernel_size=(1, 1), stride=(1, 1), bias=False)
                (bn1): DetrFrozenBatchNorm2d()
                (act1): ReLU(inplace=True)
                (conv2): Conv2d(512, 512, kernel_size=(3, 3), stride=(1, 1), padding=(1, 1), bias=False)
                (bn2): DetrFrozenBatchNorm2d()
                (act2): ReLU(inplace=True)
                (conv3): Conv2d(512, 2048, kernel_size=(1, 1), stride=(1, 1), bias=False)
                (bn3): DetrFrozenBatchNorm2d()
                (act3): ReLU(inplace=True)
              )
              (2): Bottleneck(
                (conv1): Conv2d(2048, 512, kernel_size=(1, 1), stride=(1, 1), bias=False)
                (bn1): DetrFrozenBatchNorm2d()
                (act1): ReLU(inplace=True)
                (conv2): Conv2d(512, 512, kernel_size=(3, 3), stride=(1, 1), padding=(1, 1), bias=False)
                (bn2): DetrFrozenBatchNorm2d()
                (act2): ReLU(inplace=True)
                (conv3): Conv2d(512, 2048, kernel_size=(1, 1), stride=(1, 1), bias=False)
                (bn3): DetrFrozenBatchNorm2d()
                (act3): ReLU(inplace=True)
              )
            )
          )
        )
        (position_embedding): DetrSinePositionEmbedding()
      )
      (input_projection): Conv2d(2048, 256, kernel_size=(1, 1), stride=(1, 1))
      (query_position_embeddings): Embedding(100, 256)
      (encoder): DetrEncoder(
        (layers): ModuleList(
          (0): DetrEncoderLayer(
            (self_attn): DetrAttention(
              (k_proj): Linear(in_features=256, out_features=256, bias=True)
              (v_proj): Linear(in_features=256, out_features=256, bias=True)
              (q_proj): Linear(in_features=256, out_features=256, bias=True)
              (out_proj): Linear(in_features=256, out_features=256, bias=True)
            )
            (self_attn_layer_norm): LayerNorm((256,), eps=1e-05, elementwise_affine=True)
            (fc1): Linear(in_features=256, out_features=2048, bias=True)
            (fc2): Linear(in_features=2048, out_features=256, bias=True)
            (final_layer_norm): LayerNorm((256,), eps=1e-05, elementwise_affine=True)
          )
          (1): DetrEncoderLayer(
            (self_attn): DetrAttention(
              (k_proj): Linear(in_features=256, out_features=256, bias=True)
              (v_proj): Linear(in_features=256, out_features=256, bias=True)
              (q_proj): Linear(in_features=256, out_features=256, bias=True)
              (out_proj): Linear(in_features=256, out_features=256, bias=True)
            )
            (self_attn_layer_norm): LayerNorm((256,), eps=1e-05, elementwise_affine=True)
            (fc1): Linear(in_features=256, out_features=2048, bias=True)
            (fc2): Linear(in_features=2048, out_features=256, bias=True)
            (final_layer_norm): LayerNorm((256,), eps=1e-05, elementwise_affine=True)
          )
          (2): DetrEncoderLayer(
            (self_attn): DetrAttention(
              (k_proj): Linear(in_features=256, out_features=256, bias=True)
              (v_proj): Linear(in_features=256, out_features=256, bias=True)
              (q_proj): Linear(in_features=256, out_features=256, bias=True)
              (out_proj): Linear(in_features=256, out_features=256, bias=True)
            )
            (self_attn_layer_norm): LayerNorm((256,), eps=1e-05, elementwise_affine=True)
            (fc1): Linear(in_features=256, out_features=2048, bias=True)
            (fc2): Linear(in_features=2048, out_features=256, bias=True)
            (final_layer_norm): LayerNorm((256,), eps=1e-05, elementwise_affine=True)
          )
          (3): DetrEncoderLayer(
            (self_attn): DetrAttention(
              (k_proj): Linear(in_features=256, out_features=256, bias=True)
              (v_proj): Linear(in_features=256, out_features=256, bias=True)
              (q_proj): Linear(in_features=256, out_features=256, bias=True)
              (out_proj): Linear(in_features=256, out_features=256, bias=True)
            )
            (self_attn_layer_norm): LayerNorm((256,), eps=1e-05, elementwise_affine=True)
            (fc1): Linear(in_features=256, out_features=2048, bias=True)
            (fc2): Linear(in_features=2048, out_features=256, bias=True)
            (final_layer_norm): LayerNorm((256,), eps=1e-05, elementwise_affine=True)
          )
          (4): DetrEncoderLayer(
            (self_attn): DetrAttention(
              (k_proj): Linear(in_features=256, out_features=256, bias=True)
              (v_proj): Linear(in_features=256, out_features=256, bias=True)
              (q_proj): Linear(in_features=256, out_features=256, bias=True)
              (out_proj): Linear(in_features=256, out_features=256, bias=True)
            )
            (self_attn_layer_norm): LayerNorm((256,), eps=1e-05, elementwise_affine=True)
            (fc1): Linear(in_features=256, out_features=2048, bias=True)
            (fc2): Linear(in_features=2048, out_features=256, bias=True)
            (final_layer_norm): LayerNorm((256,), eps=1e-05, elementwise_affine=True)
          )
          (5): DetrEncoderLayer(
            (self_attn): DetrAttention(
              (k_proj): Linear(in_features=256, out_features=256, bias=True)
              (v_proj): Linear(in_features=256, out_features=256, bias=True)
              (q_proj): Linear(in_features=256, out_features=256, bias=True)
              (out_proj): Linear(in_features=256, out_features=256, bias=True)
            )
            (self_attn_layer_norm): LayerNorm((256,), eps=1e-05, elementwise_affine=True)
            (fc1): Linear(in_features=256, out_features=2048, bias=True)
            (fc2): Linear(in_features=2048, out_features=256, bias=True)
            (final_layer_norm): LayerNorm((256,), eps=1e-05, elementwise_affine=True)
          )
        )
      )
      (decoder): DetrDecoder(
        (layers): ModuleList(
          (0): DetrDecoderLayer(
            (self_attn): DetrAttention(
              (k_proj): Linear(in_features=256, out_features=256, bias=True)
              (v_proj): Linear(in_features=256, out_features=256, bias=True)
              (q_proj): Linear(in_features=256, out_features=256, bias=True)
              (out_proj): Linear(in_features=256, out_features=256, bias=True)
            )
            (self_attn_layer_norm): LayerNorm((256,), eps=1e-05, elementwise_affine=True)
            (encoder_attn): DetrAttention(
              (k_proj): Linear(in_features=256, out_features=256, bias=True)
              (v_proj): Linear(in_features=256, out_features=256, bias=True)
              (q_proj): Linear(in_features=256, out_features=256, bias=True)
              (out_proj): Linear(in_features=256, out_features=256, bias=True)
            )
            (encoder_attn_layer_norm): LayerNorm((256,), eps=1e-05, elementwise_affine=True)
            (fc1): Linear(in_features=256, out_features=2048, bias=True)
            (fc2): Linear(in_features=2048, out_features=256, bias=True)
            (final_layer_norm): LayerNorm((256,), eps=1e-05, elementwise_affine=True)
          )
          (1): DetrDecoderLayer(
            (self_attn): DetrAttention(
              (k_proj): Linear(in_features=256, out_features=256, bias=True)
              (v_proj): Linear(in_features=256, out_features=256, bias=True)
              (q_proj): Linear(in_features=256, out_features=256, bias=True)
              (out_proj): Linear(in_features=256, out_features=256, bias=True)
            )
            (self_attn_layer_norm): LayerNorm((256,), eps=1e-05, elementwise_affine=True)
            (encoder_attn): DetrAttention(
              (k_proj): Linear(in_features=256, out_features=256, bias=True)
              (v_proj): Linear(in_features=256, out_features=256, bias=True)
              (q_proj): Linear(in_features=256, out_features=256, bias=True)
              (out_proj): Linear(in_features=256, out_features=256, bias=True)
            )
            (encoder_attn_layer_norm): LayerNorm((256,), eps=1e-05, elementwise_affine=True)
            (fc1): Linear(in_features=256, out_features=2048, bias=True)
            (fc2): Linear(in_features=2048, out_features=256, bias=True)
            (final_layer_norm): LayerNorm((256,), eps=1e-05, elementwise_affine=True)
          )
          (2): DetrDecoderLayer(
            (self_attn): DetrAttention(
              (k_proj): Linear(in_features=256, out_features=256, bias=True)
              (v_proj): Linear(in_features=256, out_features=256, bias=True)
              (q_proj): Linear(in_features=256, out_features=256, bias=True)
              (out_proj): Linear(in_features=256, out_features=256, bias=True)
            )
            (self_attn_layer_norm): LayerNorm((256,), eps=1e-05, elementwise_affine=True)
            (encoder_attn): DetrAttention(
              (k_proj): Linear(in_features=256, out_features=256, bias=True)
              (v_proj): Linear(in_features=256, out_features=256, bias=True)
              (q_proj): Linear(in_features=256, out_features=256, bias=True)
              (out_proj): Linear(in_features=256, out_features=256, bias=True)
            )
            (encoder_attn_layer_norm): LayerNorm((256,), eps=1e-05, elementwise_affine=True)
            (fc1): Linear(in_features=256, out_features=2048, bias=True)
            (fc2): Linear(in_features=2048, out_features=256, bias=True)
            (final_layer_norm): LayerNorm((256,), eps=1e-05, elementwise_affine=True)
          )
          (3): DetrDecoderLayer(
            (self_attn): DetrAttention(
              (k_proj): Linear(in_features=256, out_features=256, bias=True)
              (v_proj): Linear(in_features=256, out_features=256, bias=True)
              (q_proj): Linear(in_features=256, out_features=256, bias=True)
              (out_proj): Linear(in_features=256, out_features=256, bias=True)
            )
            (self_attn_layer_norm): LayerNorm((256,), eps=1e-05, elementwise_affine=True)
            (encoder_attn): DetrAttention(
              (k_proj): Linear(in_features=256, out_features=256, bias=True)
              (v_proj): Linear(in_features=256, out_features=256, bias=True)
              (q_proj): Linear(in_features=256, out_features=256, bias=True)
              (out_proj): Linear(in_features=256, out_features=256, bias=True)
            )
            (encoder_attn_layer_norm): LayerNorm((256,), eps=1e-05, elementwise_affine=True)
            (fc1): Linear(in_features=256, out_features=2048, bias=True)
            (fc2): Linear(in_features=2048, out_features=256, bias=True)
            (final_layer_norm): LayerNorm((256,), eps=1e-05, elementwise_affine=True)
          )
          (4): DetrDecoderLayer(
            (self_attn): DetrAttention(
              (k_proj): Linear(in_features=256, out_features=256, bias=True)
              (v_proj): Linear(in_features=256, out_features=256, bias=True)
              (q_proj): Linear(in_features=256, out_features=256, bias=True)
              (out_proj): Linear(in_features=256, out_features=256, bias=True)
            )
            (self_attn_layer_norm): LayerNorm((256,), eps=1e-05, elementwise_affine=True)
            (encoder_attn): DetrAttention(
              (k_proj): Linear(in_features=256, out_features=256, bias=True)
              (v_proj): Linear(in_features=256, out_features=256, bias=True)
              (q_proj): Linear(in_features=256, out_features=256, bias=True)
              (out_proj): Linear(in_features=256, out_features=256, bias=True)
            )
            (encoder_attn_layer_norm): LayerNorm((256,), eps=1e-05, elementwise_affine=True)
            (fc1): Linear(in_features=256, out_features=2048, bias=True)
            (fc2): Linear(in_features=2048, out_features=256, bias=True)
            (final_layer_norm): LayerNorm((256,), eps=1e-05, elementwise_affine=True)
          )
          (5): DetrDecoderLayer(
            (self_attn): DetrAttention(
              (k_proj): Linear(in_features=256, out_features=256, bias=True)
              (v_proj): Linear(in_features=256, out_features=256, bias=True)
              (q_proj): Linear(in_features=256, out_features=256, bias=True)
              (out_proj): Linear(in_features=256, out_features=256, bias=True)
            )
            (self_attn_layer_norm): LayerNorm((256,), eps=1e-05, elementwise_affine=True)
            (encoder_attn): DetrAttention(
              (k_proj): Linear(in_features=256, out_features=256, bias=True)
              (v_proj): Linear(in_features=256, out_features=256, bias=True)
              (q_proj): Linear(in_features=256, out_features=256, bias=True)
              (out_proj): Linear(in_features=256, out_features=256, bias=True)
            )
            (encoder_attn_layer_norm): LayerNorm((256,), eps=1e-05, elementwise_affine=True)
            (fc1): Linear(in_features=256, out_features=2048, bias=True)
            (fc2): Linear(in_features=2048, out_features=256, bias=True)
            (final_layer_norm): LayerNorm((256,), eps=1e-05, elementwise_affine=True)
          )
        )
        (layernorm): LayerNorm((256,), eps=1e-05, elementwise_affine=True)
      )
    )
    (class_labels_classifier): Linear(in_features=256, out_features=251, bias=True)
    (bbox_predictor): DetrMLPPredictionHead(
      (layers): ModuleList(
        (0): Linear(in_features=256, out_features=256, bias=True)
        (1): Linear(in_features=256, out_features=256, bias=True)
        (2): Linear(in_features=256, out_features=4, bias=True)
      )
    )
  )
  (mask_head): DetrMaskHeadSmallConv(
    (lay1): Conv2d(264, 264, kernel_size=(3, 3), stride=(1, 1), padding=(1, 1))
    (gn1): GroupNorm(8, 264, eps=1e-05, affine=True)
    (lay2): Conv2d(264, 128, kernel_size=(3, 3), stride=(1, 1), padding=(1, 1))
    (gn2): GroupNorm(8, 128, eps=1e-05, affine=True)
    (lay3): Conv2d(128, 64, kernel_size=(3, 3), stride=(1, 1), padding=(1, 1))
    (gn3): GroupNorm(8, 64, eps=1e-05, affine=True)
    (lay4): Conv2d(64, 32, kernel_size=(3, 3), stride=(1, 1), padding=(1, 1))
    (gn4): GroupNorm(8, 32, eps=1e-05, affine=True)
    (lay5): Conv2d(32, 16, kernel_size=(3, 3), stride=(1, 1), padding=(1, 1))
    (gn5): GroupNorm(8, 16, eps=1e-05, affine=True)
    (out_lay): Conv2d(16, 1, kernel_size=(3, 3), stride=(1, 1), padding=(1, 1))
    (adapter1): Conv2d(1024, 128, kernel_size=(1, 1), stride=(1, 1))
    (adapter2): Conv2d(512, 64, kernel_size=(1, 1), stride=(1, 1))
    (adapter3): Conv2d(256, 32, kernel_size=(1, 1), stride=(1, 1))
  )
  (bbox_attention): DetrMHAttentionMap(
    (dropout): Dropout(p=0.0, inplace=False)
    (q_linear): Linear(in_features=256, out_features=256, bias=True)
    (k_linear): Linear(in_features=256, out_features=256, bias=True)
  )
)
